<?xml version="1.0"?>
<net name="torch-jit-export" version="11">
	<layers>
		<layer id="0" name="x.1" type="Parameter" version="opset1">
			<data shape="1,3,512,1024" element_type="f32" />
			<output>
				<port id="0" precision="FP32" names="x.1">
					<dim>1</dim>
					<dim>3</dim>
					<dim>512</dim>
					<dim>1024</dim>
				</port>
			</output>
		</layer>
		<layer id="1" name="trunk.early.0.weight" type="Const" version="opset1">
			<data element_type="f32" shape="16, 3, 3, 3" offset="0" size="1728" />
			<output>
				<port id="0" precision="FP32" names="trunk.early.0.weight">
					<dim>16</dim>
					<dim>3</dim>
					<dim>3</dim>
					<dim>3</dim>
				</port>
			</output>
		</layer>
		<layer id="2" name="Shape_9" type="ShapeOf" version="opset3">
			<data output_type="i64" />
			<input>
				<port id="0" precision="FP32">
					<dim>16</dim>
					<dim>3</dim>
					<dim>3</dim>
					<dim>3</dim>
				</port>
			</input>
			<output>
				<port id="1" precision="I64" names="275">
					<dim>4</dim>
				</port>
			</output>
		</layer>
		<layer id="3" name="Constant_10" type="Const" version="opset1">
			<data element_type="i64" shape="" offset="1728" size="8" />
			<output>
				<port id="0" precision="I64" names="276" />
			</output>
		</layer>
		<layer id="4" name="Constant_3946" type="Const" version="opset1">
			<data element_type="i64" shape="" offset="1736" size="8" />
			<output>
				<port id="0" precision="I64" />
			</output>
		</layer>
		<layer id="5" name="Gather_11" type="Gather" version="opset8">
			<data batch_dims="0" />
			<input>
				<port id="0" precision="I64">
					<dim>4</dim>
				</port>
				<port id="1" precision="I64" />
				<port id="2" precision="I64" />
			</input>
			<output>
				<port id="3" precision="I64" names="277" />
			</output>
		</layer>
		<layer id="6" name="Constant_21" type="Const" version="opset1">
			<data element_type="i64" shape="" offset="1744" size="8" />
			<output>
				<port id="0" precision="I64" names="287" />
			</output>
		</layer>
		<layer id="7" name="Sub_22" type="Subtract" version="opset1">
			<data auto_broadcast="numpy" />
			<input>
				<port id="0" precision="I64" />
				<port id="1" precision="I64" />
			</input>
			<output>
				<port id="2" precision="I64" names="288" />
			</output>
		</layer>
		<layer id="8" name="Constant_23" type="Const" version="opset1">
			<data element_type="i64" shape="" offset="1744" size="8" />
			<output>
				<port id="0" precision="I64" names="289" />
			</output>
		</layer>
		<layer id="9" name="Mul_24" type="Multiply" version="opset1">
			<data auto_broadcast="numpy" />
			<input>
				<port id="0" precision="I64" />
				<port id="1" precision="I64" />
			</input>
			<output>
				<port id="2" precision="I64" names="290" />
			</output>
		</layer>
		<layer id="10" name="Constant_25" type="Const" version="opset1">
			<data element_type="i64" shape="" offset="1752" size="8" />
			<output>
				<port id="0" precision="I64" names="291" />
			</output>
		</layer>
		<layer id="11" name="Add_26" type="Add" version="opset1">
			<data auto_broadcast="numpy" />
			<input>
				<port id="0" precision="I64" />
				<port id="1" precision="I64" />
			</input>
			<output>
				<port id="2" precision="I64" names="292" />
			</output>
		</layer>
		<layer id="12" name="Constant_27" type="Const" version="opset1">
			<data element_type="i64" shape="" offset="1744" size="8" />
			<output>
				<port id="0" precision="I64" names="293" />
			</output>
		</layer>
		<layer id="13" name="Add_28" type="Add" version="opset1">
			<data auto_broadcast="numpy" />
			<input>
				<port id="0" precision="I64" />
				<port id="1" precision="I64" />
			</input>
			<output>
				<port id="2" precision="I64" names="294" />
			</output>
		</layer>
		<layer id="14" name="Shape_3" type="ShapeOf" version="opset3">
			<data output_type="i64" />
			<input>
				<port id="0" precision="FP32">
					<dim>1</dim>
					<dim>3</dim>
					<dim>512</dim>
					<dim>1024</dim>
				</port>
			</input>
			<output>
				<port id="1" precision="I64" names="269">
					<dim>4</dim>
				</port>
			</output>
		</layer>
		<layer id="15" name="Constant_4" type="Const" version="opset1">
			<data element_type="i64" shape="" offset="1728" size="8" />
			<output>
				<port id="0" precision="I64" names="270" />
			</output>
		</layer>
		<layer id="16" name="Constant_3938" type="Const" version="opset1">
			<data element_type="i64" shape="" offset="1736" size="8" />
			<output>
				<port id="0" precision="I64" />
			</output>
		</layer>
		<layer id="17" name="Gather_5" type="Gather" version="opset8">
			<data batch_dims="0" />
			<input>
				<port id="0" precision="I64">
					<dim>4</dim>
				</port>
				<port id="1" precision="I64" />
				<port id="2" precision="I64" />
			</input>
			<output>
				<port id="3" precision="I64" names="271" />
			</output>
		</layer>
		<layer id="18" name="Sub_29" type="Subtract" version="opset1">
			<data auto_broadcast="numpy" />
			<input>
				<port id="0" precision="I64" />
				<port id="1" precision="I64" />
			</input>
			<output>
				<port id="2" precision="I64" names="295" />
			</output>
		</layer>
		<layer id="19" name="Constant_30" type="Const" version="opset1">
			<data element_type="i64" shape="" offset="1760" size="8" />
			<output>
				<port id="0" precision="I64" names="296" />
			</output>
		</layer>
		<layer id="20" name="Div_31" type="Divide" version="opset1">
			<data auto_broadcast="numpy" m_pythondiv="true" />
			<input>
				<port id="0" precision="I64" />
				<port id="1" precision="I64" />
			</input>
			<output>
				<port id="2" precision="I64" names="297" />
			</output>
		</layer>
		<layer id="21" name="Cast_32" type="Convert" version="opset1">
			<data destination_type="i64" />
			<input>
				<port id="0" precision="I64" />
			</input>
			<output>
				<port id="1" precision="I64" names="298" />
			</output>
		</layer>
		<layer id="22" name="Cast_33" type="Convert" version="opset1">
			<data destination_type="i64" />
			<input>
				<port id="0" precision="I64" />
			</input>
			<output>
				<port id="1" precision="I64" names="299" />
			</output>
		</layer>
		<layer id="23" name="Constant_3993" type="Const" version="opset1">
			<data element_type="i64" shape="1" offset="1736" size="8" />
			<output>
				<port id="0" precision="I64">
					<dim>1</dim>
				</port>
			</output>
		</layer>
		<layer id="24" name="Unsqueeze_53" type="Unsqueeze" version="opset1">
			<input>
				<port id="0" precision="I64" />
				<port id="1" precision="I64">
					<dim>1</dim>
				</port>
			</input>
			<output>
				<port id="2" precision="I64" names="319">
					<dim>1</dim>
				</port>
			</output>
		</layer>
		<layer id="25" name="Constant_34" type="Const" version="opset1">
			<data element_type="i64" shape="" offset="1760" size="8" />
			<output>
				<port id="0" precision="I64" names="300" />
			</output>
		</layer>
		<layer id="26" name="Div_35" type="Divide" version="opset1">
			<data auto_broadcast="numpy" m_pythondiv="true" />
			<input>
				<port id="0" precision="I64" />
				<port id="1" precision="I64" />
			</input>
			<output>
				<port id="2" precision="I64" names="301" />
			</output>
		</layer>
		<layer id="27" name="Cast_36" type="Convert" version="opset1">
			<data destination_type="i64" />
			<input>
				<port id="0" precision="I64" />
			</input>
			<output>
				<port id="1" precision="I64" names="302" />
			</output>
		</layer>
		<layer id="28" name="Cast_37" type="Convert" version="opset1">
			<data destination_type="i64" />
			<input>
				<port id="0" precision="I64" />
			</input>
			<output>
				<port id="1" precision="I64" names="303" />
			</output>
		</layer>
		<layer id="29" name="Sub_38" type="Subtract" version="opset1">
			<data auto_broadcast="numpy" />
			<input>
				<port id="0" precision="I64" />
				<port id="1" precision="I64" />
			</input>
			<output>
				<port id="2" precision="I64" names="304" />
			</output>
		</layer>
		<layer id="30" name="Constant_3995" type="Const" version="opset1">
			<data element_type="i64" shape="1" offset="1736" size="8" />
			<output>
				<port id="0" precision="I64">
					<dim>1</dim>
				</port>
			</output>
		</layer>
		<layer id="31" name="Unsqueeze_54" type="Unsqueeze" version="opset1">
			<input>
				<port id="0" precision="I64" />
				<port id="1" precision="I64">
					<dim>1</dim>
				</port>
			</input>
			<output>
				<port id="2" precision="I64" names="320">
					<dim>1</dim>
				</port>
			</output>
		</layer>
		<layer id="32" name="Shape_6" type="ShapeOf" version="opset3">
			<data output_type="i64" />
			<input>
				<port id="0" precision="FP32">
					<dim>16</dim>
					<dim>3</dim>
					<dim>3</dim>
					<dim>3</dim>
				</port>
			</input>
			<output>
				<port id="1" precision="I64" names="272">
					<dim>4</dim>
				</port>
			</output>
		</layer>
		<layer id="33" name="Constant_7" type="Const" version="opset1">
			<data element_type="i64" shape="" offset="1760" size="8" />
			<output>
				<port id="0" precision="I64" names="273" />
			</output>
		</layer>
		<layer id="34" name="Constant_3942" type="Const" version="opset1">
			<data element_type="i64" shape="" offset="1736" size="8" />
			<output>
				<port id="0" precision="I64" />
			</output>
		</layer>
		<layer id="35" name="Gather_8" type="Gather" version="opset8">
			<data batch_dims="0" />
			<input>
				<port id="0" precision="I64">
					<dim>4</dim>
				</port>
				<port id="1" precision="I64" />
				<port id="2" precision="I64" />
			</input>
			<output>
				<port id="3" precision="I64" names="274" />
			</output>
		</layer>
		<layer id="36" name="Constant_12" type="Const" version="opset1">
			<data element_type="i64" shape="" offset="1744" size="8" />
			<output>
				<port id="0" precision="I64" names="278" />
			</output>
		</layer>
		<layer id="37" name="Sub_13" type="Subtract" version="opset1">
			<data auto_broadcast="numpy" />
			<input>
				<port id="0" precision="I64" />
				<port id="1" precision="I64" />
			</input>
			<output>
				<port id="2" precision="I64" names="279" />
			</output>
		</layer>
		<layer id="38" name="Constant_14" type="Const" version="opset1">
			<data element_type="i64" shape="" offset="1744" size="8" />
			<output>
				<port id="0" precision="I64" names="280" />
			</output>
		</layer>
		<layer id="39" name="Mul_15" type="Multiply" version="opset1">
			<data auto_broadcast="numpy" />
			<input>
				<port id="0" precision="I64" />
				<port id="1" precision="I64" />
			</input>
			<output>
				<port id="2" precision="I64" names="281" />
			</output>
		</layer>
		<layer id="40" name="Constant_16" type="Const" version="opset1">
			<data element_type="i64" shape="" offset="1768" size="8" />
			<output>
				<port id="0" precision="I64" names="282" />
			</output>
		</layer>
		<layer id="41" name="Add_17" type="Add" version="opset1">
			<data auto_broadcast="numpy" />
			<input>
				<port id="0" precision="I64" />
				<port id="1" precision="I64" />
			</input>
			<output>
				<port id="2" precision="I64" names="283" />
			</output>
		</layer>
		<layer id="42" name="Constant_18" type="Const" version="opset1">
			<data element_type="i64" shape="" offset="1744" size="8" />
			<output>
				<port id="0" precision="I64" names="284" />
			</output>
		</layer>
		<layer id="43" name="Add_19" type="Add" version="opset1">
			<data auto_broadcast="numpy" />
			<input>
				<port id="0" precision="I64" />
				<port id="1" precision="I64" />
			</input>
			<output>
				<port id="2" precision="I64" names="285" />
			</output>
		</layer>
		<layer id="44" name="Shape_0" type="ShapeOf" version="opset3">
			<data output_type="i64" />
			<input>
				<port id="0" precision="FP32">
					<dim>1</dim>
					<dim>3</dim>
					<dim>512</dim>
					<dim>1024</dim>
				</port>
			</input>
			<output>
				<port id="1" precision="I64" names="266">
					<dim>4</dim>
				</port>
			</output>
		</layer>
		<layer id="45" name="Constant_1" type="Const" version="opset1">
			<data element_type="i64" shape="" offset="1760" size="8" />
			<output>
				<port id="0" precision="I64" names="267" />
			</output>
		</layer>
		<layer id="46" name="Constant_3934" type="Const" version="opset1">
			<data element_type="i64" shape="" offset="1736" size="8" />
			<output>
				<port id="0" precision="I64" />
			</output>
		</layer>
		<layer id="47" name="Gather_2" type="Gather" version="opset8">
			<data batch_dims="0" />
			<input>
				<port id="0" precision="I64">
					<dim>4</dim>
				</port>
				<port id="1" precision="I64" />
				<port id="2" precision="I64" />
			</input>
			<output>
				<port id="3" precision="I64" names="268" />
			</output>
		</layer>
		<layer id="48" name="Sub_20" type="Subtract" version="opset1">
			<data auto_broadcast="numpy" />
			<input>
				<port id="0" precision="I64" />
				<port id="1" precision="I64" />
			</input>
			<output>
				<port id="2" precision="I64" names="286" />
			</output>
		</layer>
		<layer id="49" name="Constant_39" type="Const" version="opset1">
			<data element_type="i64" shape="" offset="1760" size="8" />
			<output>
				<port id="0" precision="I64" names="305" />
			</output>
		</layer>
		<layer id="50" name="Div_40" type="Divide" version="opset1">
			<data auto_broadcast="numpy" m_pythondiv="true" />
			<input>
				<port id="0" precision="I64" />
				<port id="1" precision="I64" />
			</input>
			<output>
				<port id="2" precision="I64" names="306" />
			</output>
		</layer>
		<layer id="51" name="Cast_41" type="Convert" version="opset1">
			<data destination_type="i64" />
			<input>
				<port id="0" precision="I64" />
			</input>
			<output>
				<port id="1" precision="I64" names="307" />
			</output>
		</layer>
		<layer id="52" name="Cast_42" type="Convert" version="opset1">
			<data destination_type="i64" />
			<input>
				<port id="0" precision="I64" />
			</input>
			<output>
				<port id="1" precision="I64" names="308" />
			</output>
		</layer>
		<layer id="53" name="Constant_3997" type="Const" version="opset1">
			<data element_type="i64" shape="1" offset="1736" size="8" />
			<output>
				<port id="0" precision="I64">
					<dim>1</dim>
				</port>
			</output>
		</layer>
		<layer id="54" name="Unsqueeze_55" type="Unsqueeze" version="opset1">
			<input>
				<port id="0" precision="I64" />
				<port id="1" precision="I64">
					<dim>1</dim>
				</port>
			</input>
			<output>
				<port id="2" precision="I64" names="321">
					<dim>1</dim>
				</port>
			</output>
		</layer>
		<layer id="55" name="Constant_43" type="Const" version="opset1">
			<data element_type="i64" shape="" offset="1760" size="8" />
			<output>
				<port id="0" precision="I64" names="309" />
			</output>
		</layer>
		<layer id="56" name="Div_44" type="Divide" version="opset1">
			<data auto_broadcast="numpy" m_pythondiv="true" />
			<input>
				<port id="0" precision="I64" />
				<port id="1" precision="I64" />
			</input>
			<output>
				<port id="2" precision="I64" names="310" />
			</output>
		</layer>
		<layer id="57" name="Cast_45" type="Convert" version="opset1">
			<data destination_type="i64" />
			<input>
				<port id="0" precision="I64" />
			</input>
			<output>
				<port id="1" precision="I64" names="311" />
			</output>
		</layer>
		<layer id="58" name="Cast_46" type="Convert" version="opset1">
			<data destination_type="i64" />
			<input>
				<port id="0" precision="I64" />
			</input>
			<output>
				<port id="1" precision="I64" names="312" />
			</output>
		</layer>
		<layer id="59" name="Sub_47" type="Subtract" version="opset1">
			<data auto_broadcast="numpy" />
			<input>
				<port id="0" precision="I64" />
				<port id="1" precision="I64" />
			</input>
			<output>
				<port id="2" precision="I64" names="313" />
			</output>
		</layer>
		<layer id="60" name="Constant_3999" type="Const" version="opset1">
			<data element_type="i64" shape="1" offset="1736" size="8" />
			<output>
				<port id="0" precision="I64">
					<dim>1</dim>
				</port>
			</output>
		</layer>
		<layer id="61" name="Unsqueeze_56" type="Unsqueeze" version="opset1">
			<input>
				<port id="0" precision="I64" />
				<port id="1" precision="I64">
					<dim>1</dim>
				</port>
			</input>
			<output>
				<port id="2" precision="I64" names="322">
					<dim>1</dim>
				</port>
			</output>
		</layer>
		<layer id="62" name="Concat_57" type="Concat" version="opset1">
			<data axis="0" />
			<input>
				<port id="0" precision="I64">
					<dim>1</dim>
				</port>
				<port id="1" precision="I64">
					<dim>1</dim>
				</port>
				<port id="2" precision="I64">
					<dim>1</dim>
				</port>
				<port id="3" precision="I64">
					<dim>1</dim>
				</port>
			</input>
			<output>
				<port id="4" precision="I64" names="323">
					<dim>4</dim>
				</port>
			</output>
		</layer>
		<layer id="63" name="Cast_65" type="Convert" version="opset1">
			<data destination_type="i64" />
			<input>
				<port id="0" precision="I64">
					<dim>4</dim>
				</port>
			</input>
			<output>
				<port id="1" precision="I64" names="331">
					<dim>4</dim>
				</port>
			</output>
		</layer>
		<layer id="64" name="Constant_4012" type="Const" version="opset1">
			<data element_type="i64" shape="" offset="1736" size="8" />
			<output>
				<port id="0" precision="I64" />
			</output>
		</layer>
		<layer id="65" name="Constant_61" type="Const" version="opset1">
			<data element_type="i64" shape="" offset="1776" size="8" />
			<output>
				<port id="0" precision="I64" names="327" />
			</output>
		</layer>
		<layer id="66" name="Constant_62" type="Const" version="opset1">
			<data element_type="i64" shape="" offset="1760" size="8" />
			<output>
				<port id="0" precision="I64" names="328" />
			</output>
		</layer>
		<layer id="67" name="Mul_63" type="Multiply" version="opset1">
			<data auto_broadcast="numpy" />
			<input>
				<port id="0" precision="I64" />
				<port id="1" precision="I64" />
			</input>
			<output>
				<port id="2" precision="I64" names="329" />
			</output>
		</layer>
		<layer id="68" name="Constant_3984" type="Const" version="opset1">
			<data element_type="i64" shape="1" offset="1736" size="8" />
			<output>
				<port id="0" precision="I64">
					<dim>1</dim>
				</port>
			</output>
		</layer>
		<layer id="69" name="Unsqueeze_48" type="Unsqueeze" version="opset1">
			<input>
				<port id="0" precision="I64" />
				<port id="1" precision="I64">
					<dim>1</dim>
				</port>
			</input>
			<output>
				<port id="2" precision="I64" names="314">
					<dim>1</dim>
				</port>
			</output>
		</layer>
		<layer id="70" name="Constant_3986" type="Const" version="opset1">
			<data element_type="i64" shape="1" offset="1736" size="8" />
			<output>
				<port id="0" precision="I64">
					<dim>1</dim>
				</port>
			</output>
		</layer>
		<layer id="71" name="Unsqueeze_49" type="Unsqueeze" version="opset1">
			<input>
				<port id="0" precision="I64" />
				<port id="1" precision="I64">
					<dim>1</dim>
				</port>
			</input>
			<output>
				<port id="2" precision="I64" names="315">
					<dim>1</dim>
				</port>
			</output>
		</layer>
		<layer id="72" name="Constant_3988" type="Const" version="opset1">
			<data element_type="i64" shape="1" offset="1736" size="8" />
			<output>
				<port id="0" precision="I64">
					<dim>1</dim>
				</port>
			</output>
		</layer>
		<layer id="73" name="Unsqueeze_50" type="Unsqueeze" version="opset1">
			<input>
				<port id="0" precision="I64" />
				<port id="1" precision="I64">
					<dim>1</dim>
				</port>
			</input>
			<output>
				<port id="2" precision="I64" names="316">
					<dim>1</dim>
				</port>
			</output>
		</layer>
		<layer id="74" name="Constant_3990" type="Const" version="opset1">
			<data element_type="i64" shape="1" offset="1736" size="8" />
			<output>
				<port id="0" precision="I64">
					<dim>1</dim>
				</port>
			</output>
		</layer>
		<layer id="75" name="Unsqueeze_51" type="Unsqueeze" version="opset1">
			<input>
				<port id="0" precision="I64" />
				<port id="1" precision="I64">
					<dim>1</dim>
				</port>
			</input>
			<output>
				<port id="2" precision="I64" names="317">
					<dim>1</dim>
				</port>
			</output>
		</layer>
		<layer id="76" name="Concat_52" type="Concat" version="opset1">
			<data axis="0" />
			<input>
				<port id="0" precision="I64">
					<dim>1</dim>
				</port>
				<port id="1" precision="I64">
					<dim>1</dim>
				</port>
				<port id="2" precision="I64">
					<dim>1</dim>
				</port>
				<port id="3" precision="I64">
					<dim>1</dim>
				</port>
			</input>
			<output>
				<port id="4" precision="I64" names="318">
					<dim>4</dim>
				</port>
			</output>
		</layer>
		<layer id="77" name="Shape_59" type="ShapeOf" version="opset3">
			<data output_type="i64" />
			<input>
				<port id="0" precision="I64">
					<dim>4</dim>
				</port>
			</input>
			<output>
				<port id="1" precision="I64" names="325">
					<dim>1</dim>
				</port>
			</output>
		</layer>
		<layer id="78" name="Constant_58" type="Const" version="opset1">
			<data element_type="i64" shape="1" offset="1736" size="8" />
			<output>
				<port id="0" precision="I64" names="324">
					<dim>1</dim>
				</port>
			</output>
		</layer>
		<layer id="79" name="Constant_4004" type="Const" version="opset1">
			<data element_type="i64" shape="" offset="1736" size="8" />
			<output>
				<port id="0" precision="I64" />
			</output>
		</layer>
		<layer id="80" name="Gather_60" type="Gather" version="opset8">
			<data batch_dims="0" />
			<input>
				<port id="0" precision="I64">
					<dim>1</dim>
				</port>
				<port id="1" precision="I64">
					<dim>1</dim>
				</port>
				<port id="2" precision="I64" />
			</input>
			<output>
				<port id="3" precision="I64" names="326">
					<dim>1</dim>
				</port>
			</output>
		</layer>
		<layer id="81" name="Sub_64" type="Subtract" version="opset1">
			<data auto_broadcast="numpy" />
			<input>
				<port id="0" precision="I64" />
				<port id="1" precision="I64">
					<dim>1</dim>
				</port>
			</input>
			<output>
				<port id="2" precision="I64" names="330">
					<dim>1</dim>
				</port>
			</output>
		</layer>
		<layer id="82" name="ConstantOfShape_66" type="Broadcast" version="opset3">
			<data mode="numpy" />
			<input>
				<port id="0" precision="I64" />
				<port id="1" precision="I64">
					<dim>1</dim>
				</port>
			</input>
			<output>
				<port id="2" precision="I64" names="332">
					<dim>4</dim>
				</port>
			</output>
		</layer>
		<layer id="83" name="Concat_67" type="Concat" version="opset1">
			<data axis="0" />
			<input>
				<port id="0" precision="I64">
					<dim>4</dim>
				</port>
				<port id="1" precision="I64">
					<dim>4</dim>
				</port>
			</input>
			<output>
				<port id="2" precision="I64" names="333">
					<dim>8</dim>
				</port>
			</output>
		</layer>
		<layer id="84" name="Constant_68" type="Const" version="opset1">
			<data element_type="i64" shape="2" offset="1784" size="16" />
			<output>
				<port id="0" precision="I64" names="334">
					<dim>2</dim>
				</port>
			</output>
		</layer>
		<layer id="85" name="Reshape_69" type="Reshape" version="opset1">
			<data special_zero="true" />
			<input>
				<port id="0" precision="I64">
					<dim>8</dim>
				</port>
				<port id="1" precision="I64">
					<dim>2</dim>
				</port>
			</input>
			<output>
				<port id="2" precision="I64" names="335">
					<dim>4</dim>
					<dim>2</dim>
				</port>
			</output>
		</layer>
		<layer id="86" name="Constant_71" type="Const" version="opset1">
			<data element_type="i64" shape="1" offset="1800" size="8" />
			<output>
				<port id="0" precision="I64" names="337">
					<dim>1</dim>
				</port>
			</output>
		</layer>
		<layer id="87" name="Constant_72" type="Const" version="opset1">
			<data element_type="i64" shape="1" offset="1808" size="8" />
			<output>
				<port id="0" precision="I64" names="338">
					<dim>1</dim>
				</port>
			</output>
		</layer>
		<layer id="88" name="Constant_73" type="Const" version="opset1">
			<data element_type="i64" shape="1" offset="1800" size="8" />
			<output>
				<port id="0" precision="I64" names="339">
					<dim>1</dim>
				</port>
			</output>
		</layer>
		<layer id="89" name="Constant_70" type="Const" version="opset1">
			<data element_type="i64" shape="1" offset="1736" size="8" />
			<output>
				<port id="0" precision="I64" names="336">
					<dim>1</dim>
				</port>
			</output>
		</layer>
		<layer id="90" name="Slice_74" type="Slice" version="opset8">
			<input>
				<port id="0" precision="I64">
					<dim>4</dim>
					<dim>2</dim>
				</port>
				<port id="1" precision="I64">
					<dim>1</dim>
				</port>
				<port id="2" precision="I64">
					<dim>1</dim>
				</port>
				<port id="3" precision="I64">
					<dim>1</dim>
				</port>
				<port id="4" precision="I64">
					<dim>1</dim>
				</port>
			</input>
			<output>
				<port id="5" precision="I64" names="340">
					<dim>4</dim>
					<dim>2</dim>
				</port>
			</output>
		</layer>
		<layer id="91" name="Constant_4053" type="Const" version="opset1">
			<data element_type="i64" shape="2" offset="1816" size="16" />
			<output>
				<port id="0" precision="I64">
					<dim>2</dim>
				</port>
			</output>
		</layer>
		<layer id="92" name="Transpose_75" type="Transpose" version="opset1">
			<input>
				<port id="0" precision="I64">
					<dim>4</dim>
					<dim>2</dim>
				</port>
				<port id="1" precision="I64">
					<dim>2</dim>
				</port>
			</input>
			<output>
				<port id="2" precision="I64" names="341">
					<dim>2</dim>
					<dim>4</dim>
				</port>
			</output>
		</layer>
		<layer id="93" name="Constant_76" type="Const" version="opset1">
			<data element_type="i64" shape="1" offset="1800" size="8" />
			<output>
				<port id="0" precision="I64" names="342">
					<dim>1</dim>
				</port>
			</output>
		</layer>
		<layer id="94" name="Reshape_77" type="Reshape" version="opset1">
			<data special_zero="true" />
			<input>
				<port id="0" precision="I64">
					<dim>2</dim>
					<dim>4</dim>
				</port>
				<port id="1" precision="I64">
					<dim>1</dim>
				</port>
			</input>
			<output>
				<port id="2" precision="I64" names="343">
					<dim>8</dim>
				</port>
			</output>
		</layer>
		<layer id="95" name="Cast_78" type="Convert" version="opset1">
			<data destination_type="i64" />
			<input>
				<port id="0" precision="I64">
					<dim>8</dim>
				</port>
			</input>
			<output>
				<port id="1" precision="I64" names="344">
					<dim>8</dim>
				</port>
			</output>
		</layer>
		<layer id="96" name="Constant_4064" type="Const" version="opset1">
			<data element_type="i64" shape="" offset="1736" size="8" />
			<output>
				<port id="0" precision="I64" />
			</output>
		</layer>
		<layer id="97" name="Split_4065" type="Split" version="opset1">
			<data num_splits="2" />
			<input>
				<port id="0" precision="I64">
					<dim>8</dim>
				</port>
				<port id="1" precision="I64" />
			</input>
			<output>
				<port id="2" precision="I64">
					<dim>4</dim>
				</port>
				<port id="3" precision="I64">
					<dim>4</dim>
				</port>
			</output>
		</layer>
		<layer id="98" name="Constant_79" type="Const" version="opset1">
			<data element_type="f32" shape="" offset="1832" size="4" />
			<output>
				<port id="0" precision="FP32" names="345" />
			</output>
		</layer>
		<layer id="99" name="Pad_80" type="Pad" version="opset1">
			<data pad_mode="constant" />
			<input>
				<port id="0" precision="FP32">
					<dim>1</dim>
					<dim>3</dim>
					<dim>512</dim>
					<dim>1024</dim>
				</port>
				<port id="1" precision="I64">
					<dim>4</dim>
				</port>
				<port id="2" precision="I64">
					<dim>4</dim>
				</port>
				<port id="3" precision="FP32" />
			</input>
			<output>
				<port id="4" precision="FP32" names="346">
					<dim>1</dim>
					<dim>3</dim>
					<dim>513</dim>
					<dim>1025</dim>
				</port>
			</output>
		</layer>
		<layer id="100" name="1100" type="Const" version="opset1">
			<data element_type="f32" shape="16, 3, 3, 3" offset="1836" size="1728" />
			<output>
				<port id="0" precision="FP32" names="1100">
					<dim>16</dim>
					<dim>3</dim>
					<dim>3</dim>
					<dim>3</dim>
				</port>
			</output>
		</layer>
		<layer id="101" name="Conv_81/WithoutBiases" type="Convolution" version="opset1">
			<data strides="2, 2" dilations="1, 1" pads_begin="0, 0" pads_end="0, 0" auto_pad="explicit" />
			<input>
				<port id="0" precision="FP32">
					<dim>1</dim>
					<dim>3</dim>
					<dim>513</dim>
					<dim>1025</dim>
				</port>
				<port id="1" precision="FP32">
					<dim>16</dim>
					<dim>3</dim>
					<dim>3</dim>
					<dim>3</dim>
				</port>
			</input>
			<output>
				<port id="2" precision="FP32">
					<dim>1</dim>
					<dim>16</dim>
					<dim>256</dim>
					<dim>512</dim>
				</port>
			</output>
		</layer>
		<layer id="102" name="1101" type="Const" version="opset1">
			<data element_type="f32" shape="16" offset="3564" size="64" />
			<output>
				<port id="0" precision="FP32" names="1101">
					<dim>16</dim>
				</port>
			</output>
		</layer>
		<layer id="103" name="Constant_4649" type="Const" version="opset1">
			<data element_type="i64" shape="1" offset="1744" size="8" />
			<output>
				<port id="0" precision="I64">
					<dim>1</dim>
				</port>
			</output>
		</layer>
		<layer id="104" name="ShapeOf_4664" type="ShapeOf" version="opset3">
			<data output_type="i64" />
			<input>
				<port id="0" precision="FP32">
					<dim>16</dim>
				</port>
			</input>
			<output>
				<port id="1" precision="I64">
					<dim>1</dim>
				</port>
			</output>
		</layer>
		<layer id="105" name="ShapeOf_4647" type="ShapeOf" version="opset3">
			<data output_type="i64" />
			<input>
				<port id="0" precision="FP32">
					<dim>1</dim>
					<dim>16</dim>
					<dim>256</dim>
					<dim>512</dim>
				</port>
			</input>
			<output>
				<port id="1" precision="I64">
					<dim>4</dim>
				</port>
			</output>
		</layer>
		<layer id="106" name="ShapeOf_4648" type="ShapeOf" version="opset3">
			<data output_type="i64" />
			<input>
				<port id="0" precision="I64">
					<dim>4</dim>
				</port>
			</input>
			<output>
				<port id="1" precision="I64">
					<dim>1</dim>
				</port>
			</output>
		</layer>
		<layer id="107" name="Constant_4650" type="Const" version="opset1">
			<data element_type="i64" shape="1" offset="1760" size="8" />
			<output>
				<port id="0" precision="I64">
					<dim>1</dim>
				</port>
			</output>
		</layer>
		<layer id="108" name="Subtract_4651" type="Subtract" version="opset1">
			<data auto_broadcast="numpy" />
			<input>
				<port id="0" precision="I64">
					<dim>1</dim>
				</port>
				<port id="1" precision="I64">
					<dim>1</dim>
				</port>
			</input>
			<output>
				<port id="2" precision="I64">
					<dim>1</dim>
				</port>
			</output>
		</layer>
		<layer id="109" name="Broadcast_4652" type="Broadcast" version="opset3">
			<data mode="numpy" />
			<input>
				<port id="0" precision="I64">
					<dim>1</dim>
				</port>
				<port id="1" precision="I64">
					<dim>1</dim>
				</port>
			</input>
			<output>
				<port id="2" precision="I64">
					<dim>2</dim>
				</port>
			</output>
		</layer>
		<layer id="110" name="Concat_4665" type="Concat" version="opset1">
			<data axis="0" />
			<input>
				<port id="0" precision="I64">
					<dim>1</dim>
				</port>
				<port id="1" precision="I64">
					<dim>1</dim>
				</port>
				<port id="2" precision="I64">
					<dim>2</dim>
				</port>
			</input>
			<output>
				<port id="3" precision="I64">
					<dim>4</dim>
				</port>
			</output>
		</layer>
		<layer id="111" name="Reshape_4666" type="Reshape" version="opset1">
			<data special_zero="false" />
			<input>
				<port id="0" precision="FP32">
					<dim>16</dim>
				</port>
				<port id="1" precision="I64">
					<dim>4</dim>
				</port>
			</input>
			<output>
				<port id="2" precision="FP32">
					<dim>1</dim>
					<dim>16</dim>
					<dim>1</dim>
					<dim>1</dim>
				</port>
			</output>
		</layer>
		<layer id="112" name="Conv_81" type="Add" version="opset1">
			<data auto_broadcast="numpy" />
			<input>
				<port id="0" precision="FP32">
					<dim>1</dim>
					<dim>16</dim>
					<dim>256</dim>
					<dim>512</dim>
				</port>
				<port id="1" precision="FP32">
					<dim>1</dim>
					<dim>16</dim>
					<dim>1</dim>
					<dim>1</dim>
				</port>
			</input>
			<output>
				<port id="2" precision="FP32" names="1099">
					<dim>1</dim>
					<dim>16</dim>
					<dim>256</dim>
					<dim>512</dim>
				</port>
			</output>
		</layer>
		<layer id="113" name="Constant_85" type="Const" version="opset1">
			<data element_type="f32" shape="" offset="3628" size="4" />
			<output>
				<port id="0" precision="FP32" names="352" />
			</output>
		</layer>
		<layer id="114" name="Constant_84" type="Const" version="opset1">
			<data element_type="f32" shape="" offset="1832" size="4" />
			<output>
				<port id="0" precision="FP32" names="351" />
			</output>
		</layer>
		<layer id="115" name="Constant_82" type="Const" version="opset1">
			<data element_type="f32" shape="" offset="3632" size="4" />
			<output>
				<port id="0" precision="FP32" names="349" />
			</output>
		</layer>
		<layer id="116" name="Add_83" type="Add" version="opset1">
			<data auto_broadcast="numpy" />
			<input>
				<port id="0" precision="FP32">
					<dim>1</dim>
					<dim>16</dim>
					<dim>256</dim>
					<dim>512</dim>
				</port>
				<port id="1" precision="FP32" />
			</input>
			<output>
				<port id="2" precision="FP32" names="350">
					<dim>1</dim>
					<dim>16</dim>
					<dim>256</dim>
					<dim>512</dim>
				</port>
			</output>
		</layer>
		<layer id="117" name="Maximum_4698" type="Maximum" version="opset1">
			<data auto_broadcast="numpy" />
			<input>
				<port id="0" precision="FP32" />
				<port id="1" precision="FP32">
					<dim>1</dim>
					<dim>16</dim>
					<dim>256</dim>
					<dim>512</dim>
				</port>
			</input>
			<output>
				<port id="2" precision="FP32">
					<dim>1</dim>
					<dim>16</dim>
					<dim>256</dim>
					<dim>512</dim>
				</port>
			</output>
		</layer>
		<layer id="118" name="Clip_86" type="Minimum" version="opset1">
			<data auto_broadcast="numpy" />
			<input>
				<port id="0" precision="FP32" />
				<port id="1" precision="FP32">
					<dim>1</dim>
					<dim>16</dim>
					<dim>256</dim>
					<dim>512</dim>
				</port>
			</input>
			<output>
				<port id="2" precision="FP32" names="353">
					<dim>1</dim>
					<dim>16</dim>
					<dim>256</dim>
					<dim>512</dim>
				</port>
			</output>
		</layer>
		<layer id="119" name="Constant_87" type="Const" version="opset1">
			<data element_type="f32" shape="" offset="3628" size="4" />
			<output>
				<port id="0" precision="FP32" names="354" />
			</output>
		</layer>
		<layer id="120" name="Div_88" type="Divide" version="opset1">
			<data auto_broadcast="numpy" m_pythondiv="true" />
			<input>
				<port id="0" precision="FP32">
					<dim>1</dim>
					<dim>16</dim>
					<dim>256</dim>
					<dim>512</dim>
				</port>
				<port id="1" precision="FP32" />
			</input>
			<output>
				<port id="2" precision="FP32" names="355">
					<dim>1</dim>
					<dim>16</dim>
					<dim>256</dim>
					<dim>512</dim>
				</port>
			</output>
		</layer>
		<layer id="121" name="Mul_89" type="Multiply" version="opset1">
			<data auto_broadcast="numpy" />
			<input>
				<port id="0" precision="FP32">
					<dim>1</dim>
					<dim>16</dim>
					<dim>256</dim>
					<dim>512</dim>
				</port>
				<port id="1" precision="FP32">
					<dim>1</dim>
					<dim>16</dim>
					<dim>256</dim>
					<dim>512</dim>
				</port>
			</input>
			<output>
				<port id="2" precision="FP32" names="356">
					<dim>1</dim>
					<dim>16</dim>
					<dim>256</dim>
					<dim>512</dim>
				</port>
			</output>
		</layer>
		<layer id="122" name="trunk.block0.0.conv_dw.weight" type="Const" version="opset1">
			<data element_type="f32" shape="16, 1, 3, 3" offset="3636" size="576" />
			<output>
				<port id="0" precision="FP32" names="trunk.block0.0.conv_dw.weight">
					<dim>16</dim>
					<dim>1</dim>
					<dim>3</dim>
					<dim>3</dim>
				</port>
			</output>
		</layer>
		<layer id="123" name="Shape_99" type="ShapeOf" version="opset3">
			<data output_type="i64" />
			<input>
				<port id="0" precision="FP32">
					<dim>16</dim>
					<dim>1</dim>
					<dim>3</dim>
					<dim>3</dim>
				</port>
			</input>
			<output>
				<port id="1" precision="I64" names="366">
					<dim>4</dim>
				</port>
			</output>
		</layer>
		<layer id="124" name="Constant_100" type="Const" version="opset1">
			<data element_type="i64" shape="" offset="1728" size="8" />
			<output>
				<port id="0" precision="I64" names="367" />
			</output>
		</layer>
		<layer id="125" name="Constant_4717" type="Const" version="opset1">
			<data element_type="i64" shape="" offset="1736" size="8" />
			<output>
				<port id="0" precision="I64" />
			</output>
		</layer>
		<layer id="126" name="Gather_101" type="Gather" version="opset8">
			<data batch_dims="0" />
			<input>
				<port id="0" precision="I64">
					<dim>4</dim>
				</port>
				<port id="1" precision="I64" />
				<port id="2" precision="I64" />
			</input>
			<output>
				<port id="3" precision="I64" names="368" />
			</output>
		</layer>
		<layer id="127" name="Constant_111" type="Const" version="opset1">
			<data element_type="i64" shape="" offset="1744" size="8" />
			<output>
				<port id="0" precision="I64" names="378" />
			</output>
		</layer>
		<layer id="128" name="Sub_112" type="Subtract" version="opset1">
			<data auto_broadcast="numpy" />
			<input>
				<port id="0" precision="I64" />
				<port id="1" precision="I64" />
			</input>
			<output>
				<port id="2" precision="I64" names="379" />
			</output>
		</layer>
		<layer id="129" name="Constant_113" type="Const" version="opset1">
			<data element_type="i64" shape="" offset="1744" size="8" />
			<output>
				<port id="0" precision="I64" names="380" />
			</output>
		</layer>
		<layer id="130" name="Mul_114" type="Multiply" version="opset1">
			<data auto_broadcast="numpy" />
			<input>
				<port id="0" precision="I64" />
				<port id="1" precision="I64" />
			</input>
			<output>
				<port id="2" precision="I64" names="381" />
			</output>
		</layer>
		<layer id="131" name="Constant_115" type="Const" version="opset1">
			<data element_type="i64" shape="" offset="1768" size="8" />
			<output>
				<port id="0" precision="I64" names="382" />
			</output>
		</layer>
		<layer id="132" name="Add_116" type="Add" version="opset1">
			<data auto_broadcast="numpy" />
			<input>
				<port id="0" precision="I64" />
				<port id="1" precision="I64" />
			</input>
			<output>
				<port id="2" precision="I64" names="383" />
			</output>
		</layer>
		<layer id="133" name="Constant_117" type="Const" version="opset1">
			<data element_type="i64" shape="" offset="1744" size="8" />
			<output>
				<port id="0" precision="I64" names="384" />
			</output>
		</layer>
		<layer id="134" name="Add_118" type="Add" version="opset1">
			<data auto_broadcast="numpy" />
			<input>
				<port id="0" precision="I64" />
				<port id="1" precision="I64" />
			</input>
			<output>
				<port id="2" precision="I64" names="385" />
			</output>
		</layer>
		<layer id="135" name="Shape_93" type="ShapeOf" version="opset3">
			<data output_type="i64" />
			<input>
				<port id="0" precision="FP32">
					<dim>1</dim>
					<dim>16</dim>
					<dim>256</dim>
					<dim>512</dim>
				</port>
			</input>
			<output>
				<port id="1" precision="I64" names="360">
					<dim>4</dim>
				</port>
			</output>
		</layer>
		<layer id="136" name="Constant_94" type="Const" version="opset1">
			<data element_type="i64" shape="" offset="1728" size="8" />
			<output>
				<port id="0" precision="I64" names="361" />
			</output>
		</layer>
		<layer id="137" name="Constant_4709" type="Const" version="opset1">
			<data element_type="i64" shape="" offset="1736" size="8" />
			<output>
				<port id="0" precision="I64" />
			</output>
		</layer>
		<layer id="138" name="Gather_95" type="Gather" version="opset8">
			<data batch_dims="0" />
			<input>
				<port id="0" precision="I64">
					<dim>4</dim>
				</port>
				<port id="1" precision="I64" />
				<port id="2" precision="I64" />
			</input>
			<output>
				<port id="3" precision="I64" names="362" />
			</output>
		</layer>
		<layer id="139" name="Sub_119" type="Subtract" version="opset1">
			<data auto_broadcast="numpy" />
			<input>
				<port id="0" precision="I64" />
				<port id="1" precision="I64" />
			</input>
			<output>
				<port id="2" precision="I64" names="386" />
			</output>
		</layer>
		<layer id="140" name="Constant_120" type="Const" version="opset1">
			<data element_type="i64" shape="" offset="1760" size="8" />
			<output>
				<port id="0" precision="I64" names="387" />
			</output>
		</layer>
		<layer id="141" name="Div_121" type="Divide" version="opset1">
			<data auto_broadcast="numpy" m_pythondiv="true" />
			<input>
				<port id="0" precision="I64" />
				<port id="1" precision="I64" />
			</input>
			<output>
				<port id="2" precision="I64" names="388" />
			</output>
		</layer>
		<layer id="142" name="Cast_122" type="Convert" version="opset1">
			<data destination_type="i64" />
			<input>
				<port id="0" precision="I64" />
			</input>
			<output>
				<port id="1" precision="I64" names="389" />
			</output>
		</layer>
		<layer id="143" name="Cast_123" type="Convert" version="opset1">
			<data destination_type="i64" />
			<input>
				<port id="0" precision="I64" />
			</input>
			<output>
				<port id="1" precision="I64" names="390" />
			</output>
		</layer>
		<layer id="144" name="Constant_4764" type="Const" version="opset1">
			<data element_type="i64" shape="1" offset="1736" size="8" />
			<output>
				<port id="0" precision="I64">
					<dim>1</dim>
				</port>
			</output>
		</layer>
		<layer id="145" name="Unsqueeze_143" type="Unsqueeze" version="opset1">
			<input>
				<port id="0" precision="I64" />
				<port id="1" precision="I64">
					<dim>1</dim>
				</port>
			</input>
			<output>
				<port id="2" precision="I64" names="410">
					<dim>1</dim>
				</port>
			</output>
		</layer>
		<layer id="146" name="Constant_124" type="Const" version="opset1">
			<data element_type="i64" shape="" offset="1760" size="8" />
			<output>
				<port id="0" precision="I64" names="391" />
			</output>
		</layer>
		<layer id="147" name="Div_125" type="Divide" version="opset1">
			<data auto_broadcast="numpy" m_pythondiv="true" />
			<input>
				<port id="0" precision="I64" />
				<port id="1" precision="I64" />
			</input>
			<output>
				<port id="2" precision="I64" names="392" />
			</output>
		</layer>
		<layer id="148" name="Cast_126" type="Convert" version="opset1">
			<data destination_type="i64" />
			<input>
				<port id="0" precision="I64" />
			</input>
			<output>
				<port id="1" precision="I64" names="393" />
			</output>
		</layer>
		<layer id="149" name="Cast_127" type="Convert" version="opset1">
			<data destination_type="i64" />
			<input>
				<port id="0" precision="I64" />
			</input>
			<output>
				<port id="1" precision="I64" names="394" />
			</output>
		</layer>
		<layer id="150" name="Sub_128" type="Subtract" version="opset1">
			<data auto_broadcast="numpy" />
			<input>
				<port id="0" precision="I64" />
				<port id="1" precision="I64" />
			</input>
			<output>
				<port id="2" precision="I64" names="395" />
			</output>
		</layer>
		<layer id="151" name="Constant_4766" type="Const" version="opset1">
			<data element_type="i64" shape="1" offset="1736" size="8" />
			<output>
				<port id="0" precision="I64">
					<dim>1</dim>
				</port>
			</output>
		</layer>
		<layer id="152" name="Unsqueeze_144" type="Unsqueeze" version="opset1">
			<input>
				<port id="0" precision="I64" />
				<port id="1" precision="I64">
					<dim>1</dim>
				</port>
			</input>
			<output>
				<port id="2" precision="I64" names="411">
					<dim>1</dim>
				</port>
			</output>
		</layer>
		<layer id="153" name="Shape_96" type="ShapeOf" version="opset3">
			<data output_type="i64" />
			<input>
				<port id="0" precision="FP32">
					<dim>16</dim>
					<dim>1</dim>
					<dim>3</dim>
					<dim>3</dim>
				</port>
			</input>
			<output>
				<port id="1" precision="I64" names="363">
					<dim>4</dim>
				</port>
			</output>
		</layer>
		<layer id="154" name="Constant_97" type="Const" version="opset1">
			<data element_type="i64" shape="" offset="1760" size="8" />
			<output>
				<port id="0" precision="I64" names="364" />
			</output>
		</layer>
		<layer id="155" name="Constant_4713" type="Const" version="opset1">
			<data element_type="i64" shape="" offset="1736" size="8" />
			<output>
				<port id="0" precision="I64" />
			</output>
		</layer>
		<layer id="156" name="Gather_98" type="Gather" version="opset8">
			<data batch_dims="0" />
			<input>
				<port id="0" precision="I64">
					<dim>4</dim>
				</port>
				<port id="1" precision="I64" />
				<port id="2" precision="I64" />
			</input>
			<output>
				<port id="3" precision="I64" names="365" />
			</output>
		</layer>
		<layer id="157" name="Constant_102" type="Const" version="opset1">
			<data element_type="i64" shape="" offset="1744" size="8" />
			<output>
				<port id="0" precision="I64" names="369" />
			</output>
		</layer>
		<layer id="158" name="Sub_103" type="Subtract" version="opset1">
			<data auto_broadcast="numpy" />
			<input>
				<port id="0" precision="I64" />
				<port id="1" precision="I64" />
			</input>
			<output>
				<port id="2" precision="I64" names="370" />
			</output>
		</layer>
		<layer id="159" name="Constant_104" type="Const" version="opset1">
			<data element_type="i64" shape="" offset="1744" size="8" />
			<output>
				<port id="0" precision="I64" names="371" />
			</output>
		</layer>
		<layer id="160" name="Mul_105" type="Multiply" version="opset1">
			<data auto_broadcast="numpy" />
			<input>
				<port id="0" precision="I64" />
				<port id="1" precision="I64" />
			</input>
			<output>
				<port id="2" precision="I64" names="372" />
			</output>
		</layer>
		<layer id="161" name="Constant_106" type="Const" version="opset1">
			<data element_type="i64" shape="" offset="4212" size="8" />
			<output>
				<port id="0" precision="I64" names="373" />
			</output>
		</layer>
		<layer id="162" name="Add_107" type="Add" version="opset1">
			<data auto_broadcast="numpy" />
			<input>
				<port id="0" precision="I64" />
				<port id="1" precision="I64" />
			</input>
			<output>
				<port id="2" precision="I64" names="374" />
			</output>
		</layer>
		<layer id="163" name="Constant_108" type="Const" version="opset1">
			<data element_type="i64" shape="" offset="1744" size="8" />
			<output>
				<port id="0" precision="I64" names="375" />
			</output>
		</layer>
		<layer id="164" name="Add_109" type="Add" version="opset1">
			<data auto_broadcast="numpy" />
			<input>
				<port id="0" precision="I64" />
				<port id="1" precision="I64" />
			</input>
			<output>
				<port id="2" precision="I64" names="376" />
			</output>
		</layer>
		<layer id="165" name="Shape_90" type="ShapeOf" version="opset3">
			<data output_type="i64" />
			<input>
				<port id="0" precision="FP32">
					<dim>1</dim>
					<dim>16</dim>
					<dim>256</dim>
					<dim>512</dim>
				</port>
			</input>
			<output>
				<port id="1" precision="I64" names="357">
					<dim>4</dim>
				</port>
			</output>
		</layer>
		<layer id="166" name="Constant_91" type="Const" version="opset1">
			<data element_type="i64" shape="" offset="1760" size="8" />
			<output>
				<port id="0" precision="I64" names="358" />
			</output>
		</layer>
		<layer id="167" name="Constant_4705" type="Const" version="opset1">
			<data element_type="i64" shape="" offset="1736" size="8" />
			<output>
				<port id="0" precision="I64" />
			</output>
		</layer>
		<layer id="168" name="Gather_92" type="Gather" version="opset8">
			<data batch_dims="0" />
			<input>
				<port id="0" precision="I64">
					<dim>4</dim>
				</port>
				<port id="1" precision="I64" />
				<port id="2" precision="I64" />
			</input>
			<output>
				<port id="3" precision="I64" names="359" />
			</output>
		</layer>
		<layer id="169" name="Sub_110" type="Subtract" version="opset1">
			<data auto_broadcast="numpy" />
			<input>
				<port id="0" precision="I64" />
				<port id="1" precision="I64" />
			</input>
			<output>
				<port id="2" precision="I64" names="377" />
			</output>
		</layer>
		<layer id="170" name="Constant_129" type="Const" version="opset1">
			<data element_type="i64" shape="" offset="1760" size="8" />
			<output>
				<port id="0" precision="I64" names="396" />
			</output>
		</layer>
		<layer id="171" name="Div_130" type="Divide" version="opset1">
			<data auto_broadcast="numpy" m_pythondiv="true" />
			<input>
				<port id="0" precision="I64" />
				<port id="1" precision="I64" />
			</input>
			<output>
				<port id="2" precision="I64" names="397" />
			</output>
		</layer>
		<layer id="172" name="Cast_131" type="Convert" version="opset1">
			<data destination_type="i64" />
			<input>
				<port id="0" precision="I64" />
			</input>
			<output>
				<port id="1" precision="I64" names="398" />
			</output>
		</layer>
		<layer id="173" name="Cast_132" type="Convert" version="opset1">
			<data destination_type="i64" />
			<input>
				<port id="0" precision="I64" />
			</input>
			<output>
				<port id="1" precision="I64" names="399" />
			</output>
		</layer>
		<layer id="174" name="Constant_4768" type="Const" version="opset1">
			<data element_type="i64" shape="1" offset="1736" size="8" />
			<output>
				<port id="0" precision="I64">
					<dim>1</dim>
				</port>
			</output>
		</layer>
		<layer id="175" name="Unsqueeze_145" type="Unsqueeze" version="opset1">
			<input>
				<port id="0" precision="I64" />
				<port id="1" precision="I64">
					<dim>1</dim>
				</port>
			</input>
			<output>
				<port id="2" precision="I64" names="412">
					<dim>1</dim>
				</port>
			</output>
		</layer>
		<layer id="176" name="Constant_133" type="Const" version="opset1">
			<data element_type="i64" shape="" offset="1760" size="8" />
			<output>
				<port id="0" precision="I64" names="400" />
			</output>
		</layer>
		<layer id="177" name="Div_134" type="Divide" version="opset1">
			<data auto_broadcast="numpy" m_pythondiv="true" />
			<input>
				<port id="0" precision="I64" />
				<port id="1" precision="I64" />
			</input>
			<output>
				<port id="2" precision="I64" names="401" />
			</output>
		</layer>
		<layer id="178" name="Cast_135" type="Convert" version="opset1">
			<data destination_type="i64" />
			<input>
				<port id="0" precision="I64" />
			</input>
			<output>
				<port id="1" precision="I64" names="402" />
			</output>
		</layer>
		<layer id="179" name="Cast_136" type="Convert" version="opset1">
			<data destination_type="i64" />
			<input>
				<port id="0" precision="I64" />
			</input>
			<output>
				<port id="1" precision="I64" names="403" />
			</output>
		</layer>
		<layer id="180" name="Sub_137" type="Subtract" version="opset1">
			<data auto_broadcast="numpy" />
			<input>
				<port id="0" precision="I64" />
				<port id="1" precision="I64" />
			</input>
			<output>
				<port id="2" precision="I64" names="404" />
			</output>
		</layer>
		<layer id="181" name="Constant_4770" type="Const" version="opset1">
			<data element_type="i64" shape="1" offset="1736" size="8" />
			<output>
				<port id="0" precision="I64">
					<dim>1</dim>
				</port>
			</output>
		</layer>
		<layer id="182" name="Unsqueeze_146" type="Unsqueeze" version="opset1">
			<input>
				<port id="0" precision="I64" />
				<port id="1" precision="I64">
					<dim>1</dim>
				</port>
			</input>
			<output>
				<port id="2" precision="I64" names="413">
					<dim>1</dim>
				</port>
			</output>
		</layer>
		<layer id="183" name="Concat_147" type="Concat" version="opset1">
			<data axis="0" />
			<input>
				<port id="0" precision="I64">
					<dim>1</dim>
				</port>
				<port id="1" precision="I64">
					<dim>1</dim>
				</port>
				<port id="2" precision="I64">
					<dim>1</dim>
				</port>
				<port id="3" precision="I64">
					<dim>1</dim>
				</port>
			</input>
			<output>
				<port id="4" precision="I64" names="414">
					<dim>4</dim>
				</port>
			</output>
		</layer>
		<layer id="184" name="Cast_155" type="Convert" version="opset1">
			<data destination_type="i64" />
			<input>
				<port id="0" precision="I64">
					<dim>4</dim>
				</port>
			</input>
			<output>
				<port id="1" precision="I64" names="422">
					<dim>4</dim>
				</port>
			</output>
		</layer>
		<layer id="185" name="Constant_4783" type="Const" version="opset1">
			<data element_type="i64" shape="" offset="1736" size="8" />
			<output>
				<port id="0" precision="I64" />
			</output>
		</layer>
		<layer id="186" name="Constant_151" type="Const" version="opset1">
			<data element_type="i64" shape="" offset="1776" size="8" />
			<output>
				<port id="0" precision="I64" names="418" />
			</output>
		</layer>
		<layer id="187" name="Constant_152" type="Const" version="opset1">
			<data element_type="i64" shape="" offset="1760" size="8" />
			<output>
				<port id="0" precision="I64" names="419" />
			</output>
		</layer>
		<layer id="188" name="Mul_153" type="Multiply" version="opset1">
			<data auto_broadcast="numpy" />
			<input>
				<port id="0" precision="I64" />
				<port id="1" precision="I64" />
			</input>
			<output>
				<port id="2" precision="I64" names="420" />
			</output>
		</layer>
		<layer id="189" name="Constant_4755" type="Const" version="opset1">
			<data element_type="i64" shape="1" offset="1736" size="8" />
			<output>
				<port id="0" precision="I64">
					<dim>1</dim>
				</port>
			</output>
		</layer>
		<layer id="190" name="Unsqueeze_138" type="Unsqueeze" version="opset1">
			<input>
				<port id="0" precision="I64" />
				<port id="1" precision="I64">
					<dim>1</dim>
				</port>
			</input>
			<output>
				<port id="2" precision="I64" names="405">
					<dim>1</dim>
				</port>
			</output>
		</layer>
		<layer id="191" name="Constant_4757" type="Const" version="opset1">
			<data element_type="i64" shape="1" offset="1736" size="8" />
			<output>
				<port id="0" precision="I64">
					<dim>1</dim>
				</port>
			</output>
		</layer>
		<layer id="192" name="Unsqueeze_139" type="Unsqueeze" version="opset1">
			<input>
				<port id="0" precision="I64" />
				<port id="1" precision="I64">
					<dim>1</dim>
				</port>
			</input>
			<output>
				<port id="2" precision="I64" names="406">
					<dim>1</dim>
				</port>
			</output>
		</layer>
		<layer id="193" name="Constant_4759" type="Const" version="opset1">
			<data element_type="i64" shape="1" offset="1736" size="8" />
			<output>
				<port id="0" precision="I64">
					<dim>1</dim>
				</port>
			</output>
		</layer>
		<layer id="194" name="Unsqueeze_140" type="Unsqueeze" version="opset1">
			<input>
				<port id="0" precision="I64" />
				<port id="1" precision="I64">
					<dim>1</dim>
				</port>
			</input>
			<output>
				<port id="2" precision="I64" names="407">
					<dim>1</dim>
				</port>
			</output>
		</layer>
		<layer id="195" name="Constant_4761" type="Const" version="opset1">
			<data element_type="i64" shape="1" offset="1736" size="8" />
			<output>
				<port id="0" precision="I64">
					<dim>1</dim>
				</port>
			</output>
		</layer>
		<layer id="196" name="Unsqueeze_141" type="Unsqueeze" version="opset1">
			<input>
				<port id="0" precision="I64" />
				<port id="1" precision="I64">
					<dim>1</dim>
				</port>
			</input>
			<output>
				<port id="2" precision="I64" names="408">
					<dim>1</dim>
				</port>
			</output>
		</layer>
		<layer id="197" name="Concat_142" type="Concat" version="opset1">
			<data axis="0" />
			<input>
				<port id="0" precision="I64">
					<dim>1</dim>
				</port>
				<port id="1" precision="I64">
					<dim>1</dim>
				</port>
				<port id="2" precision="I64">
					<dim>1</dim>
				</port>
				<port id="3" precision="I64">
					<dim>1</dim>
				</port>
			</input>
			<output>
				<port id="4" precision="I64" names="409">
					<dim>4</dim>
				</port>
			</output>
		</layer>
		<layer id="198" name="Shape_149" type="ShapeOf" version="opset3">
			<data output_type="i64" />
			<input>
				<port id="0" precision="I64">
					<dim>4</dim>
				</port>
			</input>
			<output>
				<port id="1" precision="I64" names="416">
					<dim>1</dim>
				</port>
			</output>
		</layer>
		<layer id="199" name="Constant_148" type="Const" version="opset1">
			<data element_type="i64" shape="1" offset="1736" size="8" />
			<output>
				<port id="0" precision="I64" names="415">
					<dim>1</dim>
				</port>
			</output>
		</layer>
		<layer id="200" name="Constant_4775" type="Const" version="opset1">
			<data element_type="i64" shape="" offset="1736" size="8" />
			<output>
				<port id="0" precision="I64" />
			</output>
		</layer>
		<layer id="201" name="Gather_150" type="Gather" version="opset8">
			<data batch_dims="0" />
			<input>
				<port id="0" precision="I64">
					<dim>1</dim>
				</port>
				<port id="1" precision="I64">
					<dim>1</dim>
				</port>
				<port id="2" precision="I64" />
			</input>
			<output>
				<port id="3" precision="I64" names="417">
					<dim>1</dim>
				</port>
			</output>
		</layer>
		<layer id="202" name="Sub_154" type="Subtract" version="opset1">
			<data auto_broadcast="numpy" />
			<input>
				<port id="0" precision="I64" />
				<port id="1" precision="I64">
					<dim>1</dim>
				</port>
			</input>
			<output>
				<port id="2" precision="I64" names="421">
					<dim>1</dim>
				</port>
			</output>
		</layer>
		<layer id="203" name="ConstantOfShape_156" type="Broadcast" version="opset3">
			<data mode="numpy" />
			<input>
				<port id="0" precision="I64" />
				<port id="1" precision="I64">
					<dim>1</dim>
				</port>
			</input>
			<output>
				<port id="2" precision="I64" names="423">
					<dim>4</dim>
				</port>
			</output>
		</layer>
		<layer id="204" name="Concat_157" type="Concat" version="opset1">
			<data axis="0" />
			<input>
				<port id="0" precision="I64">
					<dim>4</dim>
				</port>
				<port id="1" precision="I64">
					<dim>4</dim>
				</port>
			</input>
			<output>
				<port id="2" precision="I64" names="424">
					<dim>8</dim>
				</port>
			</output>
		</layer>
		<layer id="205" name="Constant_158" type="Const" version="opset1">
			<data element_type="i64" shape="2" offset="1784" size="16" />
			<output>
				<port id="0" precision="I64" names="425">
					<dim>2</dim>
				</port>
			</output>
		</layer>
		<layer id="206" name="Reshape_159" type="Reshape" version="opset1">
			<data special_zero="true" />
			<input>
				<port id="0" precision="I64">
					<dim>8</dim>
				</port>
				<port id="1" precision="I64">
					<dim>2</dim>
				</port>
			</input>
			<output>
				<port id="2" precision="I64" names="426">
					<dim>4</dim>
					<dim>2</dim>
				</port>
			</output>
		</layer>
		<layer id="207" name="Constant_161" type="Const" version="opset1">
			<data element_type="i64" shape="1" offset="1800" size="8" />
			<output>
				<port id="0" precision="I64" names="428">
					<dim>1</dim>
				</port>
			</output>
		</layer>
		<layer id="208" name="Constant_162" type="Const" version="opset1">
			<data element_type="i64" shape="1" offset="1808" size="8" />
			<output>
				<port id="0" precision="I64" names="429">
					<dim>1</dim>
				</port>
			</output>
		</layer>
		<layer id="209" name="Constant_163" type="Const" version="opset1">
			<data element_type="i64" shape="1" offset="1800" size="8" />
			<output>
				<port id="0" precision="I64" names="430">
					<dim>1</dim>
				</port>
			</output>
		</layer>
		<layer id="210" name="Constant_160" type="Const" version="opset1">
			<data element_type="i64" shape="1" offset="1736" size="8" />
			<output>
				<port id="0" precision="I64" names="427">
					<dim>1</dim>
				</port>
			</output>
		</layer>
		<layer id="211" name="Slice_164" type="Slice" version="opset8">
			<input>
				<port id="0" precision="I64">
					<dim>4</dim>
					<dim>2</dim>
				</port>
				<port id="1" precision="I64">
					<dim>1</dim>
				</port>
				<port id="2" precision="I64">
					<dim>1</dim>
				</port>
				<port id="3" precision="I64">
					<dim>1</dim>
				</port>
				<port id="4" precision="I64">
					<dim>1</dim>
				</port>
			</input>
			<output>
				<port id="5" precision="I64" names="431">
					<dim>4</dim>
					<dim>2</dim>
				</port>
			</output>
		</layer>
		<layer id="212" name="Constant_4824" type="Const" version="opset1">
			<data element_type="i64" shape="2" offset="1816" size="16" />
			<output>
				<port id="0" precision="I64">
					<dim>2</dim>
				</port>
			</output>
		</layer>
		<layer id="213" name="Transpose_165" type="Transpose" version="opset1">
			<input>
				<port id="0" precision="I64">
					<dim>4</dim>
					<dim>2</dim>
				</port>
				<port id="1" precision="I64">
					<dim>2</dim>
				</port>
			</input>
			<output>
				<port id="2" precision="I64" names="432">
					<dim>2</dim>
					<dim>4</dim>
				</port>
			</output>
		</layer>
		<layer id="214" name="Constant_166" type="Const" version="opset1">
			<data element_type="i64" shape="1" offset="1800" size="8" />
			<output>
				<port id="0" precision="I64" names="433">
					<dim>1</dim>
				</port>
			</output>
		</layer>
		<layer id="215" name="Reshape_167" type="Reshape" version="opset1">
			<data special_zero="true" />
			<input>
				<port id="0" precision="I64">
					<dim>2</dim>
					<dim>4</dim>
				</port>
				<port id="1" precision="I64">
					<dim>1</dim>
				</port>
			</input>
			<output>
				<port id="2" precision="I64" names="434">
					<dim>8</dim>
				</port>
			</output>
		</layer>
		<layer id="216" name="Cast_168" type="Convert" version="opset1">
			<data destination_type="i64" />
			<input>
				<port id="0" precision="I64">
					<dim>8</dim>
				</port>
			</input>
			<output>
				<port id="1" precision="I64" names="435">
					<dim>8</dim>
				</port>
			</output>
		</layer>
		<layer id="217" name="Constant_4835" type="Const" version="opset1">
			<data element_type="i64" shape="" offset="1736" size="8" />
			<output>
				<port id="0" precision="I64" />
			</output>
		</layer>
		<layer id="218" name="Split_4836" type="Split" version="opset1">
			<data num_splits="2" />
			<input>
				<port id="0" precision="I64">
					<dim>8</dim>
				</port>
				<port id="1" precision="I64" />
			</input>
			<output>
				<port id="2" precision="I64">
					<dim>4</dim>
				</port>
				<port id="3" precision="I64">
					<dim>4</dim>
				</port>
			</output>
		</layer>
		<layer id="219" name="Constant_169" type="Const" version="opset1">
			<data element_type="f32" shape="" offset="1832" size="4" />
			<output>
				<port id="0" precision="FP32" names="436" />
			</output>
		</layer>
		<layer id="220" name="Pad_170" type="Pad" version="opset1">
			<data pad_mode="constant" />
			<input>
				<port id="0" precision="FP32">
					<dim>1</dim>
					<dim>16</dim>
					<dim>256</dim>
					<dim>512</dim>
				</port>
				<port id="1" precision="I64">
					<dim>4</dim>
				</port>
				<port id="2" precision="I64">
					<dim>4</dim>
				</port>
				<port id="3" precision="FP32" />
			</input>
			<output>
				<port id="4" precision="FP32" names="437">
					<dim>1</dim>
					<dim>16</dim>
					<dim>257</dim>
					<dim>513</dim>
				</port>
			</output>
		</layer>
		<layer id="221" name="1103" type="Const" version="opset1">
			<data element_type="f32" shape="16, 1, 3, 3" offset="4220" size="576" />
			<output>
				<port id="0" precision="FP32" names="1103">
					<dim>16</dim>
					<dim>1</dim>
					<dim>3</dim>
					<dim>3</dim>
				</port>
			</output>
		</layer>
		<layer id="222" name="Constant_5419" type="Const" version="opset1">
			<data element_type="i64" shape="1" offset="4796" size="8" />
			<output>
				<port id="0" precision="I64">
					<dim>1</dim>
				</port>
			</output>
		</layer>
		<layer id="223" name="ShapeOf_5420" type="ShapeOf" version="opset3">
			<data output_type="i64" />
			<input>
				<port id="0" precision="FP32">
					<dim>16</dim>
					<dim>1</dim>
					<dim>3</dim>
					<dim>3</dim>
				</port>
			</input>
			<output>
				<port id="1" precision="I64">
					<dim>4</dim>
				</port>
			</output>
		</layer>
		<layer id="224" name="Constant_5417" type="Const" version="opset1">
			<data element_type="i64" shape="" offset="1736" size="8" />
			<output>
				<port id="0" precision="I64" />
			</output>
		</layer>
		<layer id="225" name="Constant_5418" type="Const" version="opset1">
			<data element_type="i64" shape="2" offset="4804" size="16" />
			<output>
				<port id="0" precision="I64">
					<dim>2</dim>
				</port>
			</output>
		</layer>
		<layer id="226" name="VariadicSplit_5421" type="VariadicSplit" version="opset1">
			<input>
				<port id="0" precision="I64">
					<dim>4</dim>
				</port>
				<port id="1" precision="I64" />
				<port id="2" precision="I64">
					<dim>2</dim>
				</port>
			</input>
			<output>
				<port id="3" precision="I64">
					<dim>1</dim>
				</port>
				<port id="4" precision="I64">
					<dim>3</dim>
				</port>
			</output>
		</layer>
		<layer id="227" name="Divide_5422" type="Divide" version="opset1">
			<data auto_broadcast="numpy" m_pythondiv="true" />
			<input>
				<port id="0" precision="I64">
					<dim>1</dim>
				</port>
				<port id="1" precision="I64">
					<dim>1</dim>
				</port>
			</input>
			<output>
				<port id="2" precision="I64">
					<dim>1</dim>
				</port>
			</output>
		</layer>
		<layer id="228" name="Concat_5423" type="Concat" version="opset1">
			<data axis="0" />
			<input>
				<port id="0" precision="I64">
					<dim>1</dim>
				</port>
				<port id="1" precision="I64">
					<dim>1</dim>
				</port>
				<port id="2" precision="I64">
					<dim>3</dim>
				</port>
			</input>
			<output>
				<port id="3" precision="I64">
					<dim>5</dim>
				</port>
			</output>
		</layer>
		<layer id="229" name="Reshape_5424" type="Reshape" version="opset1">
			<data special_zero="false" />
			<input>
				<port id="0" precision="FP32">
					<dim>16</dim>
					<dim>1</dim>
					<dim>3</dim>
					<dim>3</dim>
				</port>
				<port id="1" precision="I64">
					<dim>5</dim>
				</port>
			</input>
			<output>
				<port id="2" precision="FP32">
					<dim>16</dim>
					<dim>1</dim>
					<dim>1</dim>
					<dim>3</dim>
					<dim>3</dim>
				</port>
			</output>
		</layer>
		<layer id="230" name="Conv_171/WithoutBiases" type="GroupConvolution" version="opset1">
			<data strides="2, 2" pads_begin="0, 0" pads_end="0, 0" dilations="1, 1" auto_pad="explicit" />
			<input>
				<port id="0" precision="FP32">
					<dim>1</dim>
					<dim>16</dim>
					<dim>257</dim>
					<dim>513</dim>
				</port>
				<port id="1" precision="FP32">
					<dim>16</dim>
					<dim>1</dim>
					<dim>1</dim>
					<dim>3</dim>
					<dim>3</dim>
				</port>
			</input>
			<output>
				<port id="2" precision="FP32">
					<dim>1</dim>
					<dim>16</dim>
					<dim>128</dim>
					<dim>256</dim>
				</port>
			</output>
		</layer>
		<layer id="231" name="1104" type="Const" version="opset1">
			<data element_type="f32" shape="16" offset="4820" size="64" />
			<output>
				<port id="0" precision="FP32" names="1104">
					<dim>16</dim>
				</port>
			</output>
		</layer>
		<layer id="232" name="Constant_5493" type="Const" version="opset1">
			<data element_type="i64" shape="1" offset="1744" size="8" />
			<output>
				<port id="0" precision="I64">
					<dim>1</dim>
				</port>
			</output>
		</layer>
		<layer id="233" name="ShapeOf_5508" type="ShapeOf" version="opset3">
			<data output_type="i64" />
			<input>
				<port id="0" precision="FP32">
					<dim>16</dim>
				</port>
			</input>
			<output>
				<port id="1" precision="I64">
					<dim>1</dim>
				</port>
			</output>
		</layer>
		<layer id="234" name="ShapeOf_5491" type="ShapeOf" version="opset3">
			<data output_type="i64" />
			<input>
				<port id="0" precision="FP32">
					<dim>1</dim>
					<dim>16</dim>
					<dim>128</dim>
					<dim>256</dim>
				</port>
			</input>
			<output>
				<port id="1" precision="I64">
					<dim>4</dim>
				</port>
			</output>
		</layer>
		<layer id="235" name="ShapeOf_5492" type="ShapeOf" version="opset3">
			<data output_type="i64" />
			<input>
				<port id="0" precision="I64">
					<dim>4</dim>
				</port>
			</input>
			<output>
				<port id="1" precision="I64">
					<dim>1</dim>
				</port>
			</output>
		</layer>
		<layer id="236" name="Constant_5494" type="Const" version="opset1">
			<data element_type="i64" shape="1" offset="1760" size="8" />
			<output>
				<port id="0" precision="I64">
					<dim>1</dim>
				</port>
			</output>
		</layer>
		<layer id="237" name="Subtract_5495" type="Subtract" version="opset1">
			<data auto_broadcast="numpy" />
			<input>
				<port id="0" precision="I64">
					<dim>1</dim>
				</port>
				<port id="1" precision="I64">
					<dim>1</dim>
				</port>
			</input>
			<output>
				<port id="2" precision="I64">
					<dim>1</dim>
				</port>
			</output>
		</layer>
		<layer id="238" name="Broadcast_5496" type="Broadcast" version="opset3">
			<data mode="numpy" />
			<input>
				<port id="0" precision="I64">
					<dim>1</dim>
				</port>
				<port id="1" precision="I64">
					<dim>1</dim>
				</port>
			</input>
			<output>
				<port id="2" precision="I64">
					<dim>2</dim>
				</port>
			</output>
		</layer>
		<layer id="239" name="Concat_5509" type="Concat" version="opset1">
			<data axis="0" />
			<input>
				<port id="0" precision="I64">
					<dim>1</dim>
				</port>
				<port id="1" precision="I64">
					<dim>1</dim>
				</port>
				<port id="2" precision="I64">
					<dim>2</dim>
				</port>
			</input>
			<output>
				<port id="3" precision="I64">
					<dim>4</dim>
				</port>
			</output>
		</layer>
		<layer id="240" name="Reshape_5510" type="Reshape" version="opset1">
			<data special_zero="false" />
			<input>
				<port id="0" precision="FP32">
					<dim>16</dim>
				</port>
				<port id="1" precision="I64">
					<dim>4</dim>
				</port>
			</input>
			<output>
				<port id="2" precision="FP32">
					<dim>1</dim>
					<dim>16</dim>
					<dim>1</dim>
					<dim>1</dim>
				</port>
			</output>
		</layer>
		<layer id="241" name="Conv_171" type="Add" version="opset1">
			<data auto_broadcast="numpy" />
			<input>
				<port id="0" precision="FP32">
					<dim>1</dim>
					<dim>16</dim>
					<dim>128</dim>
					<dim>256</dim>
				</port>
				<port id="1" precision="FP32">
					<dim>1</dim>
					<dim>16</dim>
					<dim>1</dim>
					<dim>1</dim>
				</port>
			</input>
			<output>
				<port id="2" precision="FP32" names="1102">
					<dim>1</dim>
					<dim>16</dim>
					<dim>128</dim>
					<dim>256</dim>
				</port>
			</output>
		</layer>
		<layer id="242" name="Relu_172" type="ReLU" version="opset1">
			<input>
				<port id="0" precision="FP32">
					<dim>1</dim>
					<dim>16</dim>
					<dim>128</dim>
					<dim>256</dim>
				</port>
			</input>
			<output>
				<port id="1" precision="FP32" names="440">
					<dim>1</dim>
					<dim>16</dim>
					<dim>128</dim>
					<dim>256</dim>
				</port>
			</output>
		</layer>
		<layer id="243" name="Constant_180" type="Const" version="opset1">
			<data element_type="f32" shape="" offset="3628" size="4" />
			<output>
				<port id="0" precision="FP32" names="448" />
			</output>
		</layer>
		<layer id="244" name="Constant_179" type="Const" version="opset1">
			<data element_type="f32" shape="" offset="1832" size="4" />
			<output>
				<port id="0" precision="FP32" names="447" />
			</output>
		</layer>
		<layer id="245" name="Constant_5541" type="Const" version="opset1">
			<data element_type="i64" shape="" offset="1760" size="8" />
			<output>
				<port id="0" precision="I64" />
			</output>
		</layer>
		<layer id="246" name="ShapeOf_5542" type="ShapeOf" version="opset3">
			<data output_type="i64" />
			<input>
				<port id="0" precision="FP32">
					<dim>1</dim>
					<dim>16</dim>
					<dim>128</dim>
					<dim>256</dim>
				</port>
			</input>
			<output>
				<port id="1" precision="I64">
					<dim>4</dim>
				</port>
			</output>
		</layer>
		<layer id="247" name="ShapeOf_5543" type="ShapeOf" version="opset3">
			<data output_type="i64" />
			<input>
				<port id="0" precision="I64">
					<dim>4</dim>
				</port>
			</input>
			<output>
				<port id="1" precision="I64">
					<dim>1</dim>
				</port>
			</output>
		</layer>
		<layer id="248" name="Squeeze_5544" type="Squeeze" version="opset1">
			<input>
				<port id="0" precision="I64">
					<dim>1</dim>
				</port>
			</input>
			<output>
				<port id="1" precision="I64" />
			</output>
		</layer>
		<layer id="249" name="Constant_5540" type="Const" version="opset1">
			<data element_type="i64" shape="" offset="1744" size="8" />
			<output>
				<port id="0" precision="I64" />
			</output>
		</layer>
		<layer id="250" name="Range_5545" type="Range" version="opset4">
			<data output_type="i64" />
			<input>
				<port id="0" precision="I64" />
				<port id="1" precision="I64" />
				<port id="2" precision="I64" />
			</input>
			<output>
				<port id="3" precision="I64">
					<dim>2</dim>
				</port>
			</output>
		</layer>
		<layer id="251" name="GlobalAveragePool_173" type="ReduceMean" version="opset1">
			<data keep_dims="true" />
			<input>
				<port id="0" precision="FP32">
					<dim>1</dim>
					<dim>16</dim>
					<dim>128</dim>
					<dim>256</dim>
				</port>
				<port id="1" precision="I64">
					<dim>2</dim>
				</port>
			</input>
			<output>
				<port id="2" precision="FP32" names="441">
					<dim>1</dim>
					<dim>16</dim>
					<dim>1</dim>
					<dim>1</dim>
				</port>
			</output>
		</layer>
		<layer id="252" name="trunk.block0.0.se.conv_reduce.weight" type="Const" version="opset1">
			<data element_type="f32" shape="8, 16, 1, 1" offset="4884" size="512" />
			<output>
				<port id="0" precision="FP32" names="trunk.block0.0.se.conv_reduce.weight">
					<dim>8</dim>
					<dim>16</dim>
					<dim>1</dim>
					<dim>1</dim>
				</port>
			</output>
		</layer>
		<layer id="253" name="Conv_174/WithoutBiases" type="Convolution" version="opset1">
			<data strides="1, 1" dilations="1, 1" pads_begin="0, 0" pads_end="0, 0" auto_pad="explicit" />
			<input>
				<port id="0" precision="FP32">
					<dim>1</dim>
					<dim>16</dim>
					<dim>1</dim>
					<dim>1</dim>
				</port>
				<port id="1" precision="FP32">
					<dim>8</dim>
					<dim>16</dim>
					<dim>1</dim>
					<dim>1</dim>
				</port>
			</input>
			<output>
				<port id="2" precision="FP32">
					<dim>1</dim>
					<dim>8</dim>
					<dim>1</dim>
					<dim>1</dim>
				</port>
			</output>
		</layer>
		<layer id="254" name="trunk.block0.0.se.conv_reduce.bias" type="Const" version="opset1">
			<data element_type="f32" shape="8" offset="5396" size="32" />
			<output>
				<port id="0" precision="FP32" names="trunk.block0.0.se.conv_reduce.bias">
					<dim>8</dim>
				</port>
			</output>
		</layer>
		<layer id="255" name="Constant_5573" type="Const" version="opset1">
			<data element_type="i64" shape="1" offset="1744" size="8" />
			<output>
				<port id="0" precision="I64">
					<dim>1</dim>
				</port>
			</output>
		</layer>
		<layer id="256" name="ShapeOf_5588" type="ShapeOf" version="opset3">
			<data output_type="i64" />
			<input>
				<port id="0" precision="FP32">
					<dim>8</dim>
				</port>
			</input>
			<output>
				<port id="1" precision="I64">
					<dim>1</dim>
				</port>
			</output>
		</layer>
		<layer id="257" name="ShapeOf_5571" type="ShapeOf" version="opset3">
			<data output_type="i64" />
			<input>
				<port id="0" precision="FP32">
					<dim>1</dim>
					<dim>8</dim>
					<dim>1</dim>
					<dim>1</dim>
				</port>
			</input>
			<output>
				<port id="1" precision="I64">
					<dim>4</dim>
				</port>
			</output>
		</layer>
		<layer id="258" name="ShapeOf_5572" type="ShapeOf" version="opset3">
			<data output_type="i64" />
			<input>
				<port id="0" precision="I64">
					<dim>4</dim>
				</port>
			</input>
			<output>
				<port id="1" precision="I64">
					<dim>1</dim>
				</port>
			</output>
		</layer>
		<layer id="259" name="Constant_5574" type="Const" version="opset1">
			<data element_type="i64" shape="1" offset="1760" size="8" />
			<output>
				<port id="0" precision="I64">
					<dim>1</dim>
				</port>
			</output>
		</layer>
		<layer id="260" name="Subtract_5575" type="Subtract" version="opset1">
			<data auto_broadcast="numpy" />
			<input>
				<port id="0" precision="I64">
					<dim>1</dim>
				</port>
				<port id="1" precision="I64">
					<dim>1</dim>
				</port>
			</input>
			<output>
				<port id="2" precision="I64">
					<dim>1</dim>
				</port>
			</output>
		</layer>
		<layer id="261" name="Broadcast_5576" type="Broadcast" version="opset3">
			<data mode="numpy" />
			<input>
				<port id="0" precision="I64">
					<dim>1</dim>
				</port>
				<port id="1" precision="I64">
					<dim>1</dim>
				</port>
			</input>
			<output>
				<port id="2" precision="I64">
					<dim>2</dim>
				</port>
			</output>
		</layer>
		<layer id="262" name="Concat_5589" type="Concat" version="opset1">
			<data axis="0" />
			<input>
				<port id="0" precision="I64">
					<dim>1</dim>
				</port>
				<port id="1" precision="I64">
					<dim>1</dim>
				</port>
				<port id="2" precision="I64">
					<dim>2</dim>
				</port>
			</input>
			<output>
				<port id="3" precision="I64">
					<dim>4</dim>
				</port>
			</output>
		</layer>
		<layer id="263" name="Reshape_5590" type="Reshape" version="opset1">
			<data special_zero="false" />
			<input>
				<port id="0" precision="FP32">
					<dim>8</dim>
				</port>
				<port id="1" precision="I64">
					<dim>4</dim>
				</port>
			</input>
			<output>
				<port id="2" precision="FP32">
					<dim>1</dim>
					<dim>8</dim>
					<dim>1</dim>
					<dim>1</dim>
				</port>
			</output>
		</layer>
		<layer id="264" name="Conv_174" type="Add" version="opset1">
			<data auto_broadcast="numpy" />
			<input>
				<port id="0" precision="FP32">
					<dim>1</dim>
					<dim>8</dim>
					<dim>1</dim>
					<dim>1</dim>
				</port>
				<port id="1" precision="FP32">
					<dim>1</dim>
					<dim>8</dim>
					<dim>1</dim>
					<dim>1</dim>
				</port>
			</input>
			<output>
				<port id="2" precision="FP32" names="442">
					<dim>1</dim>
					<dim>8</dim>
					<dim>1</dim>
					<dim>1</dim>
				</port>
			</output>
		</layer>
		<layer id="265" name="Relu_175" type="ReLU" version="opset1">
			<input>
				<port id="0" precision="FP32">
					<dim>1</dim>
					<dim>8</dim>
					<dim>1</dim>
					<dim>1</dim>
				</port>
			</input>
			<output>
				<port id="1" precision="FP32" names="443">
					<dim>1</dim>
					<dim>8</dim>
					<dim>1</dim>
					<dim>1</dim>
				</port>
			</output>
		</layer>
		<layer id="266" name="trunk.block0.0.se.conv_expand.weight" type="Const" version="opset1">
			<data element_type="f32" shape="16, 8, 1, 1" offset="5428" size="512" />
			<output>
				<port id="0" precision="FP32" names="trunk.block0.0.se.conv_expand.weight">
					<dim>16</dim>
					<dim>8</dim>
					<dim>1</dim>
					<dim>1</dim>
				</port>
			</output>
		</layer>
		<layer id="267" name="Conv_176/WithoutBiases" type="Convolution" version="opset1">
			<data strides="1, 1" dilations="1, 1" pads_begin="0, 0" pads_end="0, 0" auto_pad="explicit" />
			<input>
				<port id="0" precision="FP32">
					<dim>1</dim>
					<dim>8</dim>
					<dim>1</dim>
					<dim>1</dim>
				</port>
				<port id="1" precision="FP32">
					<dim>16</dim>
					<dim>8</dim>
					<dim>1</dim>
					<dim>1</dim>
				</port>
			</input>
			<output>
				<port id="2" precision="FP32">
					<dim>1</dim>
					<dim>16</dim>
					<dim>1</dim>
					<dim>1</dim>
				</port>
			</output>
		</layer>
		<layer id="268" name="trunk.block0.0.se.conv_expand.bias" type="Const" version="opset1">
			<data element_type="f32" shape="16" offset="5940" size="64" />
			<output>
				<port id="0" precision="FP32" names="trunk.block0.0.se.conv_expand.bias">
					<dim>16</dim>
				</port>
			</output>
		</layer>
		<layer id="269" name="Constant_5622" type="Const" version="opset1">
			<data element_type="i64" shape="1" offset="1744" size="8" />
			<output>
				<port id="0" precision="I64">
					<dim>1</dim>
				</port>
			</output>
		</layer>
		<layer id="270" name="ShapeOf_5637" type="ShapeOf" version="opset3">
			<data output_type="i64" />
			<input>
				<port id="0" precision="FP32">
					<dim>16</dim>
				</port>
			</input>
			<output>
				<port id="1" precision="I64">
					<dim>1</dim>
				</port>
			</output>
		</layer>
		<layer id="271" name="ShapeOf_5620" type="ShapeOf" version="opset3">
			<data output_type="i64" />
			<input>
				<port id="0" precision="FP32">
					<dim>1</dim>
					<dim>16</dim>
					<dim>1</dim>
					<dim>1</dim>
				</port>
			</input>
			<output>
				<port id="1" precision="I64">
					<dim>4</dim>
				</port>
			</output>
		</layer>
		<layer id="272" name="ShapeOf_5621" type="ShapeOf" version="opset3">
			<data output_type="i64" />
			<input>
				<port id="0" precision="I64">
					<dim>4</dim>
				</port>
			</input>
			<output>
				<port id="1" precision="I64">
					<dim>1</dim>
				</port>
			</output>
		</layer>
		<layer id="273" name="Constant_5623" type="Const" version="opset1">
			<data element_type="i64" shape="1" offset="1760" size="8" />
			<output>
				<port id="0" precision="I64">
					<dim>1</dim>
				</port>
			</output>
		</layer>
		<layer id="274" name="Subtract_5624" type="Subtract" version="opset1">
			<data auto_broadcast="numpy" />
			<input>
				<port id="0" precision="I64">
					<dim>1</dim>
				</port>
				<port id="1" precision="I64">
					<dim>1</dim>
				</port>
			</input>
			<output>
				<port id="2" precision="I64">
					<dim>1</dim>
				</port>
			</output>
		</layer>
		<layer id="275" name="Broadcast_5625" type="Broadcast" version="opset3">
			<data mode="numpy" />
			<input>
				<port id="0" precision="I64">
					<dim>1</dim>
				</port>
				<port id="1" precision="I64">
					<dim>1</dim>
				</port>
			</input>
			<output>
				<port id="2" precision="I64">
					<dim>2</dim>
				</port>
			</output>
		</layer>
		<layer id="276" name="Concat_5638" type="Concat" version="opset1">
			<data axis="0" />
			<input>
				<port id="0" precision="I64">
					<dim>1</dim>
				</port>
				<port id="1" precision="I64">
					<dim>1</dim>
				</port>
				<port id="2" precision="I64">
					<dim>2</dim>
				</port>
			</input>
			<output>
				<port id="3" precision="I64">
					<dim>4</dim>
				</port>
			</output>
		</layer>
		<layer id="277" name="Reshape_5639" type="Reshape" version="opset1">
			<data special_zero="false" />
			<input>
				<port id="0" precision="FP32">
					<dim>16</dim>
				</port>
				<port id="1" precision="I64">
					<dim>4</dim>
				</port>
			</input>
			<output>
				<port id="2" precision="FP32">
					<dim>1</dim>
					<dim>16</dim>
					<dim>1</dim>
					<dim>1</dim>
				</port>
			</output>
		</layer>
		<layer id="278" name="Conv_176" type="Add" version="opset1">
			<data auto_broadcast="numpy" />
			<input>
				<port id="0" precision="FP32">
					<dim>1</dim>
					<dim>16</dim>
					<dim>1</dim>
					<dim>1</dim>
				</port>
				<port id="1" precision="FP32">
					<dim>1</dim>
					<dim>16</dim>
					<dim>1</dim>
					<dim>1</dim>
				</port>
			</input>
			<output>
				<port id="2" precision="FP32" names="444">
					<dim>1</dim>
					<dim>16</dim>
					<dim>1</dim>
					<dim>1</dim>
				</port>
			</output>
		</layer>
		<layer id="279" name="Constant_177" type="Const" version="opset1">
			<data element_type="f32" shape="" offset="3632" size="4" />
			<output>
				<port id="0" precision="FP32" names="445" />
			</output>
		</layer>
		<layer id="280" name="Add_178" type="Add" version="opset1">
			<data auto_broadcast="numpy" />
			<input>
				<port id="0" precision="FP32">
					<dim>1</dim>
					<dim>16</dim>
					<dim>1</dim>
					<dim>1</dim>
				</port>
				<port id="1" precision="FP32" />
			</input>
			<output>
				<port id="2" precision="FP32" names="446">
					<dim>1</dim>
					<dim>16</dim>
					<dim>1</dim>
					<dim>1</dim>
				</port>
			</output>
		</layer>
		<layer id="281" name="Maximum_5671" type="Maximum" version="opset1">
			<data auto_broadcast="numpy" />
			<input>
				<port id="0" precision="FP32" />
				<port id="1" precision="FP32">
					<dim>1</dim>
					<dim>16</dim>
					<dim>1</dim>
					<dim>1</dim>
				</port>
			</input>
			<output>
				<port id="2" precision="FP32">
					<dim>1</dim>
					<dim>16</dim>
					<dim>1</dim>
					<dim>1</dim>
				</port>
			</output>
		</layer>
		<layer id="282" name="Clip_181" type="Minimum" version="opset1">
			<data auto_broadcast="numpy" />
			<input>
				<port id="0" precision="FP32" />
				<port id="1" precision="FP32">
					<dim>1</dim>
					<dim>16</dim>
					<dim>1</dim>
					<dim>1</dim>
				</port>
			</input>
			<output>
				<port id="2" precision="FP32" names="449">
					<dim>1</dim>
					<dim>16</dim>
					<dim>1</dim>
					<dim>1</dim>
				</port>
			</output>
		</layer>
		<layer id="283" name="Constant_182" type="Const" version="opset1">
			<data element_type="f32" shape="" offset="3628" size="4" />
			<output>
				<port id="0" precision="FP32" names="450" />
			</output>
		</layer>
		<layer id="284" name="Div_183" type="Divide" version="opset1">
			<data auto_broadcast="numpy" m_pythondiv="true" />
			<input>
				<port id="0" precision="FP32">
					<dim>1</dim>
					<dim>16</dim>
					<dim>1</dim>
					<dim>1</dim>
				</port>
				<port id="1" precision="FP32" />
			</input>
			<output>
				<port id="2" precision="FP32" names="451">
					<dim>1</dim>
					<dim>16</dim>
					<dim>1</dim>
					<dim>1</dim>
				</port>
			</output>
		</layer>
		<layer id="285" name="Mul_184" type="Multiply" version="opset1">
			<data auto_broadcast="numpy" />
			<input>
				<port id="0" precision="FP32">
					<dim>1</dim>
					<dim>16</dim>
					<dim>128</dim>
					<dim>256</dim>
				</port>
				<port id="1" precision="FP32">
					<dim>1</dim>
					<dim>16</dim>
					<dim>1</dim>
					<dim>1</dim>
				</port>
			</input>
			<output>
				<port id="2" precision="FP32" names="452">
					<dim>1</dim>
					<dim>16</dim>
					<dim>128</dim>
					<dim>256</dim>
				</port>
			</output>
		</layer>
		<layer id="286" name="1106" type="Const" version="opset1">
			<data element_type="f32" shape="16, 16, 1, 1" offset="6004" size="1024" />
			<output>
				<port id="0" precision="FP32" names="1106">
					<dim>16</dim>
					<dim>16</dim>
					<dim>1</dim>
					<dim>1</dim>
				</port>
			</output>
		</layer>
		<layer id="287" name="Conv_185/WithoutBiases" type="Convolution" version="opset1">
			<data strides="1, 1" dilations="1, 1" pads_begin="0, 0" pads_end="0, 0" auto_pad="explicit" />
			<input>
				<port id="0" precision="FP32">
					<dim>1</dim>
					<dim>16</dim>
					<dim>128</dim>
					<dim>256</dim>
				</port>
				<port id="1" precision="FP32">
					<dim>16</dim>
					<dim>16</dim>
					<dim>1</dim>
					<dim>1</dim>
				</port>
			</input>
			<output>
				<port id="2" precision="FP32">
					<dim>1</dim>
					<dim>16</dim>
					<dim>128</dim>
					<dim>256</dim>
				</port>
			</output>
		</layer>
		<layer id="288" name="1107" type="Const" version="opset1">
			<data element_type="f32" shape="16" offset="7028" size="64" />
			<output>
				<port id="0" precision="FP32" names="1107">
					<dim>16</dim>
				</port>
			</output>
		</layer>
		<layer id="289" name="Constant_5679" type="Const" version="opset1">
			<data element_type="i64" shape="1" offset="1744" size="8" />
			<output>
				<port id="0" precision="I64">
					<dim>1</dim>
				</port>
			</output>
		</layer>
		<layer id="290" name="ShapeOf_5694" type="ShapeOf" version="opset3">
			<data output_type="i64" />
			<input>
				<port id="0" precision="FP32">
					<dim>16</dim>
				</port>
			</input>
			<output>
				<port id="1" precision="I64">
					<dim>1</dim>
				</port>
			</output>
		</layer>
		<layer id="291" name="ShapeOf_5677" type="ShapeOf" version="opset3">
			<data output_type="i64" />
			<input>
				<port id="0" precision="FP32">
					<dim>1</dim>
					<dim>16</dim>
					<dim>128</dim>
					<dim>256</dim>
				</port>
			</input>
			<output>
				<port id="1" precision="I64">
					<dim>4</dim>
				</port>
			</output>
		</layer>
		<layer id="292" name="ShapeOf_5678" type="ShapeOf" version="opset3">
			<data output_type="i64" />
			<input>
				<port id="0" precision="I64">
					<dim>4</dim>
				</port>
			</input>
			<output>
				<port id="1" precision="I64">
					<dim>1</dim>
				</port>
			</output>
		</layer>
		<layer id="293" name="Constant_5680" type="Const" version="opset1">
			<data element_type="i64" shape="1" offset="1760" size="8" />
			<output>
				<port id="0" precision="I64">
					<dim>1</dim>
				</port>
			</output>
		</layer>
		<layer id="294" name="Subtract_5681" type="Subtract" version="opset1">
			<data auto_broadcast="numpy" />
			<input>
				<port id="0" precision="I64">
					<dim>1</dim>
				</port>
				<port id="1" precision="I64">
					<dim>1</dim>
				</port>
			</input>
			<output>
				<port id="2" precision="I64">
					<dim>1</dim>
				</port>
			</output>
		</layer>
		<layer id="295" name="Broadcast_5682" type="Broadcast" version="opset3">
			<data mode="numpy" />
			<input>
				<port id="0" precision="I64">
					<dim>1</dim>
				</port>
				<port id="1" precision="I64">
					<dim>1</dim>
				</port>
			</input>
			<output>
				<port id="2" precision="I64">
					<dim>2</dim>
				</port>
			</output>
		</layer>
		<layer id="296" name="Concat_5695" type="Concat" version="opset1">
			<data axis="0" />
			<input>
				<port id="0" precision="I64">
					<dim>1</dim>
				</port>
				<port id="1" precision="I64">
					<dim>1</dim>
				</port>
				<port id="2" precision="I64">
					<dim>2</dim>
				</port>
			</input>
			<output>
				<port id="3" precision="I64">
					<dim>4</dim>
				</port>
			</output>
		</layer>
		<layer id="297" name="Reshape_5696" type="Reshape" version="opset1">
			<data special_zero="false" />
			<input>
				<port id="0" precision="FP32">
					<dim>16</dim>
				</port>
				<port id="1" precision="I64">
					<dim>4</dim>
				</port>
			</input>
			<output>
				<port id="2" precision="FP32">
					<dim>1</dim>
					<dim>16</dim>
					<dim>1</dim>
					<dim>1</dim>
				</port>
			</output>
		</layer>
		<layer id="298" name="Conv_185" type="Add" version="opset1">
			<data auto_broadcast="numpy" />
			<input>
				<port id="0" precision="FP32">
					<dim>1</dim>
					<dim>16</dim>
					<dim>128</dim>
					<dim>256</dim>
				</port>
				<port id="1" precision="FP32">
					<dim>1</dim>
					<dim>16</dim>
					<dim>1</dim>
					<dim>1</dim>
				</port>
			</input>
			<output>
				<port id="2" precision="FP32" names="1105">
					<dim>1</dim>
					<dim>16</dim>
					<dim>128</dim>
					<dim>256</dim>
				</port>
			</output>
		</layer>
		<layer id="299" name="1109" type="Const" version="opset1">
			<data element_type="f32" shape="72, 16, 1, 1" offset="7092" size="4608" />
			<output>
				<port id="0" precision="FP32" names="1109">
					<dim>72</dim>
					<dim>16</dim>
					<dim>1</dim>
					<dim>1</dim>
				</port>
			</output>
		</layer>
		<layer id="300" name="Conv_186/WithoutBiases" type="Convolution" version="opset1">
			<data strides="1, 1" dilations="1, 1" pads_begin="0, 0" pads_end="0, 0" auto_pad="explicit" />
			<input>
				<port id="0" precision="FP32">
					<dim>1</dim>
					<dim>16</dim>
					<dim>128</dim>
					<dim>256</dim>
				</port>
				<port id="1" precision="FP32">
					<dim>72</dim>
					<dim>16</dim>
					<dim>1</dim>
					<dim>1</dim>
				</port>
			</input>
			<output>
				<port id="2" precision="FP32">
					<dim>1</dim>
					<dim>72</dim>
					<dim>128</dim>
					<dim>256</dim>
				</port>
			</output>
		</layer>
		<layer id="301" name="1110" type="Const" version="opset1">
			<data element_type="f32" shape="72" offset="11700" size="288" />
			<output>
				<port id="0" precision="FP32" names="1110">
					<dim>72</dim>
				</port>
			</output>
		</layer>
		<layer id="302" name="Constant_5727" type="Const" version="opset1">
			<data element_type="i64" shape="1" offset="1744" size="8" />
			<output>
				<port id="0" precision="I64">
					<dim>1</dim>
				</port>
			</output>
		</layer>
		<layer id="303" name="ShapeOf_5742" type="ShapeOf" version="opset3">
			<data output_type="i64" />
			<input>
				<port id="0" precision="FP32">
					<dim>72</dim>
				</port>
			</input>
			<output>
				<port id="1" precision="I64">
					<dim>1</dim>
				</port>
			</output>
		</layer>
		<layer id="304" name="ShapeOf_5725" type="ShapeOf" version="opset3">
			<data output_type="i64" />
			<input>
				<port id="0" precision="FP32">
					<dim>1</dim>
					<dim>72</dim>
					<dim>128</dim>
					<dim>256</dim>
				</port>
			</input>
			<output>
				<port id="1" precision="I64">
					<dim>4</dim>
				</port>
			</output>
		</layer>
		<layer id="305" name="ShapeOf_5726" type="ShapeOf" version="opset3">
			<data output_type="i64" />
			<input>
				<port id="0" precision="I64">
					<dim>4</dim>
				</port>
			</input>
			<output>
				<port id="1" precision="I64">
					<dim>1</dim>
				</port>
			</output>
		</layer>
		<layer id="306" name="Constant_5728" type="Const" version="opset1">
			<data element_type="i64" shape="1" offset="1760" size="8" />
			<output>
				<port id="0" precision="I64">
					<dim>1</dim>
				</port>
			</output>
		</layer>
		<layer id="307" name="Subtract_5729" type="Subtract" version="opset1">
			<data auto_broadcast="numpy" />
			<input>
				<port id="0" precision="I64">
					<dim>1</dim>
				</port>
				<port id="1" precision="I64">
					<dim>1</dim>
				</port>
			</input>
			<output>
				<port id="2" precision="I64">
					<dim>1</dim>
				</port>
			</output>
		</layer>
		<layer id="308" name="Broadcast_5730" type="Broadcast" version="opset3">
			<data mode="numpy" />
			<input>
				<port id="0" precision="I64">
					<dim>1</dim>
				</port>
				<port id="1" precision="I64">
					<dim>1</dim>
				</port>
			</input>
			<output>
				<port id="2" precision="I64">
					<dim>2</dim>
				</port>
			</output>
		</layer>
		<layer id="309" name="Concat_5743" type="Concat" version="opset1">
			<data axis="0" />
			<input>
				<port id="0" precision="I64">
					<dim>1</dim>
				</port>
				<port id="1" precision="I64">
					<dim>1</dim>
				</port>
				<port id="2" precision="I64">
					<dim>2</dim>
				</port>
			</input>
			<output>
				<port id="3" precision="I64">
					<dim>4</dim>
				</port>
			</output>
		</layer>
		<layer id="310" name="Reshape_5744" type="Reshape" version="opset1">
			<data special_zero="false" />
			<input>
				<port id="0" precision="FP32">
					<dim>72</dim>
				</port>
				<port id="1" precision="I64">
					<dim>4</dim>
				</port>
			</input>
			<output>
				<port id="2" precision="FP32">
					<dim>1</dim>
					<dim>72</dim>
					<dim>1</dim>
					<dim>1</dim>
				</port>
			</output>
		</layer>
		<layer id="311" name="Conv_186" type="Add" version="opset1">
			<data auto_broadcast="numpy" />
			<input>
				<port id="0" precision="FP32">
					<dim>1</dim>
					<dim>72</dim>
					<dim>128</dim>
					<dim>256</dim>
				</port>
				<port id="1" precision="FP32">
					<dim>1</dim>
					<dim>72</dim>
					<dim>1</dim>
					<dim>1</dim>
				</port>
			</input>
			<output>
				<port id="2" precision="FP32" names="1108">
					<dim>1</dim>
					<dim>72</dim>
					<dim>128</dim>
					<dim>256</dim>
				</port>
			</output>
		</layer>
		<layer id="312" name="Relu_187" type="ReLU" version="opset1">
			<input>
				<port id="0" precision="FP32">
					<dim>1</dim>
					<dim>72</dim>
					<dim>128</dim>
					<dim>256</dim>
				</port>
			</input>
			<output>
				<port id="1" precision="FP32" names="457">
					<dim>1</dim>
					<dim>72</dim>
					<dim>128</dim>
					<dim>256</dim>
				</port>
			</output>
		</layer>
		<layer id="313" name="trunk.block1.0.conv_dw.weight" type="Const" version="opset1">
			<data element_type="f32" shape="72, 1, 3, 3" offset="11988" size="2592" />
			<output>
				<port id="0" precision="FP32" names="trunk.block1.0.conv_dw.weight">
					<dim>72</dim>
					<dim>1</dim>
					<dim>3</dim>
					<dim>3</dim>
				</port>
			</output>
		</layer>
		<layer id="314" name="Shape_197" type="ShapeOf" version="opset3">
			<data output_type="i64" />
			<input>
				<port id="0" precision="FP32">
					<dim>72</dim>
					<dim>1</dim>
					<dim>3</dim>
					<dim>3</dim>
				</port>
			</input>
			<output>
				<port id="1" precision="I64" names="467">
					<dim>4</dim>
				</port>
			</output>
		</layer>
		<layer id="315" name="Constant_198" type="Const" version="opset1">
			<data element_type="i64" shape="" offset="1728" size="8" />
			<output>
				<port id="0" precision="I64" names="468" />
			</output>
		</layer>
		<layer id="316" name="Constant_5787" type="Const" version="opset1">
			<data element_type="i64" shape="" offset="1736" size="8" />
			<output>
				<port id="0" precision="I64" />
			</output>
		</layer>
		<layer id="317" name="Gather_199" type="Gather" version="opset8">
			<data batch_dims="0" />
			<input>
				<port id="0" precision="I64">
					<dim>4</dim>
				</port>
				<port id="1" precision="I64" />
				<port id="2" precision="I64" />
			</input>
			<output>
				<port id="3" precision="I64" names="469" />
			</output>
		</layer>
		<layer id="318" name="Constant_209" type="Const" version="opset1">
			<data element_type="i64" shape="" offset="1744" size="8" />
			<output>
				<port id="0" precision="I64" names="479" />
			</output>
		</layer>
		<layer id="319" name="Sub_210" type="Subtract" version="opset1">
			<data auto_broadcast="numpy" />
			<input>
				<port id="0" precision="I64" />
				<port id="1" precision="I64" />
			</input>
			<output>
				<port id="2" precision="I64" names="480" />
			</output>
		</layer>
		<layer id="320" name="Constant_211" type="Const" version="opset1">
			<data element_type="i64" shape="" offset="1744" size="8" />
			<output>
				<port id="0" precision="I64" names="481" />
			</output>
		</layer>
		<layer id="321" name="Mul_212" type="Multiply" version="opset1">
			<data auto_broadcast="numpy" />
			<input>
				<port id="0" precision="I64" />
				<port id="1" precision="I64" />
			</input>
			<output>
				<port id="2" precision="I64" names="482" />
			</output>
		</layer>
		<layer id="322" name="Constant_213" type="Const" version="opset1">
			<data element_type="i64" shape="" offset="4212" size="8" />
			<output>
				<port id="0" precision="I64" names="483" />
			</output>
		</layer>
		<layer id="323" name="Add_214" type="Add" version="opset1">
			<data auto_broadcast="numpy" />
			<input>
				<port id="0" precision="I64" />
				<port id="1" precision="I64" />
			</input>
			<output>
				<port id="2" precision="I64" names="484" />
			</output>
		</layer>
		<layer id="324" name="Constant_215" type="Const" version="opset1">
			<data element_type="i64" shape="" offset="1744" size="8" />
			<output>
				<port id="0" precision="I64" names="485" />
			</output>
		</layer>
		<layer id="325" name="Add_216" type="Add" version="opset1">
			<data auto_broadcast="numpy" />
			<input>
				<port id="0" precision="I64" />
				<port id="1" precision="I64" />
			</input>
			<output>
				<port id="2" precision="I64" names="486" />
			</output>
		</layer>
		<layer id="326" name="Shape_191" type="ShapeOf" version="opset3">
			<data output_type="i64" />
			<input>
				<port id="0" precision="FP32">
					<dim>1</dim>
					<dim>72</dim>
					<dim>128</dim>
					<dim>256</dim>
				</port>
			</input>
			<output>
				<port id="1" precision="I64" names="461">
					<dim>4</dim>
				</port>
			</output>
		</layer>
		<layer id="327" name="Constant_192" type="Const" version="opset1">
			<data element_type="i64" shape="" offset="1728" size="8" />
			<output>
				<port id="0" precision="I64" names="462" />
			</output>
		</layer>
		<layer id="328" name="Constant_5779" type="Const" version="opset1">
			<data element_type="i64" shape="" offset="1736" size="8" />
			<output>
				<port id="0" precision="I64" />
			</output>
		</layer>
		<layer id="329" name="Gather_193" type="Gather" version="opset8">
			<data batch_dims="0" />
			<input>
				<port id="0" precision="I64">
					<dim>4</dim>
				</port>
				<port id="1" precision="I64" />
				<port id="2" precision="I64" />
			</input>
			<output>
				<port id="3" precision="I64" names="463" />
			</output>
		</layer>
		<layer id="330" name="Sub_217" type="Subtract" version="opset1">
			<data auto_broadcast="numpy" />
			<input>
				<port id="0" precision="I64" />
				<port id="1" precision="I64" />
			</input>
			<output>
				<port id="2" precision="I64" names="487" />
			</output>
		</layer>
		<layer id="331" name="Constant_218" type="Const" version="opset1">
			<data element_type="i64" shape="" offset="1760" size="8" />
			<output>
				<port id="0" precision="I64" names="488" />
			</output>
		</layer>
		<layer id="332" name="Div_219" type="Divide" version="opset1">
			<data auto_broadcast="numpy" m_pythondiv="true" />
			<input>
				<port id="0" precision="I64" />
				<port id="1" precision="I64" />
			</input>
			<output>
				<port id="2" precision="I64" names="489" />
			</output>
		</layer>
		<layer id="333" name="Cast_220" type="Convert" version="opset1">
			<data destination_type="i64" />
			<input>
				<port id="0" precision="I64" />
			</input>
			<output>
				<port id="1" precision="I64" names="490" />
			</output>
		</layer>
		<layer id="334" name="Cast_221" type="Convert" version="opset1">
			<data destination_type="i64" />
			<input>
				<port id="0" precision="I64" />
			</input>
			<output>
				<port id="1" precision="I64" names="491" />
			</output>
		</layer>
		<layer id="335" name="Constant_5834" type="Const" version="opset1">
			<data element_type="i64" shape="1" offset="1736" size="8" />
			<output>
				<port id="0" precision="I64">
					<dim>1</dim>
				</port>
			</output>
		</layer>
		<layer id="336" name="Unsqueeze_241" type="Unsqueeze" version="opset1">
			<input>
				<port id="0" precision="I64" />
				<port id="1" precision="I64">
					<dim>1</dim>
				</port>
			</input>
			<output>
				<port id="2" precision="I64" names="511">
					<dim>1</dim>
				</port>
			</output>
		</layer>
		<layer id="337" name="Constant_222" type="Const" version="opset1">
			<data element_type="i64" shape="" offset="1760" size="8" />
			<output>
				<port id="0" precision="I64" names="492" />
			</output>
		</layer>
		<layer id="338" name="Div_223" type="Divide" version="opset1">
			<data auto_broadcast="numpy" m_pythondiv="true" />
			<input>
				<port id="0" precision="I64" />
				<port id="1" precision="I64" />
			</input>
			<output>
				<port id="2" precision="I64" names="493" />
			</output>
		</layer>
		<layer id="339" name="Cast_224" type="Convert" version="opset1">
			<data destination_type="i64" />
			<input>
				<port id="0" precision="I64" />
			</input>
			<output>
				<port id="1" precision="I64" names="494" />
			</output>
		</layer>
		<layer id="340" name="Cast_225" type="Convert" version="opset1">
			<data destination_type="i64" />
			<input>
				<port id="0" precision="I64" />
			</input>
			<output>
				<port id="1" precision="I64" names="495" />
			</output>
		</layer>
		<layer id="341" name="Sub_226" type="Subtract" version="opset1">
			<data auto_broadcast="numpy" />
			<input>
				<port id="0" precision="I64" />
				<port id="1" precision="I64" />
			</input>
			<output>
				<port id="2" precision="I64" names="496" />
			</output>
		</layer>
		<layer id="342" name="Constant_5836" type="Const" version="opset1">
			<data element_type="i64" shape="1" offset="1736" size="8" />
			<output>
				<port id="0" precision="I64">
					<dim>1</dim>
				</port>
			</output>
		</layer>
		<layer id="343" name="Unsqueeze_242" type="Unsqueeze" version="opset1">
			<input>
				<port id="0" precision="I64" />
				<port id="1" precision="I64">
					<dim>1</dim>
				</port>
			</input>
			<output>
				<port id="2" precision="I64" names="512">
					<dim>1</dim>
				</port>
			</output>
		</layer>
		<layer id="344" name="Shape_194" type="ShapeOf" version="opset3">
			<data output_type="i64" />
			<input>
				<port id="0" precision="FP32">
					<dim>72</dim>
					<dim>1</dim>
					<dim>3</dim>
					<dim>3</dim>
				</port>
			</input>
			<output>
				<port id="1" precision="I64" names="464">
					<dim>4</dim>
				</port>
			</output>
		</layer>
		<layer id="345" name="Constant_195" type="Const" version="opset1">
			<data element_type="i64" shape="" offset="1760" size="8" />
			<output>
				<port id="0" precision="I64" names="465" />
			</output>
		</layer>
		<layer id="346" name="Constant_5783" type="Const" version="opset1">
			<data element_type="i64" shape="" offset="1736" size="8" />
			<output>
				<port id="0" precision="I64" />
			</output>
		</layer>
		<layer id="347" name="Gather_196" type="Gather" version="opset8">
			<data batch_dims="0" />
			<input>
				<port id="0" precision="I64">
					<dim>4</dim>
				</port>
				<port id="1" precision="I64" />
				<port id="2" precision="I64" />
			</input>
			<output>
				<port id="3" precision="I64" names="466" />
			</output>
		</layer>
		<layer id="348" name="Constant_200" type="Const" version="opset1">
			<data element_type="i64" shape="" offset="1744" size="8" />
			<output>
				<port id="0" precision="I64" names="470" />
			</output>
		</layer>
		<layer id="349" name="Sub_201" type="Subtract" version="opset1">
			<data auto_broadcast="numpy" />
			<input>
				<port id="0" precision="I64" />
				<port id="1" precision="I64" />
			</input>
			<output>
				<port id="2" precision="I64" names="471" />
			</output>
		</layer>
		<layer id="350" name="Constant_202" type="Const" version="opset1">
			<data element_type="i64" shape="" offset="1744" size="8" />
			<output>
				<port id="0" precision="I64" names="472" />
			</output>
		</layer>
		<layer id="351" name="Mul_203" type="Multiply" version="opset1">
			<data auto_broadcast="numpy" />
			<input>
				<port id="0" precision="I64" />
				<port id="1" precision="I64" />
			</input>
			<output>
				<port id="2" precision="I64" names="473" />
			</output>
		</layer>
		<layer id="352" name="Constant_204" type="Const" version="opset1">
			<data element_type="i64" shape="" offset="14580" size="8" />
			<output>
				<port id="0" precision="I64" names="474" />
			</output>
		</layer>
		<layer id="353" name="Add_205" type="Add" version="opset1">
			<data auto_broadcast="numpy" />
			<input>
				<port id="0" precision="I64" />
				<port id="1" precision="I64" />
			</input>
			<output>
				<port id="2" precision="I64" names="475" />
			</output>
		</layer>
		<layer id="354" name="Constant_206" type="Const" version="opset1">
			<data element_type="i64" shape="" offset="1744" size="8" />
			<output>
				<port id="0" precision="I64" names="476" />
			</output>
		</layer>
		<layer id="355" name="Add_207" type="Add" version="opset1">
			<data auto_broadcast="numpy" />
			<input>
				<port id="0" precision="I64" />
				<port id="1" precision="I64" />
			</input>
			<output>
				<port id="2" precision="I64" names="477" />
			</output>
		</layer>
		<layer id="356" name="Shape_188" type="ShapeOf" version="opset3">
			<data output_type="i64" />
			<input>
				<port id="0" precision="FP32">
					<dim>1</dim>
					<dim>72</dim>
					<dim>128</dim>
					<dim>256</dim>
				</port>
			</input>
			<output>
				<port id="1" precision="I64" names="458">
					<dim>4</dim>
				</port>
			</output>
		</layer>
		<layer id="357" name="Constant_189" type="Const" version="opset1">
			<data element_type="i64" shape="" offset="1760" size="8" />
			<output>
				<port id="0" precision="I64" names="459" />
			</output>
		</layer>
		<layer id="358" name="Constant_5775" type="Const" version="opset1">
			<data element_type="i64" shape="" offset="1736" size="8" />
			<output>
				<port id="0" precision="I64" />
			</output>
		</layer>
		<layer id="359" name="Gather_190" type="Gather" version="opset8">
			<data batch_dims="0" />
			<input>
				<port id="0" precision="I64">
					<dim>4</dim>
				</port>
				<port id="1" precision="I64" />
				<port id="2" precision="I64" />
			</input>
			<output>
				<port id="3" precision="I64" names="460" />
			</output>
		</layer>
		<layer id="360" name="Sub_208" type="Subtract" version="opset1">
			<data auto_broadcast="numpy" />
			<input>
				<port id="0" precision="I64" />
				<port id="1" precision="I64" />
			</input>
			<output>
				<port id="2" precision="I64" names="478" />
			</output>
		</layer>
		<layer id="361" name="Constant_227" type="Const" version="opset1">
			<data element_type="i64" shape="" offset="1760" size="8" />
			<output>
				<port id="0" precision="I64" names="497" />
			</output>
		</layer>
		<layer id="362" name="Div_228" type="Divide" version="opset1">
			<data auto_broadcast="numpy" m_pythondiv="true" />
			<input>
				<port id="0" precision="I64" />
				<port id="1" precision="I64" />
			</input>
			<output>
				<port id="2" precision="I64" names="498" />
			</output>
		</layer>
		<layer id="363" name="Cast_229" type="Convert" version="opset1">
			<data destination_type="i64" />
			<input>
				<port id="0" precision="I64" />
			</input>
			<output>
				<port id="1" precision="I64" names="499" />
			</output>
		</layer>
		<layer id="364" name="Cast_230" type="Convert" version="opset1">
			<data destination_type="i64" />
			<input>
				<port id="0" precision="I64" />
			</input>
			<output>
				<port id="1" precision="I64" names="500" />
			</output>
		</layer>
		<layer id="365" name="Constant_5838" type="Const" version="opset1">
			<data element_type="i64" shape="1" offset="1736" size="8" />
			<output>
				<port id="0" precision="I64">
					<dim>1</dim>
				</port>
			</output>
		</layer>
		<layer id="366" name="Unsqueeze_243" type="Unsqueeze" version="opset1">
			<input>
				<port id="0" precision="I64" />
				<port id="1" precision="I64">
					<dim>1</dim>
				</port>
			</input>
			<output>
				<port id="2" precision="I64" names="513">
					<dim>1</dim>
				</port>
			</output>
		</layer>
		<layer id="367" name="Constant_231" type="Const" version="opset1">
			<data element_type="i64" shape="" offset="1760" size="8" />
			<output>
				<port id="0" precision="I64" names="501" />
			</output>
		</layer>
		<layer id="368" name="Div_232" type="Divide" version="opset1">
			<data auto_broadcast="numpy" m_pythondiv="true" />
			<input>
				<port id="0" precision="I64" />
				<port id="1" precision="I64" />
			</input>
			<output>
				<port id="2" precision="I64" names="502" />
			</output>
		</layer>
		<layer id="369" name="Cast_233" type="Convert" version="opset1">
			<data destination_type="i64" />
			<input>
				<port id="0" precision="I64" />
			</input>
			<output>
				<port id="1" precision="I64" names="503" />
			</output>
		</layer>
		<layer id="370" name="Cast_234" type="Convert" version="opset1">
			<data destination_type="i64" />
			<input>
				<port id="0" precision="I64" />
			</input>
			<output>
				<port id="1" precision="I64" names="504" />
			</output>
		</layer>
		<layer id="371" name="Sub_235" type="Subtract" version="opset1">
			<data auto_broadcast="numpy" />
			<input>
				<port id="0" precision="I64" />
				<port id="1" precision="I64" />
			</input>
			<output>
				<port id="2" precision="I64" names="505" />
			</output>
		</layer>
		<layer id="372" name="Constant_5840" type="Const" version="opset1">
			<data element_type="i64" shape="1" offset="1736" size="8" />
			<output>
				<port id="0" precision="I64">
					<dim>1</dim>
				</port>
			</output>
		</layer>
		<layer id="373" name="Unsqueeze_244" type="Unsqueeze" version="opset1">
			<input>
				<port id="0" precision="I64" />
				<port id="1" precision="I64">
					<dim>1</dim>
				</port>
			</input>
			<output>
				<port id="2" precision="I64" names="514">
					<dim>1</dim>
				</port>
			</output>
		</layer>
		<layer id="374" name="Concat_245" type="Concat" version="opset1">
			<data axis="0" />
			<input>
				<port id="0" precision="I64">
					<dim>1</dim>
				</port>
				<port id="1" precision="I64">
					<dim>1</dim>
				</port>
				<port id="2" precision="I64">
					<dim>1</dim>
				</port>
				<port id="3" precision="I64">
					<dim>1</dim>
				</port>
			</input>
			<output>
				<port id="4" precision="I64" names="515">
					<dim>4</dim>
				</port>
			</output>
		</layer>
		<layer id="375" name="Cast_253" type="Convert" version="opset1">
			<data destination_type="i64" />
			<input>
				<port id="0" precision="I64">
					<dim>4</dim>
				</port>
			</input>
			<output>
				<port id="1" precision="I64" names="523">
					<dim>4</dim>
				</port>
			</output>
		</layer>
		<layer id="376" name="Constant_5853" type="Const" version="opset1">
			<data element_type="i64" shape="" offset="1736" size="8" />
			<output>
				<port id="0" precision="I64" />
			</output>
		</layer>
		<layer id="377" name="Constant_249" type="Const" version="opset1">
			<data element_type="i64" shape="" offset="1776" size="8" />
			<output>
				<port id="0" precision="I64" names="519" />
			</output>
		</layer>
		<layer id="378" name="Constant_250" type="Const" version="opset1">
			<data element_type="i64" shape="" offset="1760" size="8" />
			<output>
				<port id="0" precision="I64" names="520" />
			</output>
		</layer>
		<layer id="379" name="Mul_251" type="Multiply" version="opset1">
			<data auto_broadcast="numpy" />
			<input>
				<port id="0" precision="I64" />
				<port id="1" precision="I64" />
			</input>
			<output>
				<port id="2" precision="I64" names="521" />
			</output>
		</layer>
		<layer id="380" name="Constant_5825" type="Const" version="opset1">
			<data element_type="i64" shape="1" offset="1736" size="8" />
			<output>
				<port id="0" precision="I64">
					<dim>1</dim>
				</port>
			</output>
		</layer>
		<layer id="381" name="Unsqueeze_236" type="Unsqueeze" version="opset1">
			<input>
				<port id="0" precision="I64" />
				<port id="1" precision="I64">
					<dim>1</dim>
				</port>
			</input>
			<output>
				<port id="2" precision="I64" names="506">
					<dim>1</dim>
				</port>
			</output>
		</layer>
		<layer id="382" name="Constant_5827" type="Const" version="opset1">
			<data element_type="i64" shape="1" offset="1736" size="8" />
			<output>
				<port id="0" precision="I64">
					<dim>1</dim>
				</port>
			</output>
		</layer>
		<layer id="383" name="Unsqueeze_237" type="Unsqueeze" version="opset1">
			<input>
				<port id="0" precision="I64" />
				<port id="1" precision="I64">
					<dim>1</dim>
				</port>
			</input>
			<output>
				<port id="2" precision="I64" names="507">
					<dim>1</dim>
				</port>
			</output>
		</layer>
		<layer id="384" name="Constant_5829" type="Const" version="opset1">
			<data element_type="i64" shape="1" offset="1736" size="8" />
			<output>
				<port id="0" precision="I64">
					<dim>1</dim>
				</port>
			</output>
		</layer>
		<layer id="385" name="Unsqueeze_238" type="Unsqueeze" version="opset1">
			<input>
				<port id="0" precision="I64" />
				<port id="1" precision="I64">
					<dim>1</dim>
				</port>
			</input>
			<output>
				<port id="2" precision="I64" names="508">
					<dim>1</dim>
				</port>
			</output>
		</layer>
		<layer id="386" name="Constant_5831" type="Const" version="opset1">
			<data element_type="i64" shape="1" offset="1736" size="8" />
			<output>
				<port id="0" precision="I64">
					<dim>1</dim>
				</port>
			</output>
		</layer>
		<layer id="387" name="Unsqueeze_239" type="Unsqueeze" version="opset1">
			<input>
				<port id="0" precision="I64" />
				<port id="1" precision="I64">
					<dim>1</dim>
				</port>
			</input>
			<output>
				<port id="2" precision="I64" names="509">
					<dim>1</dim>
				</port>
			</output>
		</layer>
		<layer id="388" name="Concat_240" type="Concat" version="opset1">
			<data axis="0" />
			<input>
				<port id="0" precision="I64">
					<dim>1</dim>
				</port>
				<port id="1" precision="I64">
					<dim>1</dim>
				</port>
				<port id="2" precision="I64">
					<dim>1</dim>
				</port>
				<port id="3" precision="I64">
					<dim>1</dim>
				</port>
			</input>
			<output>
				<port id="4" precision="I64" names="510">
					<dim>4</dim>
				</port>
			</output>
		</layer>
		<layer id="389" name="Shape_247" type="ShapeOf" version="opset3">
			<data output_type="i64" />
			<input>
				<port id="0" precision="I64">
					<dim>4</dim>
				</port>
			</input>
			<output>
				<port id="1" precision="I64" names="517">
					<dim>1</dim>
				</port>
			</output>
		</layer>
		<layer id="390" name="Constant_246" type="Const" version="opset1">
			<data element_type="i64" shape="1" offset="1736" size="8" />
			<output>
				<port id="0" precision="I64" names="516">
					<dim>1</dim>
				</port>
			</output>
		</layer>
		<layer id="391" name="Constant_5845" type="Const" version="opset1">
			<data element_type="i64" shape="" offset="1736" size="8" />
			<output>
				<port id="0" precision="I64" />
			</output>
		</layer>
		<layer id="392" name="Gather_248" type="Gather" version="opset8">
			<data batch_dims="0" />
			<input>
				<port id="0" precision="I64">
					<dim>1</dim>
				</port>
				<port id="1" precision="I64">
					<dim>1</dim>
				</port>
				<port id="2" precision="I64" />
			</input>
			<output>
				<port id="3" precision="I64" names="518">
					<dim>1</dim>
				</port>
			</output>
		</layer>
		<layer id="393" name="Sub_252" type="Subtract" version="opset1">
			<data auto_broadcast="numpy" />
			<input>
				<port id="0" precision="I64" />
				<port id="1" precision="I64">
					<dim>1</dim>
				</port>
			</input>
			<output>
				<port id="2" precision="I64" names="522">
					<dim>1</dim>
				</port>
			</output>
		</layer>
		<layer id="394" name="ConstantOfShape_254" type="Broadcast" version="opset3">
			<data mode="numpy" />
			<input>
				<port id="0" precision="I64" />
				<port id="1" precision="I64">
					<dim>1</dim>
				</port>
			</input>
			<output>
				<port id="2" precision="I64" names="524">
					<dim>4</dim>
				</port>
			</output>
		</layer>
		<layer id="395" name="Concat_255" type="Concat" version="opset1">
			<data axis="0" />
			<input>
				<port id="0" precision="I64">
					<dim>4</dim>
				</port>
				<port id="1" precision="I64">
					<dim>4</dim>
				</port>
			</input>
			<output>
				<port id="2" precision="I64" names="525">
					<dim>8</dim>
				</port>
			</output>
		</layer>
		<layer id="396" name="Constant_256" type="Const" version="opset1">
			<data element_type="i64" shape="2" offset="1784" size="16" />
			<output>
				<port id="0" precision="I64" names="526">
					<dim>2</dim>
				</port>
			</output>
		</layer>
		<layer id="397" name="Reshape_257" type="Reshape" version="opset1">
			<data special_zero="true" />
			<input>
				<port id="0" precision="I64">
					<dim>8</dim>
				</port>
				<port id="1" precision="I64">
					<dim>2</dim>
				</port>
			</input>
			<output>
				<port id="2" precision="I64" names="527">
					<dim>4</dim>
					<dim>2</dim>
				</port>
			</output>
		</layer>
		<layer id="398" name="Constant_259" type="Const" version="opset1">
			<data element_type="i64" shape="1" offset="1800" size="8" />
			<output>
				<port id="0" precision="I64" names="529">
					<dim>1</dim>
				</port>
			</output>
		</layer>
		<layer id="399" name="Constant_260" type="Const" version="opset1">
			<data element_type="i64" shape="1" offset="1808" size="8" />
			<output>
				<port id="0" precision="I64" names="530">
					<dim>1</dim>
				</port>
			</output>
		</layer>
		<layer id="400" name="Constant_261" type="Const" version="opset1">
			<data element_type="i64" shape="1" offset="1800" size="8" />
			<output>
				<port id="0" precision="I64" names="531">
					<dim>1</dim>
				</port>
			</output>
		</layer>
		<layer id="401" name="Constant_258" type="Const" version="opset1">
			<data element_type="i64" shape="1" offset="1736" size="8" />
			<output>
				<port id="0" precision="I64" names="528">
					<dim>1</dim>
				</port>
			</output>
		</layer>
		<layer id="402" name="Slice_262" type="Slice" version="opset8">
			<input>
				<port id="0" precision="I64">
					<dim>4</dim>
					<dim>2</dim>
				</port>
				<port id="1" precision="I64">
					<dim>1</dim>
				</port>
				<port id="2" precision="I64">
					<dim>1</dim>
				</port>
				<port id="3" precision="I64">
					<dim>1</dim>
				</port>
				<port id="4" precision="I64">
					<dim>1</dim>
				</port>
			</input>
			<output>
				<port id="5" precision="I64" names="532">
					<dim>4</dim>
					<dim>2</dim>
				</port>
			</output>
		</layer>
		<layer id="403" name="Constant_5894" type="Const" version="opset1">
			<data element_type="i64" shape="2" offset="1816" size="16" />
			<output>
				<port id="0" precision="I64">
					<dim>2</dim>
				</port>
			</output>
		</layer>
		<layer id="404" name="Transpose_263" type="Transpose" version="opset1">
			<input>
				<port id="0" precision="I64">
					<dim>4</dim>
					<dim>2</dim>
				</port>
				<port id="1" precision="I64">
					<dim>2</dim>
				</port>
			</input>
			<output>
				<port id="2" precision="I64" names="533">
					<dim>2</dim>
					<dim>4</dim>
				</port>
			</output>
		</layer>
		<layer id="405" name="Constant_264" type="Const" version="opset1">
			<data element_type="i64" shape="1" offset="1800" size="8" />
			<output>
				<port id="0" precision="I64" names="534">
					<dim>1</dim>
				</port>
			</output>
		</layer>
		<layer id="406" name="Reshape_265" type="Reshape" version="opset1">
			<data special_zero="true" />
			<input>
				<port id="0" precision="I64">
					<dim>2</dim>
					<dim>4</dim>
				</port>
				<port id="1" precision="I64">
					<dim>1</dim>
				</port>
			</input>
			<output>
				<port id="2" precision="I64" names="535">
					<dim>8</dim>
				</port>
			</output>
		</layer>
		<layer id="407" name="Cast_266" type="Convert" version="opset1">
			<data destination_type="i64" />
			<input>
				<port id="0" precision="I64">
					<dim>8</dim>
				</port>
			</input>
			<output>
				<port id="1" precision="I64" names="536">
					<dim>8</dim>
				</port>
			</output>
		</layer>
		<layer id="408" name="Constant_5905" type="Const" version="opset1">
			<data element_type="i64" shape="" offset="1736" size="8" />
			<output>
				<port id="0" precision="I64" />
			</output>
		</layer>
		<layer id="409" name="Split_5906" type="Split" version="opset1">
			<data num_splits="2" />
			<input>
				<port id="0" precision="I64">
					<dim>8</dim>
				</port>
				<port id="1" precision="I64" />
			</input>
			<output>
				<port id="2" precision="I64">
					<dim>4</dim>
				</port>
				<port id="3" precision="I64">
					<dim>4</dim>
				</port>
			</output>
		</layer>
		<layer id="410" name="Constant_267" type="Const" version="opset1">
			<data element_type="f32" shape="" offset="1832" size="4" />
			<output>
				<port id="0" precision="FP32" names="537" />
			</output>
		</layer>
		<layer id="411" name="Pad_268" type="Pad" version="opset1">
			<data pad_mode="constant" />
			<input>
				<port id="0" precision="FP32">
					<dim>1</dim>
					<dim>72</dim>
					<dim>128</dim>
					<dim>256</dim>
				</port>
				<port id="1" precision="I64">
					<dim>4</dim>
				</port>
				<port id="2" precision="I64">
					<dim>4</dim>
				</port>
				<port id="3" precision="FP32" />
			</input>
			<output>
				<port id="4" precision="FP32" names="538">
					<dim>1</dim>
					<dim>72</dim>
					<dim>129</dim>
					<dim>257</dim>
				</port>
			</output>
		</layer>
		<layer id="412" name="1112" type="Const" version="opset1">
			<data element_type="f32" shape="72, 1, 3, 3" offset="14588" size="2592" />
			<output>
				<port id="0" precision="FP32" names="1112">
					<dim>72</dim>
					<dim>1</dim>
					<dim>3</dim>
					<dim>3</dim>
				</port>
			</output>
		</layer>
		<layer id="413" name="Constant_6489" type="Const" version="opset1">
			<data element_type="i64" shape="1" offset="17180" size="8" />
			<output>
				<port id="0" precision="I64">
					<dim>1</dim>
				</port>
			</output>
		</layer>
		<layer id="414" name="ShapeOf_6490" type="ShapeOf" version="opset3">
			<data output_type="i64" />
			<input>
				<port id="0" precision="FP32">
					<dim>72</dim>
					<dim>1</dim>
					<dim>3</dim>
					<dim>3</dim>
				</port>
			</input>
			<output>
				<port id="1" precision="I64">
					<dim>4</dim>
				</port>
			</output>
		</layer>
		<layer id="415" name="Constant_6487" type="Const" version="opset1">
			<data element_type="i64" shape="" offset="1736" size="8" />
			<output>
				<port id="0" precision="I64" />
			</output>
		</layer>
		<layer id="416" name="Constant_6488" type="Const" version="opset1">
			<data element_type="i64" shape="2" offset="4804" size="16" />
			<output>
				<port id="0" precision="I64">
					<dim>2</dim>
				</port>
			</output>
		</layer>
		<layer id="417" name="VariadicSplit_6491" type="VariadicSplit" version="opset1">
			<input>
				<port id="0" precision="I64">
					<dim>4</dim>
				</port>
				<port id="1" precision="I64" />
				<port id="2" precision="I64">
					<dim>2</dim>
				</port>
			</input>
			<output>
				<port id="3" precision="I64">
					<dim>1</dim>
				</port>
				<port id="4" precision="I64">
					<dim>3</dim>
				</port>
			</output>
		</layer>
		<layer id="418" name="Divide_6492" type="Divide" version="opset1">
			<data auto_broadcast="numpy" m_pythondiv="true" />
			<input>
				<port id="0" precision="I64">
					<dim>1</dim>
				</port>
				<port id="1" precision="I64">
					<dim>1</dim>
				</port>
			</input>
			<output>
				<port id="2" precision="I64">
					<dim>1</dim>
				</port>
			</output>
		</layer>
		<layer id="419" name="Concat_6493" type="Concat" version="opset1">
			<data axis="0" />
			<input>
				<port id="0" precision="I64">
					<dim>1</dim>
				</port>
				<port id="1" precision="I64">
					<dim>1</dim>
				</port>
				<port id="2" precision="I64">
					<dim>3</dim>
				</port>
			</input>
			<output>
				<port id="3" precision="I64">
					<dim>5</dim>
				</port>
			</output>
		</layer>
		<layer id="420" name="Reshape_6494" type="Reshape" version="opset1">
			<data special_zero="false" />
			<input>
				<port id="0" precision="FP32">
					<dim>72</dim>
					<dim>1</dim>
					<dim>3</dim>
					<dim>3</dim>
				</port>
				<port id="1" precision="I64">
					<dim>5</dim>
				</port>
			</input>
			<output>
				<port id="2" precision="FP32">
					<dim>72</dim>
					<dim>1</dim>
					<dim>1</dim>
					<dim>3</dim>
					<dim>3</dim>
				</port>
			</output>
		</layer>
		<layer id="421" name="Conv_269/WithoutBiases" type="GroupConvolution" version="opset1">
			<data strides="2, 2" pads_begin="0, 0" pads_end="0, 0" dilations="1, 1" auto_pad="explicit" />
			<input>
				<port id="0" precision="FP32">
					<dim>1</dim>
					<dim>72</dim>
					<dim>129</dim>
					<dim>257</dim>
				</port>
				<port id="1" precision="FP32">
					<dim>72</dim>
					<dim>1</dim>
					<dim>1</dim>
					<dim>3</dim>
					<dim>3</dim>
				</port>
			</input>
			<output>
				<port id="2" precision="FP32">
					<dim>1</dim>
					<dim>72</dim>
					<dim>64</dim>
					<dim>128</dim>
				</port>
			</output>
		</layer>
		<layer id="422" name="1113" type="Const" version="opset1">
			<data element_type="f32" shape="72" offset="17188" size="288" />
			<output>
				<port id="0" precision="FP32" names="1113">
					<dim>72</dim>
				</port>
			</output>
		</layer>
		<layer id="423" name="Constant_6563" type="Const" version="opset1">
			<data element_type="i64" shape="1" offset="1744" size="8" />
			<output>
				<port id="0" precision="I64">
					<dim>1</dim>
				</port>
			</output>
		</layer>
		<layer id="424" name="ShapeOf_6578" type="ShapeOf" version="opset3">
			<data output_type="i64" />
			<input>
				<port id="0" precision="FP32">
					<dim>72</dim>
				</port>
			</input>
			<output>
				<port id="1" precision="I64">
					<dim>1</dim>
				</port>
			</output>
		</layer>
		<layer id="425" name="ShapeOf_6561" type="ShapeOf" version="opset3">
			<data output_type="i64" />
			<input>
				<port id="0" precision="FP32">
					<dim>1</dim>
					<dim>72</dim>
					<dim>64</dim>
					<dim>128</dim>
				</port>
			</input>
			<output>
				<port id="1" precision="I64">
					<dim>4</dim>
				</port>
			</output>
		</layer>
		<layer id="426" name="ShapeOf_6562" type="ShapeOf" version="opset3">
			<data output_type="i64" />
			<input>
				<port id="0" precision="I64">
					<dim>4</dim>
				</port>
			</input>
			<output>
				<port id="1" precision="I64">
					<dim>1</dim>
				</port>
			</output>
		</layer>
		<layer id="427" name="Constant_6564" type="Const" version="opset1">
			<data element_type="i64" shape="1" offset="1760" size="8" />
			<output>
				<port id="0" precision="I64">
					<dim>1</dim>
				</port>
			</output>
		</layer>
		<layer id="428" name="Subtract_6565" type="Subtract" version="opset1">
			<data auto_broadcast="numpy" />
			<input>
				<port id="0" precision="I64">
					<dim>1</dim>
				</port>
				<port id="1" precision="I64">
					<dim>1</dim>
				</port>
			</input>
			<output>
				<port id="2" precision="I64">
					<dim>1</dim>
				</port>
			</output>
		</layer>
		<layer id="429" name="Broadcast_6566" type="Broadcast" version="opset3">
			<data mode="numpy" />
			<input>
				<port id="0" precision="I64">
					<dim>1</dim>
				</port>
				<port id="1" precision="I64">
					<dim>1</dim>
				</port>
			</input>
			<output>
				<port id="2" precision="I64">
					<dim>2</dim>
				</port>
			</output>
		</layer>
		<layer id="430" name="Concat_6579" type="Concat" version="opset1">
			<data axis="0" />
			<input>
				<port id="0" precision="I64">
					<dim>1</dim>
				</port>
				<port id="1" precision="I64">
					<dim>1</dim>
				</port>
				<port id="2" precision="I64">
					<dim>2</dim>
				</port>
			</input>
			<output>
				<port id="3" precision="I64">
					<dim>4</dim>
				</port>
			</output>
		</layer>
		<layer id="431" name="Reshape_6580" type="Reshape" version="opset1">
			<data special_zero="false" />
			<input>
				<port id="0" precision="FP32">
					<dim>72</dim>
				</port>
				<port id="1" precision="I64">
					<dim>4</dim>
				</port>
			</input>
			<output>
				<port id="2" precision="FP32">
					<dim>1</dim>
					<dim>72</dim>
					<dim>1</dim>
					<dim>1</dim>
				</port>
			</output>
		</layer>
		<layer id="432" name="Conv_269" type="Add" version="opset1">
			<data auto_broadcast="numpy" />
			<input>
				<port id="0" precision="FP32">
					<dim>1</dim>
					<dim>72</dim>
					<dim>64</dim>
					<dim>128</dim>
				</port>
				<port id="1" precision="FP32">
					<dim>1</dim>
					<dim>72</dim>
					<dim>1</dim>
					<dim>1</dim>
				</port>
			</input>
			<output>
				<port id="2" precision="FP32" names="1111">
					<dim>1</dim>
					<dim>72</dim>
					<dim>64</dim>
					<dim>128</dim>
				</port>
			</output>
		</layer>
		<layer id="433" name="Relu_270" type="ReLU" version="opset1">
			<input>
				<port id="0" precision="FP32">
					<dim>1</dim>
					<dim>72</dim>
					<dim>64</dim>
					<dim>128</dim>
				</port>
			</input>
			<output>
				<port id="1" precision="FP32" names="541">
					<dim>1</dim>
					<dim>72</dim>
					<dim>64</dim>
					<dim>128</dim>
				</port>
			</output>
		</layer>
		<layer id="434" name="1115" type="Const" version="opset1">
			<data element_type="f32" shape="24, 72, 1, 1" offset="17476" size="6912" />
			<output>
				<port id="0" precision="FP32" names="1115">
					<dim>24</dim>
					<dim>72</dim>
					<dim>1</dim>
					<dim>1</dim>
				</port>
			</output>
		</layer>
		<layer id="435" name="Conv_271/WithoutBiases" type="Convolution" version="opset1">
			<data strides="1, 1" dilations="1, 1" pads_begin="0, 0" pads_end="0, 0" auto_pad="explicit" />
			<input>
				<port id="0" precision="FP32">
					<dim>1</dim>
					<dim>72</dim>
					<dim>64</dim>
					<dim>128</dim>
				</port>
				<port id="1" precision="FP32">
					<dim>24</dim>
					<dim>72</dim>
					<dim>1</dim>
					<dim>1</dim>
				</port>
			</input>
			<output>
				<port id="2" precision="FP32">
					<dim>1</dim>
					<dim>24</dim>
					<dim>64</dim>
					<dim>128</dim>
				</port>
			</output>
		</layer>
		<layer id="436" name="1116" type="Const" version="opset1">
			<data element_type="f32" shape="24" offset="24388" size="96" />
			<output>
				<port id="0" precision="FP32" names="1116">
					<dim>24</dim>
				</port>
			</output>
		</layer>
		<layer id="437" name="Constant_6612" type="Const" version="opset1">
			<data element_type="i64" shape="1" offset="1744" size="8" />
			<output>
				<port id="0" precision="I64">
					<dim>1</dim>
				</port>
			</output>
		</layer>
		<layer id="438" name="ShapeOf_6627" type="ShapeOf" version="opset3">
			<data output_type="i64" />
			<input>
				<port id="0" precision="FP32">
					<dim>24</dim>
				</port>
			</input>
			<output>
				<port id="1" precision="I64">
					<dim>1</dim>
				</port>
			</output>
		</layer>
		<layer id="439" name="ShapeOf_6610" type="ShapeOf" version="opset3">
			<data output_type="i64" />
			<input>
				<port id="0" precision="FP32">
					<dim>1</dim>
					<dim>24</dim>
					<dim>64</dim>
					<dim>128</dim>
				</port>
			</input>
			<output>
				<port id="1" precision="I64">
					<dim>4</dim>
				</port>
			</output>
		</layer>
		<layer id="440" name="ShapeOf_6611" type="ShapeOf" version="opset3">
			<data output_type="i64" />
			<input>
				<port id="0" precision="I64">
					<dim>4</dim>
				</port>
			</input>
			<output>
				<port id="1" precision="I64">
					<dim>1</dim>
				</port>
			</output>
		</layer>
		<layer id="441" name="Constant_6613" type="Const" version="opset1">
			<data element_type="i64" shape="1" offset="1760" size="8" />
			<output>
				<port id="0" precision="I64">
					<dim>1</dim>
				</port>
			</output>
		</layer>
		<layer id="442" name="Subtract_6614" type="Subtract" version="opset1">
			<data auto_broadcast="numpy" />
			<input>
				<port id="0" precision="I64">
					<dim>1</dim>
				</port>
				<port id="1" precision="I64">
					<dim>1</dim>
				</port>
			</input>
			<output>
				<port id="2" precision="I64">
					<dim>1</dim>
				</port>
			</output>
		</layer>
		<layer id="443" name="Broadcast_6615" type="Broadcast" version="opset3">
			<data mode="numpy" />
			<input>
				<port id="0" precision="I64">
					<dim>1</dim>
				</port>
				<port id="1" precision="I64">
					<dim>1</dim>
				</port>
			</input>
			<output>
				<port id="2" precision="I64">
					<dim>2</dim>
				</port>
			</output>
		</layer>
		<layer id="444" name="Concat_6628" type="Concat" version="opset1">
			<data axis="0" />
			<input>
				<port id="0" precision="I64">
					<dim>1</dim>
				</port>
				<port id="1" precision="I64">
					<dim>1</dim>
				</port>
				<port id="2" precision="I64">
					<dim>2</dim>
				</port>
			</input>
			<output>
				<port id="3" precision="I64">
					<dim>4</dim>
				</port>
			</output>
		</layer>
		<layer id="445" name="Reshape_6629" type="Reshape" version="opset1">
			<data special_zero="false" />
			<input>
				<port id="0" precision="FP32">
					<dim>24</dim>
				</port>
				<port id="1" precision="I64">
					<dim>4</dim>
				</port>
			</input>
			<output>
				<port id="2" precision="FP32">
					<dim>1</dim>
					<dim>24</dim>
					<dim>1</dim>
					<dim>1</dim>
				</port>
			</output>
		</layer>
		<layer id="446" name="Conv_271" type="Add" version="opset1">
			<data auto_broadcast="numpy" />
			<input>
				<port id="0" precision="FP32">
					<dim>1</dim>
					<dim>24</dim>
					<dim>64</dim>
					<dim>128</dim>
				</port>
				<port id="1" precision="FP32">
					<dim>1</dim>
					<dim>24</dim>
					<dim>1</dim>
					<dim>1</dim>
				</port>
			</input>
			<output>
				<port id="2" precision="FP32" names="1114">
					<dim>1</dim>
					<dim>24</dim>
					<dim>64</dim>
					<dim>128</dim>
				</port>
			</output>
		</layer>
		<layer id="447" name="1118" type="Const" version="opset1">
			<data element_type="f32" shape="88, 24, 1, 1" offset="24484" size="8448" />
			<output>
				<port id="0" precision="FP32" names="1118">
					<dim>88</dim>
					<dim>24</dim>
					<dim>1</dim>
					<dim>1</dim>
				</port>
			</output>
		</layer>
		<layer id="448" name="Conv_272/WithoutBiases" type="Convolution" version="opset1">
			<data strides="1, 1" dilations="1, 1" pads_begin="0, 0" pads_end="0, 0" auto_pad="explicit" />
			<input>
				<port id="0" precision="FP32">
					<dim>1</dim>
					<dim>24</dim>
					<dim>64</dim>
					<dim>128</dim>
				</port>
				<port id="1" precision="FP32">
					<dim>88</dim>
					<dim>24</dim>
					<dim>1</dim>
					<dim>1</dim>
				</port>
			</input>
			<output>
				<port id="2" precision="FP32">
					<dim>1</dim>
					<dim>88</dim>
					<dim>64</dim>
					<dim>128</dim>
				</port>
			</output>
		</layer>
		<layer id="449" name="1119" type="Const" version="opset1">
			<data element_type="f32" shape="88" offset="32932" size="352" />
			<output>
				<port id="0" precision="FP32" names="1119">
					<dim>88</dim>
				</port>
			</output>
		</layer>
		<layer id="450" name="Constant_6660" type="Const" version="opset1">
			<data element_type="i64" shape="1" offset="1744" size="8" />
			<output>
				<port id="0" precision="I64">
					<dim>1</dim>
				</port>
			</output>
		</layer>
		<layer id="451" name="ShapeOf_6675" type="ShapeOf" version="opset3">
			<data output_type="i64" />
			<input>
				<port id="0" precision="FP32">
					<dim>88</dim>
				</port>
			</input>
			<output>
				<port id="1" precision="I64">
					<dim>1</dim>
				</port>
			</output>
		</layer>
		<layer id="452" name="ShapeOf_6658" type="ShapeOf" version="opset3">
			<data output_type="i64" />
			<input>
				<port id="0" precision="FP32">
					<dim>1</dim>
					<dim>88</dim>
					<dim>64</dim>
					<dim>128</dim>
				</port>
			</input>
			<output>
				<port id="1" precision="I64">
					<dim>4</dim>
				</port>
			</output>
		</layer>
		<layer id="453" name="ShapeOf_6659" type="ShapeOf" version="opset3">
			<data output_type="i64" />
			<input>
				<port id="0" precision="I64">
					<dim>4</dim>
				</port>
			</input>
			<output>
				<port id="1" precision="I64">
					<dim>1</dim>
				</port>
			</output>
		</layer>
		<layer id="454" name="Constant_6661" type="Const" version="opset1">
			<data element_type="i64" shape="1" offset="1760" size="8" />
			<output>
				<port id="0" precision="I64">
					<dim>1</dim>
				</port>
			</output>
		</layer>
		<layer id="455" name="Subtract_6662" type="Subtract" version="opset1">
			<data auto_broadcast="numpy" />
			<input>
				<port id="0" precision="I64">
					<dim>1</dim>
				</port>
				<port id="1" precision="I64">
					<dim>1</dim>
				</port>
			</input>
			<output>
				<port id="2" precision="I64">
					<dim>1</dim>
				</port>
			</output>
		</layer>
		<layer id="456" name="Broadcast_6663" type="Broadcast" version="opset3">
			<data mode="numpy" />
			<input>
				<port id="0" precision="I64">
					<dim>1</dim>
				</port>
				<port id="1" precision="I64">
					<dim>1</dim>
				</port>
			</input>
			<output>
				<port id="2" precision="I64">
					<dim>2</dim>
				</port>
			</output>
		</layer>
		<layer id="457" name="Concat_6676" type="Concat" version="opset1">
			<data axis="0" />
			<input>
				<port id="0" precision="I64">
					<dim>1</dim>
				</port>
				<port id="1" precision="I64">
					<dim>1</dim>
				</port>
				<port id="2" precision="I64">
					<dim>2</dim>
				</port>
			</input>
			<output>
				<port id="3" precision="I64">
					<dim>4</dim>
				</port>
			</output>
		</layer>
		<layer id="458" name="Reshape_6677" type="Reshape" version="opset1">
			<data special_zero="false" />
			<input>
				<port id="0" precision="FP32">
					<dim>88</dim>
				</port>
				<port id="1" precision="I64">
					<dim>4</dim>
				</port>
			</input>
			<output>
				<port id="2" precision="FP32">
					<dim>1</dim>
					<dim>88</dim>
					<dim>1</dim>
					<dim>1</dim>
				</port>
			</output>
		</layer>
		<layer id="459" name="Conv_272" type="Add" version="opset1">
			<data auto_broadcast="numpy" />
			<input>
				<port id="0" precision="FP32">
					<dim>1</dim>
					<dim>88</dim>
					<dim>64</dim>
					<dim>128</dim>
				</port>
				<port id="1" precision="FP32">
					<dim>1</dim>
					<dim>88</dim>
					<dim>1</dim>
					<dim>1</dim>
				</port>
			</input>
			<output>
				<port id="2" precision="FP32" names="1117">
					<dim>1</dim>
					<dim>88</dim>
					<dim>64</dim>
					<dim>128</dim>
				</port>
			</output>
		</layer>
		<layer id="460" name="Relu_273" type="ReLU" version="opset1">
			<input>
				<port id="0" precision="FP32">
					<dim>1</dim>
					<dim>88</dim>
					<dim>64</dim>
					<dim>128</dim>
				</port>
			</input>
			<output>
				<port id="1" precision="FP32" names="546">
					<dim>1</dim>
					<dim>88</dim>
					<dim>64</dim>
					<dim>128</dim>
				</port>
			</output>
		</layer>
		<layer id="461" name="1121" type="Const" version="opset1">
			<data element_type="f32" shape="88, 1, 3, 3" offset="33284" size="3168" />
			<output>
				<port id="0" precision="FP32" names="1121">
					<dim>88</dim>
					<dim>1</dim>
					<dim>3</dim>
					<dim>3</dim>
				</port>
			</output>
		</layer>
		<layer id="462" name="Constant_6708" type="Const" version="opset1">
			<data element_type="i64" shape="1" offset="36452" size="8" />
			<output>
				<port id="0" precision="I64">
					<dim>1</dim>
				</port>
			</output>
		</layer>
		<layer id="463" name="ShapeOf_6709" type="ShapeOf" version="opset3">
			<data output_type="i64" />
			<input>
				<port id="0" precision="FP32">
					<dim>88</dim>
					<dim>1</dim>
					<dim>3</dim>
					<dim>3</dim>
				</port>
			</input>
			<output>
				<port id="1" precision="I64">
					<dim>4</dim>
				</port>
			</output>
		</layer>
		<layer id="464" name="Constant_6706" type="Const" version="opset1">
			<data element_type="i64" shape="" offset="1736" size="8" />
			<output>
				<port id="0" precision="I64" />
			</output>
		</layer>
		<layer id="465" name="Constant_6707" type="Const" version="opset1">
			<data element_type="i64" shape="2" offset="4804" size="16" />
			<output>
				<port id="0" precision="I64">
					<dim>2</dim>
				</port>
			</output>
		</layer>
		<layer id="466" name="VariadicSplit_6710" type="VariadicSplit" version="opset1">
			<input>
				<port id="0" precision="I64">
					<dim>4</dim>
				</port>
				<port id="1" precision="I64" />
				<port id="2" precision="I64">
					<dim>2</dim>
				</port>
			</input>
			<output>
				<port id="3" precision="I64">
					<dim>1</dim>
				</port>
				<port id="4" precision="I64">
					<dim>3</dim>
				</port>
			</output>
		</layer>
		<layer id="467" name="Divide_6711" type="Divide" version="opset1">
			<data auto_broadcast="numpy" m_pythondiv="true" />
			<input>
				<port id="0" precision="I64">
					<dim>1</dim>
				</port>
				<port id="1" precision="I64">
					<dim>1</dim>
				</port>
			</input>
			<output>
				<port id="2" precision="I64">
					<dim>1</dim>
				</port>
			</output>
		</layer>
		<layer id="468" name="Concat_6712" type="Concat" version="opset1">
			<data axis="0" />
			<input>
				<port id="0" precision="I64">
					<dim>1</dim>
				</port>
				<port id="1" precision="I64">
					<dim>1</dim>
				</port>
				<port id="2" precision="I64">
					<dim>3</dim>
				</port>
			</input>
			<output>
				<port id="3" precision="I64">
					<dim>5</dim>
				</port>
			</output>
		</layer>
		<layer id="469" name="Reshape_6713" type="Reshape" version="opset1">
			<data special_zero="false" />
			<input>
				<port id="0" precision="FP32">
					<dim>88</dim>
					<dim>1</dim>
					<dim>3</dim>
					<dim>3</dim>
				</port>
				<port id="1" precision="I64">
					<dim>5</dim>
				</port>
			</input>
			<output>
				<port id="2" precision="FP32">
					<dim>88</dim>
					<dim>1</dim>
					<dim>1</dim>
					<dim>3</dim>
					<dim>3</dim>
				</port>
			</output>
		</layer>
		<layer id="470" name="Conv_274/WithoutBiases" type="GroupConvolution" version="opset1">
			<data strides="1, 1" pads_begin="1, 1" pads_end="1, 1" dilations="1, 1" auto_pad="explicit" />
			<input>
				<port id="0" precision="FP32">
					<dim>1</dim>
					<dim>88</dim>
					<dim>64</dim>
					<dim>128</dim>
				</port>
				<port id="1" precision="FP32">
					<dim>88</dim>
					<dim>1</dim>
					<dim>1</dim>
					<dim>3</dim>
					<dim>3</dim>
				</port>
			</input>
			<output>
				<port id="2" precision="FP32">
					<dim>1</dim>
					<dim>88</dim>
					<dim>64</dim>
					<dim>128</dim>
				</port>
			</output>
		</layer>
		<layer id="471" name="1122" type="Const" version="opset1">
			<data element_type="f32" shape="88" offset="36460" size="352" />
			<output>
				<port id="0" precision="FP32" names="1122">
					<dim>88</dim>
				</port>
			</output>
		</layer>
		<layer id="472" name="Constant_6782" type="Const" version="opset1">
			<data element_type="i64" shape="1" offset="1744" size="8" />
			<output>
				<port id="0" precision="I64">
					<dim>1</dim>
				</port>
			</output>
		</layer>
		<layer id="473" name="ShapeOf_6797" type="ShapeOf" version="opset3">
			<data output_type="i64" />
			<input>
				<port id="0" precision="FP32">
					<dim>88</dim>
				</port>
			</input>
			<output>
				<port id="1" precision="I64">
					<dim>1</dim>
				</port>
			</output>
		</layer>
		<layer id="474" name="ShapeOf_6780" type="ShapeOf" version="opset3">
			<data output_type="i64" />
			<input>
				<port id="0" precision="FP32">
					<dim>1</dim>
					<dim>88</dim>
					<dim>64</dim>
					<dim>128</dim>
				</port>
			</input>
			<output>
				<port id="1" precision="I64">
					<dim>4</dim>
				</port>
			</output>
		</layer>
		<layer id="475" name="ShapeOf_6781" type="ShapeOf" version="opset3">
			<data output_type="i64" />
			<input>
				<port id="0" precision="I64">
					<dim>4</dim>
				</port>
			</input>
			<output>
				<port id="1" precision="I64">
					<dim>1</dim>
				</port>
			</output>
		</layer>
		<layer id="476" name="Constant_6783" type="Const" version="opset1">
			<data element_type="i64" shape="1" offset="1760" size="8" />
			<output>
				<port id="0" precision="I64">
					<dim>1</dim>
				</port>
			</output>
		</layer>
		<layer id="477" name="Subtract_6784" type="Subtract" version="opset1">
			<data auto_broadcast="numpy" />
			<input>
				<port id="0" precision="I64">
					<dim>1</dim>
				</port>
				<port id="1" precision="I64">
					<dim>1</dim>
				</port>
			</input>
			<output>
				<port id="2" precision="I64">
					<dim>1</dim>
				</port>
			</output>
		</layer>
		<layer id="478" name="Broadcast_6785" type="Broadcast" version="opset3">
			<data mode="numpy" />
			<input>
				<port id="0" precision="I64">
					<dim>1</dim>
				</port>
				<port id="1" precision="I64">
					<dim>1</dim>
				</port>
			</input>
			<output>
				<port id="2" precision="I64">
					<dim>2</dim>
				</port>
			</output>
		</layer>
		<layer id="479" name="Concat_6798" type="Concat" version="opset1">
			<data axis="0" />
			<input>
				<port id="0" precision="I64">
					<dim>1</dim>
				</port>
				<port id="1" precision="I64">
					<dim>1</dim>
				</port>
				<port id="2" precision="I64">
					<dim>2</dim>
				</port>
			</input>
			<output>
				<port id="3" precision="I64">
					<dim>4</dim>
				</port>
			</output>
		</layer>
		<layer id="480" name="Reshape_6799" type="Reshape" version="opset1">
			<data special_zero="false" />
			<input>
				<port id="0" precision="FP32">
					<dim>88</dim>
				</port>
				<port id="1" precision="I64">
					<dim>4</dim>
				</port>
			</input>
			<output>
				<port id="2" precision="FP32">
					<dim>1</dim>
					<dim>88</dim>
					<dim>1</dim>
					<dim>1</dim>
				</port>
			</output>
		</layer>
		<layer id="481" name="Conv_274" type="Add" version="opset1">
			<data auto_broadcast="numpy" />
			<input>
				<port id="0" precision="FP32">
					<dim>1</dim>
					<dim>88</dim>
					<dim>64</dim>
					<dim>128</dim>
				</port>
				<port id="1" precision="FP32">
					<dim>1</dim>
					<dim>88</dim>
					<dim>1</dim>
					<dim>1</dim>
				</port>
			</input>
			<output>
				<port id="2" precision="FP32" names="1120">
					<dim>1</dim>
					<dim>88</dim>
					<dim>64</dim>
					<dim>128</dim>
				</port>
			</output>
		</layer>
		<layer id="482" name="Relu_275" type="ReLU" version="opset1">
			<input>
				<port id="0" precision="FP32">
					<dim>1</dim>
					<dim>88</dim>
					<dim>64</dim>
					<dim>128</dim>
				</port>
			</input>
			<output>
				<port id="1" precision="FP32" names="549">
					<dim>1</dim>
					<dim>88</dim>
					<dim>64</dim>
					<dim>128</dim>
				</port>
			</output>
		</layer>
		<layer id="483" name="1124" type="Const" version="opset1">
			<data element_type="f32" shape="24, 88, 1, 1" offset="36812" size="8448" />
			<output>
				<port id="0" precision="FP32" names="1124">
					<dim>24</dim>
					<dim>88</dim>
					<dim>1</dim>
					<dim>1</dim>
				</port>
			</output>
		</layer>
		<layer id="484" name="Conv_276/WithoutBiases" type="Convolution" version="opset1">
			<data strides="1, 1" dilations="1, 1" pads_begin="0, 0" pads_end="0, 0" auto_pad="explicit" />
			<input>
				<port id="0" precision="FP32">
					<dim>1</dim>
					<dim>88</dim>
					<dim>64</dim>
					<dim>128</dim>
				</port>
				<port id="1" precision="FP32">
					<dim>24</dim>
					<dim>88</dim>
					<dim>1</dim>
					<dim>1</dim>
				</port>
			</input>
			<output>
				<port id="2" precision="FP32">
					<dim>1</dim>
					<dim>24</dim>
					<dim>64</dim>
					<dim>128</dim>
				</port>
			</output>
		</layer>
		<layer id="485" name="1125" type="Const" version="opset1">
			<data element_type="f32" shape="24" offset="45260" size="96" />
			<output>
				<port id="0" precision="FP32" names="1125">
					<dim>24</dim>
				</port>
			</output>
		</layer>
		<layer id="486" name="Constant_6831" type="Const" version="opset1">
			<data element_type="i64" shape="1" offset="1744" size="8" />
			<output>
				<port id="0" precision="I64">
					<dim>1</dim>
				</port>
…
		<edge from-layer="1192" from-port="1" to-layer="1195" to-port="0" />
		<edge from-layer="1193" from-port="0" to-layer="1195" to-port="1" />
		<edge from-layer="1194" from-port="0" to-layer="1195" to-port="2" />
		<edge from-layer="1195" from-port="3" to-layer="1197" to-port="0" />
		<edge from-layer="1196" from-port="0" to-layer="1197" to-port="1" />
		<edge from-layer="1197" from-port="2" to-layer="1199" to-port="0" />
		<edge from-layer="1198" from-port="0" to-layer="1199" to-port="1" />
		<edge from-layer="1199" from-port="2" to-layer="1201" to-port="0" />
		<edge from-layer="1200" from-port="0" to-layer="1201" to-port="1" />
		<edge from-layer="1201" from-port="2" to-layer="1203" to-port="0" />
		<edge from-layer="1202" from-port="0" to-layer="1203" to-port="1" />
		<edge from-layer="1203" from-port="2" to-layer="1208" to-port="0" />
		<edge from-layer="1204" from-port="1" to-layer="1207" to-port="0" />
		<edge from-layer="1205" from-port="0" to-layer="1207" to-port="1" />
		<edge from-layer="1206" from-port="0" to-layer="1207" to-port="2" />
		<edge from-layer="1207" from-port="3" to-layer="1208" to-port="1" />
		<edge from-layer="1208" from-port="2" to-layer="1210" to-port="0" />
		<edge from-layer="1208" from-port="2" to-layer="1216" to-port="0" />
		<edge from-layer="1208" from-port="2" to-layer="1219" to-port="0" />
		<edge from-layer="1209" from-port="0" to-layer="1210" to-port="1" />
		<edge from-layer="1210" from-port="2" to-layer="1211" to-port="0" />
		<edge from-layer="1211" from-port="1" to-layer="1212" to-port="0" />
		<edge from-layer="1212" from-port="1" to-layer="1214" to-port="0" />
		<edge from-layer="1212" from-port="1" to-layer="1233" to-port="0" />
		<edge from-layer="1213" from-port="0" to-layer="1214" to-port="1" />
		<edge from-layer="1214" from-port="2" to-layer="1222" to-port="2" />
		<edge from-layer="1215" from-port="0" to-layer="1216" to-port="1" />
		<edge from-layer="1216" from-port="2" to-layer="1217" to-port="0" />
		<edge from-layer="1217" from-port="1" to-layer="1218" to-port="0" />
		<edge from-layer="1218" from-port="1" to-layer="1219" to-port="1" />
		<edge from-layer="1219" from-port="2" to-layer="1221" to-port="0" />
		<edge from-layer="1219" from-port="2" to-layer="1235" to-port="0" />
		<edge from-layer="1220" from-port="0" to-layer="1221" to-port="1" />
		<edge from-layer="1221" from-port="2" to-layer="1222" to-port="3" />
		<edge from-layer="1222" from-port="4" to-layer="1223" to-port="0" />
		<edge from-layer="1223" from-port="1" to-layer="1243" to-port="0" />
		<edge from-layer="1224" from-port="0" to-layer="1242" to-port="0" />
		<edge from-layer="1225" from-port="0" to-layer="1227" to-port="0" />
		<edge from-layer="1226" from-port="0" to-layer="1227" to-port="1" />
		<edge from-layer="1227" from-port="2" to-layer="1241" to-port="0" />
		<edge from-layer="1228" from-port="0" to-layer="1229" to-port="1" />
		<edge from-layer="1229" from-port="2" to-layer="1236" to-port="0" />
		<edge from-layer="1230" from-port="0" to-layer="1231" to-port="1" />
		<edge from-layer="1231" from-port="2" to-layer="1236" to-port="1" />
		<edge from-layer="1232" from-port="0" to-layer="1233" to-port="1" />
		<edge from-layer="1233" from-port="2" to-layer="1236" to-port="2" />
		<edge from-layer="1234" from-port="0" to-layer="1235" to-port="1" />
		<edge from-layer="1235" from-port="2" to-layer="1236" to-port="3" />
		<edge from-layer="1236" from-port="4" to-layer="1237" to-port="0" />
		<edge from-layer="1237" from-port="1" to-layer="1240" to-port="0" />
		<edge from-layer="1238" from-port="0" to-layer="1240" to-port="1" />
		<edge from-layer="1239" from-port="0" to-layer="1240" to-port="2" />
		<edge from-layer="1240" from-port="3" to-layer="1241" to-port="1" />
		<edge from-layer="1241" from-port="2" to-layer="1242" to-port="1" />
		<edge from-layer="1242" from-port="2" to-layer="1243" to-port="1" />
		<edge from-layer="1243" from-port="2" to-layer="1245" to-port="0" />
		<edge from-layer="1244" from-port="0" to-layer="1245" to-port="1" />
		<edge from-layer="1245" from-port="2" to-layer="1250" to-port="0" />
		<edge from-layer="1246" from-port="0" to-layer="1250" to-port="1" />
		<edge from-layer="1247" from-port="0" to-layer="1250" to-port="2" />
		<edge from-layer="1248" from-port="0" to-layer="1250" to-port="3" />
		<edge from-layer="1249" from-port="0" to-layer="1250" to-port="4" />
		<edge from-layer="1250" from-port="5" to-layer="1252" to-port="0" />
		<edge from-layer="1251" from-port="0" to-layer="1252" to-port="1" />
		<edge from-layer="1252" from-port="2" to-layer="1254" to-port="0" />
		<edge from-layer="1253" from-port="0" to-layer="1254" to-port="1" />
		<edge from-layer="1254" from-port="2" to-layer="1255" to-port="0" />
		<edge from-layer="1255" from-port="1" to-layer="1257" to-port="0" />
		<edge from-layer="1256" from-port="0" to-layer="1257" to-port="1" />
		<edge from-layer="1257" from-port="2" to-layer="1259" to-port="1" />
		<edge from-layer="1257" from-port="3" to-layer="1259" to-port="2" />
		<edge from-layer="1258" from-port="0" to-layer="1259" to-port="3" />
		<edge from-layer="1259" from-port="4" to-layer="1269" to-port="0" />
		<edge from-layer="1260" from-port="0" to-layer="1268" to-port="0" />
		<edge from-layer="1260" from-port="0" to-layer="1262" to-port="0" />
		<edge from-layer="1261" from-port="0" to-layer="1267" to-port="0" />
		<edge from-layer="1261" from-port="0" to-layer="1266" to-port="1" />
		<edge from-layer="1262" from-port="1" to-layer="1265" to-port="0" />
		<edge from-layer="1263" from-port="0" to-layer="1265" to-port="1" />
		<edge from-layer="1264" from-port="0" to-layer="1265" to-port="2" />
		<edge from-layer="1265" from-port="4" to-layer="1267" to-port="2" />
		<edge from-layer="1265" from-port="3" to-layer="1266" to-port="0" />
		<edge from-layer="1266" from-port="2" to-layer="1267" to-port="1" />
		<edge from-layer="1267" from-port="3" to-layer="1268" to-port="1" />
		<edge from-layer="1268" from-port="2" to-layer="1269" to-port="1" />
		<edge from-layer="1269" from-port="2" to-layer="1273" to-port="0" />
		<edge from-layer="1269" from-port="2" to-layer="1280" to-port="0" />
		<edge from-layer="1270" from-port="0" to-layer="1279" to-port="0" />
		<edge from-layer="1270" from-port="0" to-layer="1272" to-port="0" />
		<edge from-layer="1271" from-port="0" to-layer="1277" to-port="0" />
		<edge from-layer="1271" from-port="0" to-layer="1278" to-port="0" />
		<edge from-layer="1272" from-port="1" to-layer="1278" to-port="1" />
		<edge from-layer="1273" from-port="1" to-layer="1274" to-port="0" />
		<edge from-layer="1274" from-port="1" to-layer="1276" to-port="0" />
		<edge from-layer="1275" from-port="0" to-layer="1276" to-port="1" />
		<edge from-layer="1276" from-port="2" to-layer="1277" to-port="1" />
		<edge from-layer="1277" from-port="2" to-layer="1278" to-port="2" />
		<edge from-layer="1278" from-port="3" to-layer="1279" to-port="1" />
		<edge from-layer="1279" from-port="2" to-layer="1280" to-port="1" />
		<edge from-layer="1280" from-port="2" to-layer="1289" to-port="0" />
		<edge from-layer="1280" from-port="2" to-layer="1284" to-port="0" />
		<edge from-layer="1281" from-port="0" to-layer="1286" to-port="0" />
		<edge from-layer="1282" from-port="0" to-layer="1285" to-port="0" />
		<edge from-layer="1283" from-port="0" to-layer="1284" to-port="1" />
		<edge from-layer="1284" from-port="2" to-layer="1285" to-port="1" />
		<edge from-layer="1285" from-port="2" to-layer="1286" to-port="1" />
		<edge from-layer="1286" from-port="2" to-layer="1288" to-port="0" />
		<edge from-layer="1287" from-port="0" to-layer="1288" to-port="1" />
		<edge from-layer="1288" from-port="2" to-layer="1289" to-port="1" />
		<edge from-layer="1289" from-port="2" to-layer="1293" to-port="0" />
		<edge from-layer="1289" from-port="2" to-layer="1332" to-port="0" />
		<edge from-layer="1289" from-port="2" to-layer="1298" to-port="0" />
		<edge from-layer="1290" from-port="0" to-layer="1329" to-port="0" />
		<edge from-layer="1291" from-port="0" to-layer="1328" to-port="0" />
		<edge from-layer="1292" from-port="0" to-layer="1297" to-port="0" />
		<edge from-layer="1293" from-port="1" to-layer="1294" to-port="0" />
		<edge from-layer="1294" from-port="1" to-layer="1295" to-port="0" />
		<edge from-layer="1295" from-port="1" to-layer="1297" to-port="1" />
		<edge from-layer="1296" from-port="0" to-layer="1297" to-port="2" />
		<edge from-layer="1297" from-port="3" to-layer="1298" to-port="1" />
		<edge from-layer="1298" from-port="2" to-layer="1300" to-port="0" />
		<edge from-layer="1299" from-port="0" to-layer="1300" to-port="1" />
		<edge from-layer="1300" from-port="2" to-layer="1304" to-port="0" />
		<edge from-layer="1300" from-port="2" to-layer="1311" to-port="0" />
		<edge from-layer="1301" from-port="0" to-layer="1303" to-port="0" />
		<edge from-layer="1301" from-port="0" to-layer="1310" to-port="0" />
		<edge from-layer="1302" from-port="0" to-layer="1308" to-port="0" />
		<edge from-layer="1302" from-port="0" to-layer="1309" to-port="0" />
		<edge from-layer="1303" from-port="1" to-layer="1309" to-port="1" />
		<edge from-layer="1304" from-port="1" to-layer="1305" to-port="0" />
		<edge from-layer="1305" from-port="1" to-layer="1307" to-port="0" />
		<edge from-layer="1306" from-port="0" to-layer="1307" to-port="1" />
		<edge from-layer="1307" from-port="2" to-layer="1308" to-port="1" />
		<edge from-layer="1308" from-port="2" to-layer="1309" to-port="2" />
		<edge from-layer="1309" from-port="3" to-layer="1310" to-port="1" />
		<edge from-layer="1310" from-port="2" to-layer="1311" to-port="1" />
		<edge from-layer="1311" from-port="2" to-layer="1312" to-port="0" />
		<edge from-layer="1312" from-port="1" to-layer="1314" to-port="0" />
		<edge from-layer="1313" from-port="0" to-layer="1314" to-port="1" />
		<edge from-layer="1314" from-port="2" to-layer="1325" to-port="0" />
		<edge from-layer="1314" from-port="2" to-layer="1318" to-port="0" />
		<edge from-layer="1315" from-port="0" to-layer="1324" to-port="0" />
		<edge from-layer="1315" from-port="0" to-layer="1317" to-port="0" />
		<edge from-layer="1316" from-port="0" to-layer="1322" to-port="0" />
		<edge from-layer="1316" from-port="0" to-layer="1323" to-port="0" />
		<edge from-layer="1317" from-port="1" to-layer="1323" to-port="1" />
		<edge from-layer="1318" from-port="1" to-layer="1319" to-port="0" />
		<edge from-layer="1319" from-port="1" to-layer="1321" to-port="0" />
		<edge from-layer="1320" from-port="0" to-layer="1321" to-port="1" />
		<edge from-layer="1321" from-port="2" to-layer="1322" to-port="1" />
		<edge from-layer="1322" from-port="2" to-layer="1323" to-port="2" />
		<edge from-layer="1323" from-port="3" to-layer="1324" to-port="1" />
		<edge from-layer="1324" from-port="2" to-layer="1325" to-port="1" />
		<edge from-layer="1325" from-port="2" to-layer="1327" to-port="0" />
		<edge from-layer="1326" from-port="0" to-layer="1327" to-port="1" />
		<edge from-layer="1327" from-port="2" to-layer="1328" to-port="1" />
		<edge from-layer="1328" from-port="2" to-layer="1329" to-port="1" />
		<edge from-layer="1329" from-port="2" to-layer="1331" to-port="0" />
		<edge from-layer="1330" from-port="0" to-layer="1331" to-port="1" />
		<edge from-layer="1331" from-port="2" to-layer="1332" to-port="1" />
		<edge from-layer="1332" from-port="2" to-layer="1334" to-port="0" />
		<edge from-layer="1333" from-port="0" to-layer="1334" to-port="1" />
		<edge from-layer="1334" from-port="2" to-layer="1338" to-port="0" />
		<edge from-layer="1334" from-port="2" to-layer="1345" to-port="0" />
		<edge from-layer="1335" from-port="0" to-layer="1344" to-port="0" />
		<edge from-layer="1335" from-port="0" to-layer="1337" to-port="0" />
		<edge from-layer="1336" from-port="0" to-layer="1342" to-port="0" />
		<edge from-layer="1336" from-port="0" to-layer="1343" to-port="0" />
		<edge from-layer="1337" from-port="1" to-layer="1343" to-port="1" />
		<edge from-layer="1338" from-port="1" to-layer="1339" to-port="0" />
		<edge from-layer="1339" from-port="1" to-layer="1341" to-port="0" />
		<edge from-layer="1340" from-port="0" to-layer="1341" to-port="1" />
		<edge from-layer="1341" from-port="2" to-layer="1342" to-port="1" />
		<edge from-layer="1342" from-port="2" to-layer="1343" to-port="2" />
		<edge from-layer="1343" from-port="3" to-layer="1344" to-port="1" />
		<edge from-layer="1344" from-port="2" to-layer="1345" to-port="1" />
		<edge from-layer="1345" from-port="2" to-layer="1347" to-port="0" />
		<edge from-layer="1345" from-port="2" to-layer="1454" to-port="1" />
		<edge from-layer="1346" from-port="0" to-layer="1347" to-port="1" />
		<edge from-layer="1347" from-port="2" to-layer="1351" to-port="0" />
		<edge from-layer="1347" from-port="2" to-layer="1358" to-port="0" />
		<edge from-layer="1348" from-port="0" to-layer="1350" to-port="0" />
		<edge from-layer="1348" from-port="0" to-layer="1357" to-port="0" />
		<edge from-layer="1349" from-port="0" to-layer="1356" to-port="0" />
		<edge from-layer="1349" from-port="0" to-layer="1355" to-port="0" />
		<edge from-layer="1350" from-port="1" to-layer="1356" to-port="1" />
		<edge from-layer="1351" from-port="1" to-layer="1352" to-port="0" />
		<edge from-layer="1352" from-port="1" to-layer="1354" to-port="0" />
		<edge from-layer="1353" from-port="0" to-layer="1354" to-port="1" />
		<edge from-layer="1354" from-port="2" to-layer="1355" to-port="1" />
		<edge from-layer="1355" from-port="2" to-layer="1356" to-port="2" />
		<edge from-layer="1356" from-port="3" to-layer="1357" to-port="1" />
		<edge from-layer="1357" from-port="2" to-layer="1358" to-port="1" />
		<edge from-layer="1358" from-port="2" to-layer="1367" to-port="0" />
		<edge from-layer="1358" from-port="2" to-layer="1362" to-port="0" />
		<edge from-layer="1359" from-port="0" to-layer="1364" to-port="0" />
		<edge from-layer="1360" from-port="0" to-layer="1363" to-port="0" />
		<edge from-layer="1361" from-port="0" to-layer="1362" to-port="1" />
		<edge from-layer="1362" from-port="2" to-layer="1363" to-port="1" />
		<edge from-layer="1363" from-port="2" to-layer="1364" to-port="1" />
		<edge from-layer="1364" from-port="2" to-layer="1366" to-port="0" />
		<edge from-layer="1365" from-port="0" to-layer="1366" to-port="1" />
		<edge from-layer="1366" from-port="2" to-layer="1367" to-port="1" />
		<edge from-layer="1367" from-port="2" to-layer="1377" to-port="0" />
		<edge from-layer="1368" from-port="0" to-layer="1370" to-port="0" />
		<edge from-layer="1368" from-port="0" to-layer="1376" to-port="0" />
		<edge from-layer="1369" from-port="0" to-layer="1374" to-port="1" />
		<edge from-layer="1369" from-port="0" to-layer="1375" to-port="0" />
		<edge from-layer="1370" from-port="1" to-layer="1373" to-port="0" />
		<edge from-layer="1371" from-port="0" to-layer="1373" to-port="1" />
		<edge from-layer="1372" from-port="0" to-layer="1373" to-port="2" />
		<edge from-layer="1373" from-port="3" to-layer="1374" to-port="0" />
		<edge from-layer="1373" from-port="4" to-layer="1375" to-port="2" />
		<edge from-layer="1374" from-port="2" to-layer="1375" to-port="1" />
		<edge from-layer="1375" from-port="3" to-layer="1376" to-port="1" />
		<edge from-layer="1376" from-port="2" to-layer="1377" to-port="1" />
		<edge from-layer="1377" from-port="2" to-layer="1381" to-port="0" />
		<edge from-layer="1377" from-port="2" to-layer="1388" to-port="0" />
		<edge from-layer="1378" from-port="0" to-layer="1380" to-port="0" />
		<edge from-layer="1378" from-port="0" to-layer="1387" to-port="0" />
		<edge from-layer="1379" from-port="0" to-layer="1386" to-port="0" />
		<edge from-layer="1379" from-port="0" to-layer="1385" to-port="0" />
		<edge from-layer="1380" from-port="1" to-layer="1386" to-port="1" />
		<edge from-layer="1381" from-port="1" to-layer="1382" to-port="0" />
		<edge from-layer="1382" from-port="1" to-layer="1384" to-port="0" />
		<edge from-layer="1383" from-port="0" to-layer="1384" to-port="1" />
		<edge from-layer="1384" from-port="2" to-layer="1385" to-port="1" />
		<edge from-layer="1385" from-port="2" to-layer="1386" to-port="2" />
		<edge from-layer="1386" from-port="3" to-layer="1387" to-port="1" />
		<edge from-layer="1387" from-port="2" to-layer="1388" to-port="1" />
		<edge from-layer="1388" from-port="2" to-layer="1392" to-port="0" />
		<edge from-layer="1388" from-port="2" to-layer="1397" to-port="0" />
		<edge from-layer="1389" from-port="0" to-layer="1394" to-port="0" />
		<edge from-layer="1390" from-port="0" to-layer="1393" to-port="0" />
		<edge from-layer="1391" from-port="0" to-layer="1392" to-port="1" />
		<edge from-layer="1392" from-port="2" to-layer="1393" to-port="1" />
		<edge from-layer="1393" from-port="2" to-layer="1394" to-port="1" />
		<edge from-layer="1394" from-port="2" to-layer="1396" to-port="0" />
		<edge from-layer="1395" from-port="0" to-layer="1396" to-port="1" />
		<edge from-layer="1396" from-port="2" to-layer="1397" to-port="1" />
		<edge from-layer="1397" from-port="2" to-layer="1406" to-port="0" />
		<edge from-layer="1397" from-port="2" to-layer="1440" to-port="0" />
		<edge from-layer="1397" from-port="2" to-layer="1401" to-port="0" />
		<edge from-layer="1398" from-port="0" to-layer="1437" to-port="0" />
		<edge from-layer="1399" from-port="0" to-layer="1436" to-port="0" />
		<edge from-layer="1400" from-port="0" to-layer="1405" to-port="0" />
		<edge from-layer="1401" from-port="1" to-layer="1402" to-port="0" />
		<edge from-layer="1402" from-port="1" to-layer="1403" to-port="0" />
		<edge from-layer="1403" from-port="1" to-layer="1405" to-port="1" />
		<edge from-layer="1404" from-port="0" to-layer="1405" to-port="2" />
		<edge from-layer="1405" from-port="3" to-layer="1406" to-port="1" />
		<edge from-layer="1406" from-port="2" to-layer="1408" to-port="0" />
		<edge from-layer="1407" from-port="0" to-layer="1408" to-port="1" />
		<edge from-layer="1408" from-port="2" to-layer="1419" to-port="0" />
		<edge from-layer="1408" from-port="2" to-layer="1412" to-port="0" />
		<edge from-layer="1409" from-port="0" to-layer="1418" to-port="0" />
		<edge from-layer="1409" from-port="0" to-layer="1411" to-port="0" />
		<edge from-layer="1410" from-port="0" to-layer="1416" to-port="0" />
		<edge from-layer="1410" from-port="0" to-layer="1417" to-port="0" />
		<edge from-layer="1411" from-port="1" to-layer="1417" to-port="1" />
		<edge from-layer="1412" from-port="1" to-layer="1413" to-port="0" />
		<edge from-layer="1413" from-port="1" to-layer="1415" to-port="0" />
		<edge from-layer="1414" from-port="0" to-layer="1415" to-port="1" />
		<edge from-layer="1415" from-port="2" to-layer="1416" to-port="1" />
		<edge from-layer="1416" from-port="2" to-layer="1417" to-port="2" />
		<edge from-layer="1417" from-port="3" to-layer="1418" to-port="1" />
		<edge from-layer="1418" from-port="2" to-layer="1419" to-port="1" />
		<edge from-layer="1419" from-port="2" to-layer="1420" to-port="0" />
		<edge from-layer="1420" from-port="1" to-layer="1422" to-port="0" />
		<edge from-layer="1421" from-port="0" to-layer="1422" to-port="1" />
		<edge from-layer="1422" from-port="2" to-layer="1426" to-port="0" />
		<edge from-layer="1422" from-port="2" to-layer="1433" to-port="0" />
		<edge from-layer="1423" from-port="0" to-layer="1425" to-port="0" />
		<edge from-layer="1423" from-port="0" to-layer="1432" to-port="0" />
		<edge from-layer="1424" from-port="0" to-layer="1431" to-port="0" />
		<edge from-layer="1424" from-port="0" to-layer="1430" to-port="0" />
		<edge from-layer="1425" from-port="1" to-layer="1431" to-port="1" />
		<edge from-layer="1426" from-port="1" to-layer="1427" to-port="0" />
		<edge from-layer="1427" from-port="1" to-layer="1429" to-port="0" />
		<edge from-layer="1428" from-port="0" to-layer="1429" to-port="1" />
		<edge from-layer="1429" from-port="2" to-layer="1430" to-port="1" />
		<edge from-layer="1430" from-port="2" to-layer="1431" to-port="2" />
		<edge from-layer="1431" from-port="3" to-layer="1432" to-port="1" />
		<edge from-layer="1432" from-port="2" to-layer="1433" to-port="1" />
		<edge from-layer="1433" from-port="2" to-layer="1435" to-port="0" />
		<edge from-layer="1434" from-port="0" to-layer="1435" to-port="1" />
		<edge from-layer="1435" from-port="2" to-layer="1436" to-port="1" />
		<edge from-layer="1436" from-port="2" to-layer="1437" to-port="1" />
		<edge from-layer="1437" from-port="2" to-layer="1439" to-port="0" />
		<edge from-layer="1438" from-port="0" to-layer="1439" to-port="1" />
		<edge from-layer="1439" from-port="2" to-layer="1440" to-port="1" />
		<edge from-layer="1440" from-port="2" to-layer="1442" to-port="0" />
		<edge from-layer="1441" from-port="0" to-layer="1442" to-port="1" />
		<edge from-layer="1442" from-port="2" to-layer="1446" to-port="0" />
		<edge from-layer="1442" from-port="2" to-layer="1453" to-port="0" />
		<edge from-layer="1443" from-port="0" to-layer="1445" to-port="0" />
		<edge from-layer="1443" from-port="0" to-layer="1452" to-port="0" />
		<edge from-layer="1444" from-port="0" to-layer="1451" to-port="0" />
		<edge from-layer="1444" from-port="0" to-layer="1450" to-port="0" />
		<edge from-layer="1445" from-port="1" to-layer="1451" to-port="1" />
		<edge from-layer="1446" from-port="1" to-layer="1447" to-port="0" />
		<edge from-layer="1447" from-port="1" to-layer="1449" to-port="0" />
		<edge from-layer="1448" from-port="0" to-layer="1449" to-port="1" />
		<edge from-layer="1449" from-port="2" to-layer="1450" to-port="1" />
		<edge from-layer="1450" from-port="2" to-layer="1451" to-port="2" />
		<edge from-layer="1451" from-port="3" to-layer="1452" to-port="1" />
		<edge from-layer="1452" from-port="2" to-layer="1453" to-port="1" />
		<edge from-layer="1453" from-port="2" to-layer="1454" to-port="0" />
		<edge from-layer="1454" from-port="2" to-layer="1456" to-port="0" />
		<edge from-layer="1454" from-port="2" to-layer="1563" to-port="1" />
		<edge from-layer="1455" from-port="0" to-layer="1456" to-port="1" />
		<edge from-layer="1456" from-port="2" to-layer="1467" to-port="0" />
		<edge from-layer="1456" from-port="2" to-layer="1460" to-port="0" />
		<edge from-layer="1457" from-port="0" to-layer="1459" to-port="0" />
		<edge from-layer="1457" from-port="0" to-layer="1466" to-port="0" />
		<edge from-layer="1458" from-port="0" to-layer="1464" to-port="0" />
		<edge from-layer="1458" from-port="0" to-layer="1465" to-port="0" />
		<edge from-layer="1459" from-port="1" to-layer="1465" to-port="1" />
		<edge from-layer="1460" from-port="1" to-layer="1461" to-port="0" />
		<edge from-layer="1461" from-port="1" to-layer="1463" to-port="0" />
		<edge from-layer="1462" from-port="0" to-layer="1463" to-port="1" />
		<edge from-layer="1463" from-port="2" to-layer="1464" to-port="1" />
		<edge from-layer="1464" from-port="2" to-layer="1465" to-port="2" />
		<edge from-layer="1465" from-port="3" to-layer="1466" to-port="1" />
		<edge from-layer="1466" from-port="2" to-layer="1467" to-port="1" />
		<edge from-layer="1467" from-port="2" to-layer="1471" to-port="0" />
		<edge from-layer="1467" from-port="2" to-layer="1476" to-port="0" />
		<edge from-layer="1468" from-port="0" to-layer="1473" to-port="0" />
		<edge from-layer="1469" from-port="0" to-layer="1472" to-port="0" />
		<edge from-layer="1470" from-port="0" to-layer="1471" to-port="1" />
		<edge from-layer="1471" from-port="2" to-layer="1472" to-port="1" />
		<edge from-layer="1472" from-port="2" to-layer="1473" to-port="1" />
		<edge from-layer="1473" from-port="2" to-layer="1475" to-port="0" />
		<edge from-layer="1474" from-port="0" to-layer="1475" to-port="1" />
		<edge from-layer="1475" from-port="2" to-layer="1476" to-port="1" />
		<edge from-layer="1476" from-port="2" to-layer="1486" to-port="0" />
		<edge from-layer="1477" from-port="0" to-layer="1485" to-port="0" />
		<edge from-layer="1477" from-port="0" to-layer="1479" to-port="0" />
		<edge from-layer="1478" from-port="0" to-layer="1484" to-port="0" />
		<edge from-layer="1478" from-port="0" to-layer="1483" to-port="1" />
		<edge from-layer="1479" from-port="1" to-layer="1482" to-port="0" />
		<edge from-layer="1480" from-port="0" to-layer="1482" to-port="1" />
		<edge from-layer="1481" from-port="0" to-layer="1482" to-port="2" />
		<edge from-layer="1482" from-port="4" to-layer="1484" to-port="2" />
		<edge from-layer="1482" from-port="3" to-layer="1483" to-port="0" />
		<edge from-layer="1483" from-port="2" to-layer="1484" to-port="1" />
		<edge from-layer="1484" from-port="3" to-layer="1485" to-port="1" />
		<edge from-layer="1485" from-port="2" to-layer="1486" to-port="1" />
		<edge from-layer="1486" from-port="2" to-layer="1490" to-port="0" />
		<edge from-layer="1486" from-port="2" to-layer="1497" to-port="0" />
		<edge from-layer="1487" from-port="0" to-layer="1489" to-port="0" />
		<edge from-layer="1487" from-port="0" to-layer="1496" to-port="0" />
		<edge from-layer="1488" from-port="0" to-layer="1494" to-port="0" />
		<edge from-layer="1488" from-port="0" to-layer="1495" to-port="0" />
		<edge from-layer="1489" from-port="1" to-layer="1495" to-port="1" />
		<edge from-layer="1490" from-port="1" to-layer="1491" to-port="0" />
		<edge from-layer="1491" from-port="1" to-layer="1493" to-port="0" />
		<edge from-layer="1492" from-port="0" to-layer="1493" to-port="1" />
		<edge from-layer="1493" from-port="2" to-layer="1494" to-port="1" />
		<edge from-layer="1494" from-port="2" to-layer="1495" to-port="2" />
		<edge from-layer="1495" from-port="3" to-layer="1496" to-port="1" />
		<edge from-layer="1496" from-port="2" to-layer="1497" to-port="1" />
		<edge from-layer="1497" from-port="2" to-layer="1506" to-port="0" />
		<edge from-layer="1497" from-port="2" to-layer="1501" to-port="0" />
		<edge from-layer="1498" from-port="0" to-layer="1503" to-port="0" />
		<edge from-layer="1499" from-port="0" to-layer="1502" to-port="0" />
		<edge from-layer="1500" from-port="0" to-layer="1501" to-port="1" />
		<edge from-layer="1501" from-port="2" to-layer="1502" to-port="1" />
		<edge from-layer="1502" from-port="2" to-layer="1503" to-port="1" />
		<edge from-layer="1503" from-port="2" to-layer="1505" to-port="0" />
		<edge from-layer="1504" from-port="0" to-layer="1505" to-port="1" />
		<edge from-layer="1505" from-port="2" to-layer="1506" to-port="1" />
		<edge from-layer="1506" from-port="2" to-layer="1549" to-port="0" />
		<edge from-layer="1506" from-port="2" to-layer="1510" to-port="0" />
		<edge from-layer="1506" from-port="2" to-layer="1515" to-port="0" />
		<edge from-layer="1507" from-port="0" to-layer="1546" to-port="0" />
		<edge from-layer="1508" from-port="0" to-layer="1545" to-port="0" />
		<edge from-layer="1509" from-port="0" to-layer="1514" to-port="0" />
		<edge from-layer="1510" from-port="1" to-layer="1511" to-port="0" />
		<edge from-layer="1511" from-port="1" to-layer="1512" to-port="0" />
		<edge from-layer="1512" from-port="1" to-layer="1514" to-port="1" />
		<edge from-layer="1513" from-port="0" to-layer="1514" to-port="2" />
		<edge from-layer="1514" from-port="3" to-layer="1515" to-port="1" />
		<edge from-layer="1515" from-port="2" to-layer="1517" to-port="0" />
		<edge from-layer="1516" from-port="0" to-layer="1517" to-port="1" />
		<edge from-layer="1517" from-port="2" to-layer="1528" to-port="0" />
		<edge from-layer="1517" from-port="2" to-layer="1521" to-port="0" />
		<edge from-layer="1518" from-port="0" to-layer="1527" to-port="0" />
		<edge from-layer="1518" from-port="0" to-layer="1520" to-port="0" />
		<edge from-layer="1519" from-port="0" to-layer="1525" to-port="0" />
		<edge from-layer="1519" from-port="0" to-layer="1526" to-port="0" />
		<edge from-layer="1520" from-port="1" to-layer="1526" to-port="1" />
		<edge from-layer="1521" from-port="1" to-layer="1522" to-port="0" />
		<edge from-layer="1522" from-port="1" to-layer="1524" to-port="0" />
		<edge from-layer="1523" from-port="0" to-layer="1524" to-port="1" />
		<edge from-layer="1524" from-port="2" to-layer="1525" to-port="1" />
		<edge from-layer="1525" from-port="2" to-layer="1526" to-port="2" />
		<edge from-layer="1526" from-port="3" to-layer="1527" to-port="1" />
		<edge from-layer="1527" from-port="2" to-layer="1528" to-port="1" />
		<edge from-layer="1528" from-port="2" to-layer="1529" to-port="0" />
		<edge from-layer="1529" from-port="1" to-layer="1531" to-port="0" />
		<edge from-layer="1530" from-port="0" to-layer="1531" to-port="1" />
		<edge from-layer="1531" from-port="2" to-layer="1542" to-port="0" />
		<edge from-layer="1531" from-port="2" to-layer="1535" to-port="0" />
		<edge from-layer="1532" from-port="0" to-layer="1541" to-port="0" />
		<edge from-layer="1532" from-port="0" to-layer="1534" to-port="0" />
		<edge from-layer="1533" from-port="0" to-layer="1539" to-port="0" />
		<edge from-layer="1533" from-port="0" to-layer="1540" to-port="0" />
		<edge from-layer="1534" from-port="1" to-layer="1540" to-port="1" />
		<edge from-layer="1535" from-port="1" to-layer="1536" to-port="0" />
		<edge from-layer="1536" from-port="1" to-layer="1538" to-port="0" />
		<edge from-layer="1537" from-port="0" to-layer="1538" to-port="1" />
		<edge from-layer="1538" from-port="2" to-layer="1539" to-port="1" />
		<edge from-layer="1539" from-port="2" to-layer="1540" to-port="2" />
		<edge from-layer="1540" from-port="3" to-layer="1541" to-port="1" />
		<edge from-layer="1541" from-port="2" to-layer="1542" to-port="1" />
		<edge from-layer="1542" from-port="2" to-layer="1544" to-port="0" />
		<edge from-layer="1543" from-port="0" to-layer="1544" to-port="1" />
		<edge from-layer="1544" from-port="2" to-layer="1545" to-port="1" />
		<edge from-layer="1545" from-port="2" to-layer="1546" to-port="1" />
		<edge from-layer="1546" from-port="2" to-layer="1548" to-port="0" />
		<edge from-layer="1547" from-port="0" to-layer="1548" to-port="1" />
		<edge from-layer="1548" from-port="2" to-layer="1549" to-port="1" />
		<edge from-layer="1549" from-port="2" to-layer="1551" to-port="0" />
		<edge from-layer="1550" from-port="0" to-layer="1551" to-port="1" />
		<edge from-layer="1551" from-port="2" to-layer="1555" to-port="0" />
		<edge from-layer="1551" from-port="2" to-layer="1562" to-port="0" />
		<edge from-layer="1552" from-port="0" to-layer="1554" to-port="0" />
		<edge from-layer="1552" from-port="0" to-layer="1561" to-port="0" />
		<edge from-layer="1553" from-port="0" to-layer="1560" to-port="0" />
		<edge from-layer="1553" from-port="0" to-layer="1559" to-port="0" />
		<edge from-layer="1554" from-port="1" to-layer="1560" to-port="1" />
		<edge from-layer="1555" from-port="1" to-layer="1556" to-port="0" />
		<edge from-layer="1556" from-port="1" to-layer="1558" to-port="0" />
		<edge from-layer="1557" from-port="0" to-layer="1558" to-port="1" />
		<edge from-layer="1558" from-port="2" to-layer="1559" to-port="1" />
		<edge from-layer="1559" from-port="2" to-layer="1560" to-port="2" />
		<edge from-layer="1560" from-port="3" to-layer="1561" to-port="1" />
		<edge from-layer="1561" from-port="2" to-layer="1562" to-port="1" />
		<edge from-layer="1562" from-port="2" to-layer="1563" to-port="0" />
		<edge from-layer="1563" from-port="2" to-layer="1565" to-port="0" />
		<edge from-layer="1564" from-port="0" to-layer="1565" to-port="1" />
		<edge from-layer="1565" from-port="2" to-layer="1569" to-port="0" />
		<edge from-layer="1565" from-port="2" to-layer="1576" to-port="0" />
		<edge from-layer="1566" from-port="0" to-layer="1575" to-port="0" />
		<edge from-layer="1566" from-port="0" to-layer="1568" to-port="0" />
		<edge from-layer="1567" from-port="0" to-layer="1574" to-port="0" />
		<edge from-layer="1567" from-port="0" to-layer="1573" to-port="0" />
		<edge from-layer="1568" from-port="1" to-layer="1574" to-port="1" />
		<edge from-layer="1569" from-port="1" to-layer="1570" to-port="0" />
		<edge from-layer="1570" from-port="1" to-layer="1572" to-port="0" />
		<edge from-layer="1571" from-port="0" to-layer="1572" to-port="1" />
		<edge from-layer="1572" from-port="2" to-layer="1573" to-port="1" />
		<edge from-layer="1573" from-port="2" to-layer="1574" to-port="2" />
		<edge from-layer="1574" from-port="3" to-layer="1575" to-port="1" />
		<edge from-layer="1575" from-port="2" to-layer="1576" to-port="1" />
		<edge from-layer="1576" from-port="2" to-layer="1585" to-port="0" />
		<edge from-layer="1576" from-port="2" to-layer="1580" to-port="0" />
		<edge from-layer="1577" from-port="0" to-layer="1582" to-port="0" />
		<edge from-layer="1578" from-port="0" to-layer="1581" to-port="0" />
		<edge from-layer="1579" from-port="0" to-layer="1580" to-port="1" />
		<edge from-layer="1580" from-port="2" to-layer="1581" to-port="1" />
		<edge from-layer="1581" from-port="2" to-layer="1582" to-port="1" />
		<edge from-layer="1582" from-port="2" to-layer="1584" to-port="0" />
		<edge from-layer="1583" from-port="0" to-layer="1584" to-port="1" />
		<edge from-layer="1584" from-port="2" to-layer="1585" to-port="1" />
		<edge from-layer="1585" from-port="2" to-layer="1587" to-port="0" />
		<edge from-layer="1585" from-port="2" to-layer="1616" to-port="0" />
		<edge from-layer="1585" from-port="2" to-layer="1622" to-port="0" />
		<edge from-layer="1585" from-port="2" to-layer="1603" to-port="0" />
		<edge from-layer="1586" from-port="0" to-layer="1587" to-port="1" />
		<edge from-layer="1587" from-port="2" to-layer="1591" to-port="0" />
		<edge from-layer="1587" from-port="2" to-layer="1598" to-port="0" />
		<edge from-layer="1588" from-port="0" to-layer="1590" to-port="0" />
		<edge from-layer="1588" from-port="0" to-layer="1597" to-port="0" />
		<edge from-layer="1589" from-port="0" to-layer="1595" to-port="0" />
		<edge from-layer="1589" from-port="0" to-layer="1596" to-port="0" />
		<edge from-layer="1590" from-port="1" to-layer="1596" to-port="1" />
		<edge from-layer="1591" from-port="1" to-layer="1592" to-port="0" />
		<edge from-layer="1592" from-port="1" to-layer="1594" to-port="0" />
		<edge from-layer="1593" from-port="0" to-layer="1594" to-port="1" />
		<edge from-layer="1594" from-port="2" to-layer="1595" to-port="1" />
		<edge from-layer="1595" from-port="2" to-layer="1596" to-port="2" />
		<edge from-layer="1596" from-port="3" to-layer="1597" to-port="1" />
		<edge from-layer="1597" from-port="2" to-layer="1598" to-port="1" />
		<edge from-layer="1598" from-port="2" to-layer="1599" to-port="0" />
		<edge from-layer="1599" from-port="1" to-layer="1638" to-port="0" />
		<edge from-layer="1600" from-port="0" to-layer="1603" to-port="1" />
		<edge from-layer="1601" from-port="0" to-layer="1603" to-port="2" />
		<edge from-layer="1602" from-port="0" to-layer="1603" to-port="3" />
		<edge from-layer="1603" from-port="4" to-layer="1604" to-port="0" />
		<edge from-layer="1604" from-port="1" to-layer="1606" to-port="0" />
		<edge from-layer="1605" from-port="0" to-layer="1606" to-port="1" />
		<edge from-layer="1606" from-port="2" to-layer="1607" to-port="0" />
		<edge from-layer="1607" from-port="1" to-layer="1637" to-port="0" />
		<edge from-layer="1607" from-port="1" to-layer="1608" to-port="0" />
		<edge from-layer="1607" from-port="1" to-layer="1632" to-port="0" />
		<edge from-layer="1608" from-port="1" to-layer="1615" to-port="0" />
		<edge from-layer="1609" from-port="0" to-layer="1615" to-port="1" />
		<edge from-layer="1609" from-port="0" to-layer="1612" to-port="0" />
		<edge from-layer="1610" from-port="0" to-layer="1615" to-port="2" />
		<edge from-layer="1611" from-port="0" to-layer="1613" to-port="0" />
		<edge from-layer="1612" from-port="1" to-layer="1613" to-port="1" />
		<edge from-layer="1613" from-port="2" to-layer="1615" to-port="3" />
		<edge from-layer="1614" from-port="0" to-layer="1615" to-port="4" />
		<edge from-layer="1615" from-port="5" to-layer="1630" to-port="0" />
		<edge from-layer="1616" from-port="1" to-layer="1619" to-port="0" />
		<edge from-layer="1617" from-port="0" to-layer="1619" to-port="1" />
		<edge from-layer="1618" from-port="0" to-layer="1619" to-port="2" />
		<edge from-layer="1619" from-port="3" to-layer="1621" to-port="0" />
		<edge from-layer="1620" from-port="0" to-layer="1621" to-port="1" />
		<edge from-layer="1621" from-port="2" to-layer="1628" to-port="0" />
		<edge from-layer="1622" from-port="1" to-layer="1625" to-port="0" />
		<edge from-layer="1623" from-port="0" to-layer="1625" to-port="1" />
		<edge from-layer="1624" from-port="0" to-layer="1625" to-port="2" />
		<edge from-layer="1625" from-port="3" to-layer="1627" to-port="0" />
		<edge from-layer="1626" from-port="0" to-layer="1627" to-port="1" />
		<edge from-layer="1627" from-port="2" to-layer="1628" to-port="1" />
		<edge from-layer="1628" from-port="2" to-layer="1629" to-port="0" />
		<edge from-layer="1629" from-port="1" to-layer="1630" to-port="1" />
		<edge from-layer="1630" from-port="2" to-layer="1637" to-port="1" />
		<edge from-layer="1630" from-port="2" to-layer="1631" to-port="0" />
		<edge from-layer="1631" from-port="1" to-layer="1634" to-port="0" />
		<edge from-layer="1632" from-port="1" to-layer="1633" to-port="0" />
		<edge from-layer="1633" from-port="1" to-layer="1634" to-port="1" />
		<edge from-layer="1634" from-port="2" to-layer="1636" to-port="0" />
		<edge from-layer="1635" from-port="0" to-layer="1636" to-port="1" />
		<edge from-layer="1636" from-port="2" to-layer="1637" to-port="2" />
		<edge from-layer="1637" from-port="3" to-layer="1638" to-port="1" />
		<edge from-layer="1638" from-port="2" to-layer="1640" to-port="0" />
		<edge from-layer="1639" from-port="0" to-layer="1640" to-port="1" />
		<edge from-layer="1640" from-port="2" to-layer="1651" to-port="0" />
		<edge from-layer="1640" from-port="2" to-layer="1644" to-port="0" />
		<edge from-layer="1641" from-port="0" to-layer="1643" to-port="0" />
		<edge from-layer="1641" from-port="0" to-layer="1650" to-port="0" />
		<edge from-layer="1642" from-port="0" to-layer="1649" to-port="0" />
		<edge from-layer="1642" from-port="0" to-layer="1648" to-port="0" />
		<edge from-layer="1643" from-port="1" to-layer="1649" to-port="1" />
		<edge from-layer="1644" from-port="1" to-layer="1645" to-port="0" />
		<edge from-layer="1645" from-port="1" to-layer="1647" to-port="0" />
		<edge from-layer="1646" from-port="0" to-layer="1647" to-port="1" />
		<edge from-layer="1647" from-port="2" to-layer="1648" to-port="1" />
		<edge from-layer="1648" from-port="2" to-layer="1649" to-port="2" />
		<edge from-layer="1649" from-port="3" to-layer="1650" to-port="1" />
		<edge from-layer="1650" from-port="2" to-layer="1651" to-port="1" />
		<edge from-layer="1651" from-port="2" to-layer="1652" to-port="0" />
		<edge from-layer="1651" from-port="2" to-layer="1676" to-port="0" />
		<edge from-layer="1651" from-port="2" to-layer="1681" to-port="0" />
		<edge from-layer="1652" from-port="1" to-layer="1659" to-port="0" />
		<edge from-layer="1653" from-port="0" to-layer="1656" to-port="0" />
		<edge from-layer="1653" from-port="0" to-layer="1659" to-port="1" />
		<edge from-layer="1654" from-port="0" to-layer="1659" to-port="2" />
		<edge from-layer="1655" from-port="0" to-layer="1657" to-port="0" />
		<edge from-layer="1656" from-port="1" to-layer="1657" to-port="1" />
		<edge from-layer="1657" from-port="2" to-layer="1659" to-port="3" />
		<edge from-layer="1658" from-port="0" to-layer="1659" to-port="4" />
		<edge from-layer="1659" from-port="5" to-layer="1674" to-port="0" />
		<edge from-layer="1660" from-port="1" to-layer="1663" to-port="0" />
		<edge from-layer="1661" from-port="0" to-layer="1663" to-port="1" />
		<edge from-layer="1662" from-port="0" to-layer="1663" to-port="2" />
		<edge from-layer="1663" from-port="3" to-layer="1665" to-port="0" />
		<edge from-layer="1664" from-port="0" to-layer="1665" to-port="1" />
		<edge from-layer="1665" from-port="2" to-layer="1672" to-port="0" />
		<edge from-layer="1666" from-port="1" to-layer="1669" to-port="0" />
		<edge from-layer="1667" from-port="0" to-layer="1669" to-port="1" />
		<edge from-layer="1668" from-port="0" to-layer="1669" to-port="2" />
		<edge from-layer="1669" from-port="3" to-layer="1671" to-port="0" />
		<edge from-layer="1670" from-port="0" to-layer="1671" to-port="1" />
		<edge from-layer="1671" from-port="2" to-layer="1672" to-port="1" />
		<edge from-layer="1672" from-port="2" to-layer="1673" to-port="0" />
		<edge from-layer="1673" from-port="1" to-layer="1674" to-port="1" />
		<edge from-layer="1674" from-port="2" to-layer="1681" to-port="1" />
		<edge from-layer="1674" from-port="2" to-layer="1675" to-port="0" />
		<edge from-layer="1675" from-port="1" to-layer="1678" to-port="0" />
		<edge from-layer="1676" from-port="1" to-layer="1677" to-port="0" />
		<edge from-layer="1677" from-port="1" to-layer="1678" to-port="1" />
		<edge from-layer="1678" from-port="2" to-layer="1680" to-port="0" />
		<edge from-layer="1679" from-port="0" to-layer="1680" to-port="1" />
		<edge from-layer="1680" from-port="2" to-layer="1681" to-port="2" />
		<edge from-layer="1681" from-port="3" to-layer="1684" to-port="0" />
		<edge from-layer="1682" from-port="0" to-layer="1683" to-port="1" />
		<edge from-layer="1683" from-port="2" to-layer="1684" to-port="1" />
		<edge from-layer="1684" from-port="2" to-layer="1686" to-port="0" />
		<edge from-layer="1685" from-port="0" to-layer="1686" to-port="1" />
		<edge from-layer="1686" from-port="2" to-layer="1690" to-port="0" />
		<edge from-layer="1686" from-port="2" to-layer="1697" to-port="0" />
		<edge from-layer="1687" from-port="0" to-layer="1689" to-port="0" />
		<edge from-layer="1687" from-port="0" to-layer="1696" to-port="0" />
		<edge from-layer="1688" from-port="0" to-layer="1695" to-port="0" />
		<edge from-layer="1688" from-port="0" to-layer="1694" to-port="0" />
		<edge from-layer="1689" from-port="1" to-layer="1695" to-port="1" />
		<edge from-layer="1690" from-port="1" to-layer="1691" to-port="0" />
		<edge from-layer="1691" from-port="1" to-layer="1693" to-port="0" />
		<edge from-layer="1692" from-port="0" to-layer="1693" to-port="1" />
		<edge from-layer="1693" from-port="2" to-layer="1694" to-port="1" />
		<edge from-layer="1694" from-port="2" to-layer="1695" to-port="2" />
		<edge from-layer="1695" from-port="3" to-layer="1696" to-port="1" />
		<edge from-layer="1696" from-port="2" to-layer="1697" to-port="1" />
		<edge from-layer="1697" from-port="2" to-layer="1698" to-port="0" />
		<edge from-layer="1698" from-port="1" to-layer="1699" to-port="0" />
		<edge from-layer="1698" from-port="1" to-layer="1723" to-port="0" />
		<edge from-layer="1698" from-port="1" to-layer="1728" to-port="0" />
		<edge from-layer="1699" from-port="1" to-layer="1706" to-port="0" />
		<edge from-layer="1700" from-port="0" to-layer="1703" to-port="0" />
		<edge from-layer="1700" from-port="0" to-layer="1706" to-port="1" />
		<edge from-layer="1701" from-port="0" to-layer="1706" to-port="2" />
		<edge from-layer="1702" from-port="0" to-layer="1704" to-port="0" />
		<edge from-layer="1703" from-port="1" to-layer="1704" to-port="1" />
		<edge from-layer="1704" from-port="2" to-layer="1706" to-port="3" />
		<edge from-layer="1705" from-port="0" to-layer="1706" to-port="4" />
		<edge from-layer="1706" from-port="5" to-layer="1721" to-port="0" />
		<edge from-layer="1707" from-port="1" to-layer="1710" to-port="0" />
		<edge from-layer="1708" from-port="0" to-layer="1710" to-port="1" />
		<edge from-layer="1709" from-port="0" to-layer="1710" to-port="2" />
		<edge from-layer="1710" from-port="3" to-layer="1712" to-port="0" />
		<edge from-layer="1711" from-port="0" to-layer="1712" to-port="1" />
		<edge from-layer="1712" from-port="2" to-layer="1719" to-port="0" />
		<edge from-layer="1713" from-port="1" to-layer="1716" to-port="0" />
		<edge from-layer="1714" from-port="0" to-layer="1716" to-port="1" />
		<edge from-layer="1715" from-port="0" to-layer="1716" to-port="2" />
		<edge from-layer="1716" from-port="3" to-layer="1718" to-port="0" />
		<edge from-layer="1717" from-port="0" to-layer="1718" to-port="1" />
		<edge from-layer="1718" from-port="2" to-layer="1719" to-port="1" />
		<edge from-layer="1719" from-port="2" to-layer="1720" to-port="0" />
		<edge from-layer="1720" from-port="1" to-layer="1721" to-port="1" />
		<edge from-layer="1721" from-port="2" to-layer="1722" to-port="0" />
		<edge from-layer="1721" from-port="2" to-layer="1728" to-port="1" />
		<edge from-layer="1722" from-port="1" to-layer="1725" to-port="0" />
		<edge from-layer="1723" from-port="1" to-layer="1724" to-port="0" />
		<edge from-layer="1724" from-port="1" to-layer="1725" to-port="1" />
		<edge from-layer="1725" from-port="2" to-layer="1727" to-port="0" />
		<edge from-layer="1726" from-port="0" to-layer="1727" to-port="1" />
		<edge from-layer="1727" from-port="2" to-layer="1728" to-port="2" />
		<edge from-layer="1728" from-port="3" to-layer="1731" to-port="0" />
		<edge from-layer="1729" from-port="0" to-layer="1730" to-port="1" />
		<edge from-layer="1730" from-port="2" to-layer="1731" to-port="1" />
		<edge from-layer="1731" from-port="2" to-layer="1733" to-port="0" />
		<edge from-layer="1732" from-port="0" to-layer="1733" to-port="1" />
		<edge from-layer="1733" from-port="2" to-layer="1737" to-port="0" />
		<edge from-layer="1733" from-port="2" to-layer="1744" to-port="0" />
		<edge from-layer="1734" from-port="0" to-layer="1736" to-port="0" />
		<edge from-layer="1734" from-port="0" to-layer="1743" to-port="0" />
		<edge from-layer="1735" from-port="0" to-layer="1742" to-port="0" />
		<edge from-layer="1735" from-port="0" to-layer="1741" to-port="0" />
		<edge from-layer="1736" from-port="1" to-layer="1742" to-port="1" />
		<edge from-layer="1737" from-port="1" to-layer="1738" to-port="0" />
		<edge from-layer="1738" from-port="1" to-layer="1740" to-port="0" />
		<edge from-layer="1739" from-port="0" to-layer="1740" to-port="1" />
		<edge from-layer="1740" from-port="2" to-layer="1741" to-port="1" />
		<edge from-layer="1741" from-port="2" to-layer="1742" to-port="2" />
		<edge from-layer="1742" from-port="3" to-layer="1743" to-port="1" />
		<edge from-layer="1743" from-port="2" to-layer="1744" to-port="1" />
		<edge from-layer="1744" from-port="2" to-layer="1745" to-port="0" />
		<edge from-layer="1745" from-port="1" to-layer="1747" to-port="0" />
		<edge from-layer="1746" from-port="0" to-layer="1747" to-port="1" />
		<edge from-layer="1747" from-port="2" to-layer="1751" to-port="0" />
		<edge from-layer="1747" from-port="2" to-layer="1758" to-port="0" />
		<edge from-layer="1748" from-port="0" to-layer="1750" to-port="0" />
		<edge from-layer="1748" from-port="0" to-layer="1757" to-port="0" />
		<edge from-layer="1749" from-port="0" to-layer="1755" to-port="0" />
		<edge from-layer="1749" from-port="0" to-layer="1756" to-port="0" />
		<edge from-layer="1750" from-port="1" to-layer="1756" to-port="1" />
		<edge from-layer="1751" from-port="1" to-layer="1752" to-port="0" />
		<edge from-layer="1752" from-port="1" to-layer="1754" to-port="0" />
		<edge from-layer="1753" from-port="0" to-layer="1754" to-port="1" />
		<edge from-layer="1754" from-port="2" to-layer="1755" to-port="1" />
		<edge from-layer="1755" from-port="2" to-layer="1756" to-port="2" />
		<edge from-layer="1756" from-port="3" to-layer="1757" to-port="1" />
		<edge from-layer="1757" from-port="2" to-layer="1758" to-port="1" />
		<edge from-layer="1758" from-port="2" to-layer="1759" to-port="0" />
		<edge from-layer="1758" from-port="2" to-layer="1783" to-port="0" />
		<edge from-layer="1758" from-port="2" to-layer="1788" to-port="0" />
		<edge from-layer="1759" from-port="1" to-layer="1766" to-port="0" />
		<edge from-layer="1760" from-port="0" to-layer="1763" to-port="0" />
		<edge from-layer="1760" from-port="0" to-layer="1766" to-port="1" />
		<edge from-layer="1761" from-port="0" to-layer="1766" to-port="2" />
		<edge from-layer="1762" from-port="0" to-layer="1764" to-port="0" />
		<edge from-layer="1763" from-port="1" to-layer="1764" to-port="1" />
		<edge from-layer="1764" from-port="2" to-layer="1766" to-port="3" />
		<edge from-layer="1765" from-port="0" to-layer="1766" to-port="4" />
		<edge from-layer="1766" from-port="5" to-layer="1781" to-port="0" />
		<edge from-layer="1767" from-port="1" to-layer="1770" to-port="0" />
		<edge from-layer="1768" from-port="0" to-layer="1770" to-port="1" />
		<edge from-layer="1769" from-port="0" to-layer="1770" to-port="2" />
		<edge from-layer="1770" from-port="3" to-layer="1772" to-port="0" />
		<edge from-layer="1771" from-port="0" to-layer="1772" to-port="1" />
		<edge from-layer="1772" from-port="2" to-layer="1779" to-port="0" />
		<edge from-layer="1773" from-port="1" to-layer="1776" to-port="0" />
		<edge from-layer="1774" from-port="0" to-layer="1776" to-port="1" />
		<edge from-layer="1775" from-port="0" to-layer="1776" to-port="2" />
		<edge from-layer="1776" from-port="3" to-layer="1778" to-port="0" />
		<edge from-layer="1777" from-port="0" to-layer="1778" to-port="1" />
		<edge from-layer="1778" from-port="2" to-layer="1779" to-port="1" />
		<edge from-layer="1779" from-port="2" to-layer="1780" to-port="0" />
		<edge from-layer="1780" from-port="1" to-layer="1781" to-port="1" />
		<edge from-layer="1781" from-port="2" to-layer="1782" to-port="0" />
		<edge from-layer="1781" from-port="2" to-layer="1788" to-port="1" />
		<edge from-layer="1782" from-port="1" to-layer="1785" to-port="0" />
		<edge from-layer="1783" from-port="1" to-layer="1784" to-port="0" />
		<edge from-layer="1784" from-port="1" to-layer="1785" to-port="1" />
		<edge from-layer="1785" from-port="2" to-layer="1787" to-port="0" />
		<edge from-layer="1786" from-port="0" to-layer="1787" to-port="1" />
		<edge from-layer="1787" from-port="2" to-layer="1788" to-port="2" />
		<edge from-layer="1788" from-port="3" to-layer="1789" to-port="0" />
	</edges>
	<rt_info />
</net>
