<?xml version="1.0"?>
<net name="Model66" version="11">
	<layers>
		<layer id="0" name="inputs" type="Parameter" version="opset1">
			<data shape="?,3,224,224" element_type="f32" />
			<output>
				<port id="0" precision="FP32" names="inputs">
					<dim>-1</dim>
					<dim>3</dim>
					<dim>224</dim>
					<dim>224</dim>
				</port>
			</output>
		</layer>
		<layer id="1" name="conv1_weights" type="Const" version="opset1">
			<data element_type="f32" shape="16, 3, 3, 3" offset="0" size="1728" />
			<output>
				<port id="0" precision="FP32">
					<dim>16</dim>
					<dim>3</dim>
					<dim>3</dim>
					<dim>3</dim>
				</port>
			</output>
		</layer>
		<layer id="2" name="conv2d_64.tmp_0" type="Convolution" version="opset1">
			<data strides="2, 2" dilations="1, 1" pads_begin="1, 1" pads_end="1, 1" auto_pad="explicit" />
			<input>
				<port id="0" precision="FP32">
					<dim>-1</dim>
					<dim>3</dim>
					<dim>224</dim>
					<dim>224</dim>
				</port>
				<port id="1" precision="FP32">
					<dim>16</dim>
					<dim>3</dim>
					<dim>3</dim>
					<dim>3</dim>
				</port>
			</input>
			<output>
				<port id="2" precision="FP32" names="conv2d_64.tmp_0">
					<dim>-1</dim>
					<dim>16</dim>
					<dim>112</dim>
					<dim>112</dim>
				</port>
			</output>
		</layer>
		<layer id="3" name="conv1_bn_scale" type="Const" version="opset1">
			<data element_type="f32" shape="16" offset="1728" size="64" />
			<output>
				<port id="0" precision="FP32">
					<dim>16</dim>
				</port>
			</output>
		</layer>
		<layer id="4" name="conv1_bn_offset" type="Const" version="opset1">
			<data element_type="f32" shape="16" offset="1792" size="64" />
			<output>
				<port id="0" precision="FP32">
					<dim>16</dim>
				</port>
			</output>
		</layer>
		<layer id="5" name="conv1_bn_mean" type="Const" version="opset1">
			<data element_type="f32" shape="16" offset="1856" size="64" />
			<output>
				<port id="0" precision="FP32">
					<dim>16</dim>
				</port>
			</output>
		</layer>
		<layer id="6" name="conv1_bn_variance" type="Const" version="opset1">
			<data element_type="f32" shape="16" offset="1920" size="64" />
			<output>
				<port id="0" precision="FP32">
					<dim>16</dim>
				</port>
			</output>
		</layer>
		<layer id="7" name="conv1_bn_mean0" type="BatchNormInference" version="opset5">
			<data epsilon="9.9999997473787516e-06" />
			<input>
				<port id="0" precision="FP32">
					<dim>-1</dim>
					<dim>16</dim>
					<dim>112</dim>
					<dim>112</dim>
				</port>
				<port id="1" precision="FP32">
					<dim>16</dim>
				</port>
				<port id="2" precision="FP32">
					<dim>16</dim>
				</port>
				<port id="3" precision="FP32">
					<dim>16</dim>
				</port>
				<port id="4" precision="FP32">
					<dim>16</dim>
				</port>
			</input>
			<output>
				<port id="5" precision="FP32" names="batch_norm_0.tmp_2">
					<dim>-1</dim>
					<dim>16</dim>
					<dim>112</dim>
					<dim>112</dim>
				</port>
			</output>
		</layer>
		<layer id="8" name="hard_swish_0.tmp_0" type="HSwish" version="opset4">
			<input>
				<port id="0" precision="FP32">
					<dim>-1</dim>
					<dim>16</dim>
					<dim>112</dim>
					<dim>112</dim>
				</port>
			</input>
			<output>
				<port id="1" precision="FP32" names="hard_swish_0.tmp_0">
					<dim>-1</dim>
					<dim>16</dim>
					<dim>112</dim>
					<dim>112</dim>
				</port>
			</output>
		</layer>
		<layer id="9" name="conv2_expand_weights" type="Const" version="opset1">
			<data element_type="f32" shape="16, 16, 1, 1" offset="1984" size="1024" />
			<output>
				<port id="0" precision="FP32">
					<dim>16</dim>
					<dim>16</dim>
					<dim>1</dim>
					<dim>1</dim>
				</port>
			</output>
		</layer>
		<layer id="10" name="conv2d_65.tmp_0" type="Convolution" version="opset1">
			<data strides="1, 1" dilations="1, 1" pads_begin="0, 0" pads_end="0, 0" auto_pad="explicit" />
			<input>
				<port id="0" precision="FP32">
					<dim>-1</dim>
					<dim>16</dim>
					<dim>112</dim>
					<dim>112</dim>
				</port>
				<port id="1" precision="FP32">
					<dim>16</dim>
					<dim>16</dim>
					<dim>1</dim>
					<dim>1</dim>
				</port>
			</input>
			<output>
				<port id="2" precision="FP32" names="conv2d_65.tmp_0">
					<dim>-1</dim>
					<dim>16</dim>
					<dim>112</dim>
					<dim>112</dim>
				</port>
			</output>
		</layer>
		<layer id="11" name="conv2_expand_bn_scale" type="Const" version="opset1">
			<data element_type="f32" shape="16" offset="3008" size="64" />
			<output>
				<port id="0" precision="FP32">
					<dim>16</dim>
				</port>
			</output>
		</layer>
		<layer id="12" name="conv2_expand_bn_offset" type="Const" version="opset1">
			<data element_type="f32" shape="16" offset="3072" size="64" />
			<output>
				<port id="0" precision="FP32">
					<dim>16</dim>
				</port>
			</output>
		</layer>
		<layer id="13" name="conv2_expand_bn_mean" type="Const" version="opset1">
			<data element_type="f32" shape="16" offset="3136" size="64" />
			<output>
				<port id="0" precision="FP32">
					<dim>16</dim>
				</port>
			</output>
		</layer>
		<layer id="14" name="conv2_expand_bn_variance" type="Const" version="opset1">
			<data element_type="f32" shape="16" offset="3200" size="64" />
			<output>
				<port id="0" precision="FP32">
					<dim>16</dim>
				</port>
			</output>
		</layer>
		<layer id="15" name="conv2_expand_bn_mean0" type="BatchNormInference" version="opset5">
			<data epsilon="9.9999997473787516e-06" />
			<input>
				<port id="0" precision="FP32">
					<dim>-1</dim>
					<dim>16</dim>
					<dim>112</dim>
					<dim>112</dim>
				</port>
				<port id="1" precision="FP32">
					<dim>16</dim>
				</port>
				<port id="2" precision="FP32">
					<dim>16</dim>
				</port>
				<port id="3" precision="FP32">
					<dim>16</dim>
				</port>
				<port id="4" precision="FP32">
					<dim>16</dim>
				</port>
			</input>
			<output>
				<port id="5" precision="FP32" names="batch_norm_1.tmp_2">
					<dim>-1</dim>
					<dim>16</dim>
					<dim>112</dim>
					<dim>112</dim>
				</port>
			</output>
		</layer>
		<layer id="16" name="relu_0.tmp_0" type="ReLU" version="opset1">
			<input>
				<port id="0" precision="FP32">
					<dim>-1</dim>
					<dim>16</dim>
					<dim>112</dim>
					<dim>112</dim>
				</port>
			</input>
			<output>
				<port id="1" precision="FP32" names="relu_0.tmp_0">
					<dim>-1</dim>
					<dim>16</dim>
					<dim>112</dim>
					<dim>112</dim>
				</port>
			</output>
		</layer>
		<layer id="17" name="conv2_depthwise_weights" type="Const" version="opset1">
			<data element_type="f32" shape="16, 1, 3, 3" offset="3264" size="576" />
			<output>
				<port id="0" precision="FP32">
					<dim>16</dim>
					<dim>1</dim>
					<dim>3</dim>
					<dim>3</dim>
				</port>
			</output>
		</layer>
		<layer id="18" name="Constant_32416" type="Const" version="opset1">
			<data element_type="i64" shape="1" offset="3840" size="8" />
			<output>
				<port id="0" precision="I64">
					<dim>1</dim>
				</port>
			</output>
		</layer>
		<layer id="19" name="Constant_32409" type="Const" version="opset1">
			<data element_type="i64" shape="1" offset="3840" size="8" />
			<output>
				<port id="0" precision="I64">
					<dim>1</dim>
				</port>
			</output>
		</layer>
		<layer id="20" name="Divide_32417" type="Divide" version="opset1">
			<data auto_broadcast="numpy" m_pythondiv="true" />
			<input>
				<port id="0" precision="I64">
					<dim>1</dim>
				</port>
				<port id="1" precision="I64">
					<dim>1</dim>
				</port>
			</input>
			<output>
				<port id="2" precision="I64">
					<dim>1</dim>
				</port>
			</output>
		</layer>
		<layer id="21" name="Constant_32415" type="Const" version="opset1">
			<data element_type="i64" shape="3" offset="3848" size="24" />
			<output>
				<port id="0" precision="I64">
					<dim>3</dim>
				</port>
			</output>
		</layer>
		<layer id="22" name="Concat_32418" type="Concat" version="opset1">
			<data axis="0" />
			<input>
				<port id="0" precision="I64">
					<dim>1</dim>
				</port>
				<port id="1" precision="I64">
					<dim>1</dim>
				</port>
				<port id="2" precision="I64">
					<dim>3</dim>
				</port>
			</input>
			<output>
				<port id="3" precision="I64">
					<dim>5</dim>
				</port>
			</output>
		</layer>
		<layer id="23" name="Reshape_32419" type="Reshape" version="opset1">
			<data special_zero="false" />
			<input>
				<port id="0" precision="FP32">
					<dim>16</dim>
					<dim>1</dim>
					<dim>3</dim>
					<dim>3</dim>
				</port>
				<port id="1" precision="I64">
					<dim>5</dim>
				</port>
			</input>
			<output>
				<port id="2" precision="FP32">
					<dim>16</dim>
					<dim>1</dim>
					<dim>1</dim>
					<dim>3</dim>
					<dim>3</dim>
				</port>
			</output>
		</layer>
		<layer id="24" name="depthwise_conv2d_0.tmp_0" type="GroupConvolution" version="opset1">
			<data strides="1, 1" pads_begin="1, 1" pads_end="1, 1" dilations="1, 1" auto_pad="explicit" />
			<input>
				<port id="0" precision="FP32">
					<dim>-1</dim>
					<dim>16</dim>
					<dim>112</dim>
					<dim>112</dim>
				</port>
				<port id="1" precision="FP32">
					<dim>16</dim>
					<dim>1</dim>
					<dim>1</dim>
					<dim>3</dim>
					<dim>3</dim>
				</port>
			</input>
			<output>
				<port id="2" precision="FP32" names="depthwise_conv2d_0.tmp_0">
					<dim>-1</dim>
					<dim>16</dim>
					<dim>112</dim>
					<dim>112</dim>
				</port>
			</output>
		</layer>
		<layer id="25" name="conv2_depthwise_bn_scale" type="Const" version="opset1">
			<data element_type="f32" shape="16" offset="3872" size="64" />
			<output>
				<port id="0" precision="FP32">
					<dim>16</dim>
				</port>
			</output>
		</layer>
		<layer id="26" name="conv2_depthwise_bn_offset" type="Const" version="opset1">
			<data element_type="f32" shape="16" offset="3936" size="64" />
			<output>
				<port id="0" precision="FP32">
					<dim>16</dim>
				</port>
			</output>
		</layer>
		<layer id="27" name="conv2_depthwise_bn_mean" type="Const" version="opset1">
			<data element_type="f32" shape="16" offset="4000" size="64" />
			<output>
				<port id="0" precision="FP32">
					<dim>16</dim>
				</port>
			</output>
		</layer>
		<layer id="28" name="conv2_depthwise_bn_variance" type="Const" version="opset1">
			<data element_type="f32" shape="16" offset="4064" size="64" />
			<output>
				<port id="0" precision="FP32">
					<dim>16</dim>
				</port>
			</output>
		</layer>
		<layer id="29" name="conv2_depthwise_bn_mean0" type="BatchNormInference" version="opset5">
			<data epsilon="9.9999997473787516e-06" />
			<input>
				<port id="0" precision="FP32">
					<dim>-1</dim>
					<dim>16</dim>
					<dim>112</dim>
					<dim>112</dim>
				</port>
				<port id="1" precision="FP32">
					<dim>16</dim>
				</port>
				<port id="2" precision="FP32">
					<dim>16</dim>
				</port>
				<port id="3" precision="FP32">
					<dim>16</dim>
				</port>
				<port id="4" precision="FP32">
					<dim>16</dim>
				</port>
			</input>
			<output>
				<port id="5" precision="FP32" names="batch_norm_2.tmp_2">
					<dim>-1</dim>
					<dim>16</dim>
					<dim>112</dim>
					<dim>112</dim>
				</port>
			</output>
		</layer>
		<layer id="30" name="relu_1.tmp_0" type="ReLU" version="opset1">
			<input>
				<port id="0" precision="FP32">
					<dim>-1</dim>
					<dim>16</dim>
					<dim>112</dim>
					<dim>112</dim>
				</port>
			</input>
			<output>
				<port id="1" precision="FP32" names="relu_1.tmp_0">
					<dim>-1</dim>
					<dim>16</dim>
					<dim>112</dim>
					<dim>112</dim>
				</port>
			</output>
		</layer>
		<layer id="31" name="conv2_linear_weights" type="Const" version="opset1">
			<data element_type="f32" shape="16, 16, 1, 1" offset="4128" size="1024" />
			<output>
				<port id="0" precision="FP32">
					<dim>16</dim>
					<dim>16</dim>
					<dim>1</dim>
					<dim>1</dim>
				</port>
			</output>
		</layer>
		<layer id="32" name="conv2d_66.tmp_0" type="Convolution" version="opset1">
			<data strides="1, 1" dilations="1, 1" pads_begin="0, 0" pads_end="0, 0" auto_pad="explicit" />
			<input>
				<port id="0" precision="FP32">
					<dim>-1</dim>
					<dim>16</dim>
					<dim>112</dim>
					<dim>112</dim>
				</port>
				<port id="1" precision="FP32">
					<dim>16</dim>
					<dim>16</dim>
					<dim>1</dim>
					<dim>1</dim>
				</port>
			</input>
			<output>
				<port id="2" precision="FP32" names="conv2d_66.tmp_0">
					<dim>-1</dim>
					<dim>16</dim>
					<dim>112</dim>
					<dim>112</dim>
				</port>
			</output>
		</layer>
		<layer id="33" name="conv2_linear_bn_scale" type="Const" version="opset1">
			<data element_type="f32" shape="16" offset="5152" size="64" />
			<output>
				<port id="0" precision="FP32">
					<dim>16</dim>
				</port>
			</output>
		</layer>
		<layer id="34" name="conv2_linear_bn_offset" type="Const" version="opset1">
			<data element_type="f32" shape="16" offset="5216" size="64" />
			<output>
				<port id="0" precision="FP32">
					<dim>16</dim>
				</port>
			</output>
		</layer>
		<layer id="35" name="conv2_linear_bn_mean" type="Const" version="opset1">
			<data element_type="f32" shape="16" offset="5280" size="64" />
			<output>
				<port id="0" precision="FP32">
					<dim>16</dim>
				</port>
			</output>
		</layer>
		<layer id="36" name="conv2_linear_bn_variance" type="Const" version="opset1">
			<data element_type="f32" shape="16" offset="5344" size="64" />
			<output>
				<port id="0" precision="FP32">
					<dim>16</dim>
				</port>
			</output>
		</layer>
		<layer id="37" name="conv2_linear_bn_mean0" type="BatchNormInference" version="opset5">
			<data epsilon="9.9999997473787516e-06" />
			<input>
				<port id="0" precision="FP32">
					<dim>-1</dim>
					<dim>16</dim>
					<dim>112</dim>
					<dim>112</dim>
				</port>
				<port id="1" precision="FP32">
					<dim>16</dim>
				</port>
				<port id="2" precision="FP32">
					<dim>16</dim>
				</port>
				<port id="3" precision="FP32">
					<dim>16</dim>
				</port>
				<port id="4" precision="FP32">
					<dim>16</dim>
				</port>
			</input>
			<output>
				<port id="5" precision="FP32" names="batch_norm_3.tmp_2">
					<dim>-1</dim>
					<dim>16</dim>
					<dim>112</dim>
					<dim>112</dim>
				</port>
			</output>
		</layer>
		<layer id="38" name="elementwise_add_0" type="Add" version="opset1">
			<data auto_broadcast="numpy" />
			<input>
				<port id="0" precision="FP32">
					<dim>-1</dim>
					<dim>16</dim>
					<dim>112</dim>
					<dim>112</dim>
				</port>
				<port id="1" precision="FP32">
					<dim>-1</dim>
					<dim>16</dim>
					<dim>112</dim>
					<dim>112</dim>
				</port>
			</input>
			<output>
				<port id="2" precision="FP32" names="elementwise_add_0">
					<dim>-1</dim>
					<dim>16</dim>
					<dim>112</dim>
					<dim>112</dim>
				</port>
			</output>
		</layer>
		<layer id="39" name="conv3_expand_weights" type="Const" version="opset1">
			<data element_type="f32" shape="64, 16, 1, 1" offset="5408" size="4096" />
			<output>
				<port id="0" precision="FP32">
					<dim>64</dim>
					<dim>16</dim>
					<dim>1</dim>
					<dim>1</dim>
				</port>
			</output>
		</layer>
		<layer id="40" name="conv2d_67.tmp_0" type="Convolution" version="opset1">
			<data strides="1, 1" dilations="1, 1" pads_begin="0, 0" pads_end="0, 0" auto_pad="explicit" />
			<input>
				<port id="0" precision="FP32">
					<dim>-1</dim>
					<dim>16</dim>
					<dim>112</dim>
					<dim>112</dim>
				</port>
				<port id="1" precision="FP32">
					<dim>64</dim>
					<dim>16</dim>
					<dim>1</dim>
					<dim>1</dim>
				</port>
			</input>
			<output>
				<port id="2" precision="FP32" names="conv2d_67.tmp_0">
					<dim>-1</dim>
					<dim>64</dim>
					<dim>112</dim>
					<dim>112</dim>
				</port>
			</output>
		</layer>
		<layer id="41" name="conv3_expand_bn_scale" type="Const" version="opset1">
			<data element_type="f32" shape="64" offset="9504" size="256" />
			<output>
				<port id="0" precision="FP32">
					<dim>64</dim>
				</port>
			</output>
		</layer>
		<layer id="42" name="conv3_expand_bn_offset" type="Const" version="opset1">
			<data element_type="f32" shape="64" offset="9760" size="256" />
			<output>
				<port id="0" precision="FP32">
					<dim>64</dim>
				</port>
			</output>
		</layer>
		<layer id="43" name="conv3_expand_bn_mean" type="Const" version="opset1">
			<data element_type="f32" shape="64" offset="10016" size="256" />
			<output>
				<port id="0" precision="FP32">
					<dim>64</dim>
				</port>
			</output>
		</layer>
		<layer id="44" name="conv3_expand_bn_variance" type="Const" version="opset1">
			<data element_type="f32" shape="64" offset="10272" size="256" />
			<output>
				<port id="0" precision="FP32">
					<dim>64</dim>
				</port>
			</output>
		</layer>
		<layer id="45" name="conv3_expand_bn_mean0" type="BatchNormInference" version="opset5">
			<data epsilon="9.9999997473787516e-06" />
			<input>
				<port id="0" precision="FP32">
					<dim>-1</dim>
					<dim>64</dim>
					<dim>112</dim>
					<dim>112</dim>
				</port>
				<port id="1" precision="FP32">
					<dim>64</dim>
				</port>
				<port id="2" precision="FP32">
					<dim>64</dim>
				</port>
				<port id="3" precision="FP32">
					<dim>64</dim>
				</port>
				<port id="4" precision="FP32">
					<dim>64</dim>
				</port>
			</input>
			<output>
				<port id="5" precision="FP32" names="batch_norm_4.tmp_2">
					<dim>-1</dim>
					<dim>64</dim>
					<dim>112</dim>
					<dim>112</dim>
				</port>
			</output>
		</layer>
		<layer id="46" name="relu_2.tmp_0" type="ReLU" version="opset1">
			<input>
				<port id="0" precision="FP32">
					<dim>-1</dim>
					<dim>64</dim>
					<dim>112</dim>
					<dim>112</dim>
				</port>
			</input>
			<output>
				<port id="1" precision="FP32" names="relu_2.tmp_0">
					<dim>-1</dim>
					<dim>64</dim>
					<dim>112</dim>
					<dim>112</dim>
				</port>
			</output>
		</layer>
		<layer id="47" name="conv3_depthwise_weights" type="Const" version="opset1">
			<data element_type="f32" shape="64, 1, 3, 3" offset="10528" size="2304" />
			<output>
				<port id="0" precision="FP32">
					<dim>64</dim>
					<dim>1</dim>
					<dim>3</dim>
					<dim>3</dim>
				</port>
			</output>
		</layer>
		<layer id="48" name="Constant_32478" type="Const" version="opset1">
			<data element_type="i64" shape="1" offset="12832" size="8" />
			<output>
				<port id="0" precision="I64">
					<dim>1</dim>
				</port>
			</output>
		</layer>
		<layer id="49" name="Constant_32471" type="Const" version="opset1">
			<data element_type="i64" shape="1" offset="12832" size="8" />
			<output>
				<port id="0" precision="I64">
					<dim>1</dim>
				</port>
			</output>
		</layer>
		<layer id="50" name="Divide_32479" type="Divide" version="opset1">
			<data auto_broadcast="numpy" m_pythondiv="true" />
			<input>
				<port id="0" precision="I64">
					<dim>1</dim>
				</port>
				<port id="1" precision="I64">
					<dim>1</dim>
				</port>
			</input>
			<output>
				<port id="2" precision="I64">
					<dim>1</dim>
				</port>
			</output>
		</layer>
		<layer id="51" name="Constant_32477" type="Const" version="opset1">
			<data element_type="i64" shape="3" offset="3848" size="24" />
			<output>
				<port id="0" precision="I64">
					<dim>3</dim>
				</port>
			</output>
		</layer>
		<layer id="52" name="Concat_32480" type="Concat" version="opset1">
			<data axis="0" />
			<input>
				<port id="0" precision="I64">
					<dim>1</dim>
				</port>
				<port id="1" precision="I64">
					<dim>1</dim>
				</port>
				<port id="2" precision="I64">
					<dim>3</dim>
				</port>
			</input>
			<output>
				<port id="3" precision="I64">
					<dim>5</dim>
				</port>
			</output>
		</layer>
		<layer id="53" name="Reshape_32481" type="Reshape" version="opset1">
			<data special_zero="false" />
			<input>
				<port id="0" precision="FP32">
					<dim>64</dim>
					<dim>1</dim>
					<dim>3</dim>
					<dim>3</dim>
				</port>
				<port id="1" precision="I64">
					<dim>5</dim>
				</port>
			</input>
			<output>
				<port id="2" precision="FP32">
					<dim>64</dim>
					<dim>1</dim>
					<dim>1</dim>
					<dim>3</dim>
					<dim>3</dim>
				</port>
			</output>
		</layer>
		<layer id="54" name="depthwise_conv2d_1.tmp_0" type="GroupConvolution" version="opset1">
			<data strides="2, 2" pads_begin="1, 1" pads_end="1, 1" dilations="1, 1" auto_pad="explicit" />
			<input>
				<port id="0" precision="FP32">
					<dim>-1</dim>
					<dim>64</dim>
					<dim>112</dim>
					<dim>112</dim>
				</port>
				<port id="1" precision="FP32">
					<dim>64</dim>
					<dim>1</dim>
					<dim>1</dim>
					<dim>3</dim>
					<dim>3</dim>
				</port>
			</input>
			<output>
				<port id="2" precision="FP32" names="depthwise_conv2d_1.tmp_0">
					<dim>-1</dim>
					<dim>64</dim>
					<dim>56</dim>
					<dim>56</dim>
				</port>
			</output>
		</layer>
		<layer id="55" name="conv3_depthwise_bn_scale" type="Const" version="opset1">
			<data element_type="f32" shape="64" offset="12840" size="256" />
			<output>
				<port id="0" precision="FP32">
					<dim>64</dim>
				</port>
			</output>
		</layer>
		<layer id="56" name="conv3_depthwise_bn_offset" type="Const" version="opset1">
			<data element_type="f32" shape="64" offset="13096" size="256" />
			<output>
				<port id="0" precision="FP32">
					<dim>64</dim>
				</port>
			</output>
		</layer>
		<layer id="57" name="conv3_depthwise_bn_mean" type="Const" version="opset1">
			<data element_type="f32" shape="64" offset="13352" size="256" />
			<output>
				<port id="0" precision="FP32">
					<dim>64</dim>
				</port>
			</output>
		</layer>
		<layer id="58" name="conv3_depthwise_bn_variance" type="Const" version="opset1">
			<data element_type="f32" shape="64" offset="13608" size="256" />
			<output>
				<port id="0" precision="FP32">
					<dim>64</dim>
				</port>
			</output>
		</layer>
		<layer id="59" name="conv3_depthwise_bn_mean0" type="BatchNormInference" version="opset5">
			<data epsilon="9.9999997473787516e-06" />
			<input>
				<port id="0" precision="FP32">
					<dim>-1</dim>
					<dim>64</dim>
					<dim>56</dim>
					<dim>56</dim>
				</port>
				<port id="1" precision="FP32">
					<dim>64</dim>
				</port>
				<port id="2" precision="FP32">
					<dim>64</dim>
				</port>
				<port id="3" precision="FP32">
					<dim>64</dim>
				</port>
				<port id="4" precision="FP32">
					<dim>64</dim>
				</port>
			</input>
			<output>
				<port id="5" precision="FP32" names="batch_norm_5.tmp_2">
					<dim>-1</dim>
					<dim>64</dim>
					<dim>56</dim>
					<dim>56</dim>
				</port>
			</output>
		</layer>
		<layer id="60" name="relu_3.tmp_0" type="ReLU" version="opset1">
			<input>
				<port id="0" precision="FP32">
					<dim>-1</dim>
					<dim>64</dim>
					<dim>56</dim>
					<dim>56</dim>
				</port>
			</input>
			<output>
				<port id="1" precision="FP32" names="relu_3.tmp_0">
					<dim>-1</dim>
					<dim>64</dim>
					<dim>56</dim>
					<dim>56</dim>
				</port>
			</output>
		</layer>
		<layer id="61" name="conv3_linear_weights" type="Const" version="opset1">
			<data element_type="f32" shape="24, 64, 1, 1" offset="13864" size="6144" />
			<output>
				<port id="0" precision="FP32">
					<dim>24</dim>
					<dim>64</dim>
					<dim>1</dim>
					<dim>1</dim>
				</port>
			</output>
		</layer>
		<layer id="62" name="conv2d_68.tmp_0" type="Convolution" version="opset1">
			<data strides="1, 1" dilations="1, 1" pads_begin="0, 0" pads_end="0, 0" auto_pad="explicit" />
			<input>
				<port id="0" precision="FP32">
					<dim>-1</dim>
					<dim>64</dim>
					<dim>56</dim>
					<dim>56</dim>
				</port>
				<port id="1" precision="FP32">
					<dim>24</dim>
					<dim>64</dim>
					<dim>1</dim>
					<dim>1</dim>
				</port>
			</input>
			<output>
				<port id="2" precision="FP32" names="conv2d_68.tmp_0">
					<dim>-1</dim>
					<dim>24</dim>
					<dim>56</dim>
					<dim>56</dim>
				</port>
			</output>
		</layer>
		<layer id="63" name="conv3_linear_bn_scale" type="Const" version="opset1">
			<data element_type="f32" shape="24" offset="20008" size="96" />
			<output>
				<port id="0" precision="FP32">
					<dim>24</dim>
				</port>
			</output>
		</layer>
		<layer id="64" name="conv3_linear_bn_offset" type="Const" version="opset1">
			<data element_type="f32" shape="24" offset="20104" size="96" />
			<output>
				<port id="0" precision="FP32">
					<dim>24</dim>
				</port>
			</output>
		</layer>
		<layer id="65" name="conv3_linear_bn_mean" type="Const" version="opset1">
			<data element_type="f32" shape="24" offset="20200" size="96" />
			<output>
				<port id="0" precision="FP32">
					<dim>24</dim>
				</port>
			</output>
		</layer>
		<layer id="66" name="conv3_linear_bn_variance" type="Const" version="opset1">
			<data element_type="f32" shape="24" offset="20296" size="96" />
			<output>
				<port id="0" precision="FP32">
					<dim>24</dim>
				</port>
			</output>
		</layer>
		<layer id="67" name="conv3_linear_bn_mean0" type="BatchNormInference" version="opset5">
			<data epsilon="9.9999997473787516e-06" />
			<input>
				<port id="0" precision="FP32">
					<dim>-1</dim>
					<dim>24</dim>
					<dim>56</dim>
					<dim>56</dim>
				</port>
				<port id="1" precision="FP32">
					<dim>24</dim>
				</port>
				<port id="2" precision="FP32">
					<dim>24</dim>
				</port>
				<port id="3" precision="FP32">
					<dim>24</dim>
				</port>
				<port id="4" precision="FP32">
					<dim>24</dim>
				</port>
			</input>
			<output>
				<port id="5" precision="FP32" names="batch_norm_6.tmp_2">
					<dim>-1</dim>
					<dim>24</dim>
					<dim>56</dim>
					<dim>56</dim>
				</port>
			</output>
		</layer>
		<layer id="68" name="conv4_expand_weights" type="Const" version="opset1">
			<data element_type="f32" shape="72, 24, 1, 1" offset="20392" size="6912" />
			<output>
				<port id="0" precision="FP32">
					<dim>72</dim>
					<dim>24</dim>
					<dim>1</dim>
					<dim>1</dim>
				</port>
			</output>
		</layer>
		<layer id="69" name="conv2d_69.tmp_0" type="Convolution" version="opset1">
			<data strides="1, 1" dilations="1, 1" pads_begin="0, 0" pads_end="0, 0" auto_pad="explicit" />
			<input>
				<port id="0" precision="FP32">
					<dim>-1</dim>
					<dim>24</dim>
					<dim>56</dim>
					<dim>56</dim>
				</port>
				<port id="1" precision="FP32">
					<dim>72</dim>
					<dim>24</dim>
					<dim>1</dim>
					<dim>1</dim>
				</port>
			</input>
			<output>
				<port id="2" precision="FP32" names="conv2d_69.tmp_0">
					<dim>-1</dim>
					<dim>72</dim>
					<dim>56</dim>
					<dim>56</dim>
				</port>
			</output>
		</layer>
		<layer id="70" name="conv4_expand_bn_scale" type="Const" version="opset1">
			<data element_type="f32" shape="72" offset="27304" size="288" />
			<output>
				<port id="0" precision="FP32">
					<dim>72</dim>
				</port>
			</output>
		</layer>
		<layer id="71" name="conv4_expand_bn_offset" type="Const" version="opset1">
			<data element_type="f32" shape="72" offset="27592" size="288" />
			<output>
				<port id="0" precision="FP32">
					<dim>72</dim>
				</port>
			</output>
		</layer>
		<layer id="72" name="conv4_expand_bn_mean" type="Const" version="opset1">
			<data element_type="f32" shape="72" offset="27880" size="288" />
			<output>
				<port id="0" precision="FP32">
					<dim>72</dim>
				</port>
			</output>
		</layer>
		<layer id="73" name="conv4_expand_bn_variance" type="Const" version="opset1">
			<data element_type="f32" shape="72" offset="28168" size="288" />
			<output>
				<port id="0" precision="FP32">
					<dim>72</dim>
				</port>
			</output>
		</layer>
		<layer id="74" name="conv4_expand_bn_mean0" type="BatchNormInference" version="opset5">
			<data epsilon="9.9999997473787516e-06" />
			<input>
				<port id="0" precision="FP32">
					<dim>-1</dim>
					<dim>72</dim>
					<dim>56</dim>
					<dim>56</dim>
				</port>
				<port id="1" precision="FP32">
					<dim>72</dim>
				</port>
				<port id="2" precision="FP32">
					<dim>72</dim>
				</port>
				<port id="3" precision="FP32">
					<dim>72</dim>
				</port>
				<port id="4" precision="FP32">
					<dim>72</dim>
				</port>
			</input>
			<output>
				<port id="5" precision="FP32" names="batch_norm_7.tmp_2">
					<dim>-1</dim>
					<dim>72</dim>
					<dim>56</dim>
					<dim>56</dim>
				</port>
			</output>
		</layer>
		<layer id="75" name="relu_4.tmp_0" type="ReLU" version="opset1">
			<input>
				<port id="0" precision="FP32">
					<dim>-1</dim>
					<dim>72</dim>
					<dim>56</dim>
					<dim>56</dim>
				</port>
			</input>
			<output>
				<port id="1" precision="FP32" names="relu_4.tmp_0">
					<dim>-1</dim>
					<dim>72</dim>
					<dim>56</dim>
					<dim>56</dim>
				</port>
			</output>
		</layer>
		<layer id="76" name="conv4_depthwise_weights" type="Const" version="opset1">
			<data element_type="f32" shape="72, 1, 3, 3" offset="28456" size="2592" />
			<output>
				<port id="0" precision="FP32">
					<dim>72</dim>
					<dim>1</dim>
					<dim>3</dim>
					<dim>3</dim>
				</port>
			</output>
		</layer>
		<layer id="77" name="Constant_32539" type="Const" version="opset1">
			<data element_type="i64" shape="1" offset="31048" size="8" />
			<output>
				<port id="0" precision="I64">
					<dim>1</dim>
				</port>
			</output>
		</layer>
		<layer id="78" name="Constant_32532" type="Const" version="opset1">
			<data element_type="i64" shape="1" offset="31048" size="8" />
			<output>
				<port id="0" precision="I64">
					<dim>1</dim>
				</port>
			</output>
		</layer>
		<layer id="79" name="Divide_32540" type="Divide" version="opset1">
			<data auto_broadcast="numpy" m_pythondiv="true" />
			<input>
				<port id="0" precision="I64">
					<dim>1</dim>
				</port>
				<port id="1" precision="I64">
					<dim>1</dim>
				</port>
			</input>
			<output>
				<port id="2" precision="I64">
					<dim>1</dim>
				</port>
			</output>
		</layer>
		<layer id="80" name="Constant_32538" type="Const" version="opset1">
			<data element_type="i64" shape="3" offset="3848" size="24" />
			<output>
				<port id="0" precision="I64">
					<dim>3</dim>
				</port>
			</output>
		</layer>
		<layer id="81" name="Concat_32541" type="Concat" version="opset1">
			<data axis="0" />
			<input>
				<port id="0" precision="I64">
					<dim>1</dim>
				</port>
				<port id="1" precision="I64">
					<dim>1</dim>
				</port>
				<port id="2" precision="I64">
					<dim>3</dim>
				</port>
			</input>
			<output>
				<port id="3" precision="I64">
					<dim>5</dim>
				</port>
			</output>
		</layer>
		<layer id="82" name="Reshape_32542" type="Reshape" version="opset1">
			<data special_zero="false" />
			<input>
				<port id="0" precision="FP32">
					<dim>72</dim>
					<dim>1</dim>
					<dim>3</dim>
					<dim>3</dim>
				</port>
				<port id="1" precision="I64">
					<dim>5</dim>
				</port>
			</input>
			<output>
				<port id="2" precision="FP32">
					<dim>72</dim>
					<dim>1</dim>
					<dim>1</dim>
					<dim>3</dim>
					<dim>3</dim>
				</port>
			</output>
		</layer>
		<layer id="83" name="depthwise_conv2d_2.tmp_0" type="GroupConvolution" version="opset1">
			<data strides="1, 1" pads_begin="1, 1" pads_end="1, 1" dilations="1, 1" auto_pad="explicit" />
			<input>
				<port id="0" precision="FP32">
					<dim>-1</dim>
					<dim>72</dim>
					<dim>56</dim>
					<dim>56</dim>
				</port>
				<port id="1" precision="FP32">
					<dim>72</dim>
					<dim>1</dim>
					<dim>1</dim>
					<dim>3</dim>
					<dim>3</dim>
				</port>
			</input>
			<output>
				<port id="2" precision="FP32" names="depthwise_conv2d_2.tmp_0">
					<dim>-1</dim>
					<dim>72</dim>
					<dim>56</dim>
					<dim>56</dim>
				</port>
			</output>
		</layer>
		<layer id="84" name="conv4_depthwise_bn_scale" type="Const" version="opset1">
			<data element_type="f32" shape="72" offset="31056" size="288" />
			<output>
				<port id="0" precision="FP32">
					<dim>72</dim>
				</port>
			</output>
		</layer>
		<layer id="85" name="conv4_depthwise_bn_offset" type="Const" version="opset1">
			<data element_type="f32" shape="72" offset="31344" size="288" />
			<output>
				<port id="0" precision="FP32">
					<dim>72</dim>
				</port>
			</output>
		</layer>
		<layer id="86" name="conv4_depthwise_bn_mean" type="Const" version="opset1">
			<data element_type="f32" shape="72" offset="31632" size="288" />
			<output>
				<port id="0" precision="FP32">
					<dim>72</dim>
				</port>
			</output>
		</layer>
		<layer id="87" name="conv4_depthwise_bn_variance" type="Const" version="opset1">
			<data element_type="f32" shape="72" offset="31920" size="288" />
			<output>
				<port id="0" precision="FP32">
					<dim>72</dim>
				</port>
			</output>
		</layer>
		<layer id="88" name="conv4_depthwise_bn_mean0" type="BatchNormInference" version="opset5">
			<data epsilon="9.9999997473787516e-06" />
			<input>
				<port id="0" precision="FP32">
					<dim>-1</dim>
					<dim>72</dim>
					<dim>56</dim>
					<dim>56</dim>
				</port>
				<port id="1" precision="FP32">
					<dim>72</dim>
				</port>
				<port id="2" precision="FP32">
					<dim>72</dim>
				</port>
				<port id="3" precision="FP32">
					<dim>72</dim>
				</port>
				<port id="4" precision="FP32">
					<dim>72</dim>
				</port>
			</input>
			<output>
				<port id="5" precision="FP32" names="batch_norm_8.tmp_2">
					<dim>-1</dim>
					<dim>72</dim>
					<dim>56</dim>
					<dim>56</dim>
				</port>
			</output>
		</layer>
		<layer id="89" name="relu_5.tmp_0" type="ReLU" version="opset1">
			<input>
				<port id="0" precision="FP32">
					<dim>-1</dim>
					<dim>72</dim>
					<dim>56</dim>
					<dim>56</dim>
				</port>
			</input>
			<output>
				<port id="1" precision="FP32" names="relu_5.tmp_0">
					<dim>-1</dim>
					<dim>72</dim>
					<dim>56</dim>
					<dim>56</dim>
				</port>
			</output>
		</layer>
		<layer id="90" name="conv4_linear_weights" type="Const" version="opset1">
			<data element_type="f32" shape="24, 72, 1, 1" offset="32208" size="6912" />
			<output>
				<port id="0" precision="FP32">
					<dim>24</dim>
					<dim>72</dim>
					<dim>1</dim>
					<dim>1</dim>
				</port>
			</output>
		</layer>
		<layer id="91" name="conv2d_70.tmp_0" type="Convolution" version="opset1">
			<data strides="1, 1" dilations="1, 1" pads_begin="0, 0" pads_end="0, 0" auto_pad="explicit" />
			<input>
				<port id="0" precision="FP32">
					<dim>-1</dim>
					<dim>72</dim>
					<dim>56</dim>
					<dim>56</dim>
				</port>
				<port id="1" precision="FP32">
					<dim>24</dim>
					<dim>72</dim>
					<dim>1</dim>
					<dim>1</dim>
				</port>
			</input>
			<output>
				<port id="2" precision="FP32" names="conv2d_70.tmp_0">
					<dim>-1</dim>
					<dim>24</dim>
					<dim>56</dim>
					<dim>56</dim>
				</port>
			</output>
		</layer>
		<layer id="92" name="conv4_linear_bn_scale" type="Const" version="opset1">
			<data element_type="f32" shape="24" offset="39120" size="96" />
			<output>
				<port id="0" precision="FP32">
					<dim>24</dim>
				</port>
			</output>
		</layer>
		<layer id="93" name="conv4_linear_bn_offset" type="Const" version="opset1">
			<data element_type="f32" shape="24" offset="39216" size="96" />
			<output>
				<port id="0" precision="FP32">
					<dim>24</dim>
				</port>
			</output>
		</layer>
		<layer id="94" name="conv4_linear_bn_mean" type="Const" version="opset1">
			<data element_type="f32" shape="24" offset="39312" size="96" />
			<output>
				<port id="0" precision="FP32">
					<dim>24</dim>
				</port>
			</output>
		</layer>
		<layer id="95" name="conv4_linear_bn_variance" type="Const" version="opset1">
			<data element_type="f32" shape="24" offset="39408" size="96" />
			<output>
				<port id="0" precision="FP32">
					<dim>24</dim>
				</port>
			</output>
		</layer>
		<layer id="96" name="conv4_linear_bn_mean0" type="BatchNormInference" version="opset5">
			<data epsilon="9.9999997473787516e-06" />
			<input>
				<port id="0" precision="FP32">
					<dim>-1</dim>
					<dim>24</dim>
					<dim>56</dim>
					<dim>56</dim>
				</port>
				<port id="1" precision="FP32">
					<dim>24</dim>
				</port>
				<port id="2" precision="FP32">
					<dim>24</dim>
				</port>
				<port id="3" precision="FP32">
					<dim>24</dim>
				</port>
				<port id="4" precision="FP32">
					<dim>24</dim>
				</port>
			</input>
			<output>
				<port id="5" precision="FP32" names="batch_norm_9.tmp_2">
					<dim>-1</dim>
					<dim>24</dim>
					<dim>56</dim>
					<dim>56</dim>
				</port>
			</output>
		</layer>
		<layer id="97" name="elementwise_add_1" type="Add" version="opset1">
			<data auto_broadcast="numpy" />
			<input>
				<port id="0" precision="FP32">
					<dim>-1</dim>
					<dim>24</dim>
					<dim>56</dim>
					<dim>56</dim>
				</port>
				<port id="1" precision="FP32">
					<dim>-1</dim>
					<dim>24</dim>
					<dim>56</dim>
					<dim>56</dim>
				</port>
			</input>
			<output>
				<port id="2" precision="FP32" names="elementwise_add_1">
					<dim>-1</dim>
					<dim>24</dim>
					<dim>56</dim>
					<dim>56</dim>
				</port>
			</output>
		</layer>
		<layer id="98" name="conv5_expand_weights" type="Const" version="opset1">
			<data element_type="f32" shape="72, 24, 1, 1" offset="39504" size="6912" />
			<output>
				<port id="0" precision="FP32">
					<dim>72</dim>
					<dim>24</dim>
					<dim>1</dim>
					<dim>1</dim>
				</port>
			</output>
		</layer>
		<layer id="99" name="conv2d_71.tmp_0" type="Convolution" version="opset1">
			<data strides="1, 1" dilations="1, 1" pads_begin="0, 0" pads_end="0, 0" auto_pad="explicit" />
			<input>
				<port id="0" precision="FP32">
					<dim>-1</dim>
					<dim>24</dim>
					<dim>56</dim>
					<dim>56</dim>
				</port>
				<port id="1" precision="FP32">
					<dim>72</dim>
					<dim>24</dim>
					<dim>1</dim>
					<dim>1</dim>
				</port>
			</input>
			<output>
				<port id="2" precision="FP32" names="conv2d_71.tmp_0">
					<dim>-1</dim>
					<dim>72</dim>
					<dim>56</dim>
					<dim>56</dim>
				</port>
			</output>
		</layer>
		<layer id="100" name="conv5_expand_bn_scale" type="Const" version="opset1">
			<data element_type="f32" shape="72" offset="46416" size="288" />
			<output>
				<port id="0" precision="FP32">
					<dim>72</dim>
				</port>
			</output>
		</layer>
		<layer id="101" name="conv5_expand_bn_offset" type="Const" version="opset1">
			<data element_type="f32" shape="72" offset="46704" size="288" />
			<output>
				<port id="0" precision="FP32">
					<dim>72</dim>
				</port>
			</output>
		</layer>
		<layer id="102" name="conv5_expand_bn_mean" type="Const" version="opset1">
			<data element_type="f32" shape="72" offset="46992" size="288" />
			<output>
				<port id="0" precision="FP32">
					<dim>72</dim>
				</port>
			</output>
		</layer>
		<layer id="103" name="conv5_expand_bn_variance" type="Const" version="opset1">
			<data element_type="f32" shape="72" offset="47280" size="288" />
			<output>
				<port id="0" precision="FP32">
					<dim>72</dim>
				</port>
			</output>
		</layer>
		<layer id="104" name="conv5_expand_bn_mean0" type="BatchNormInference" version="opset5">
			<data epsilon="9.9999997473787516e-06" />
			<input>
				<port id="0" precision="FP32">
					<dim>-1</dim>
					<dim>72</dim>
					<dim>56</dim>
					<dim>56</dim>
				</port>
				<port id="1" precision="FP32">
					<dim>72</dim>
				</port>
				<port id="2" precision="FP32">
					<dim>72</dim>
				</port>
				<port id="3" precision="FP32">
					<dim>72</dim>
				</port>
				<port id="4" precision="FP32">
					<dim>72</dim>
				</port>
			</input>
			<output>
				<port id="5" precision="FP32" names="batch_norm_10.tmp_2">
					<dim>-1</dim>
					<dim>72</dim>
					<dim>56</dim>
					<dim>56</dim>
				</port>
			</output>
		</layer>
		<layer id="105" name="relu_6.tmp_0" type="ReLU" version="opset1">
			<input>
				<port id="0" precision="FP32">
					<dim>-1</dim>
					<dim>72</dim>
					<dim>56</dim>
					<dim>56</dim>
				</port>
			</input>
			<output>
				<port id="1" precision="FP32" names="relu_6.tmp_0">
					<dim>-1</dim>
					<dim>72</dim>
					<dim>56</dim>
					<dim>56</dim>
				</port>
			</output>
		</layer>
		<layer id="106" name="conv5_depthwise_weights" type="Const" version="opset1">
			<data element_type="f32" shape="72, 1, 5, 5" offset="47568" size="7200" />
			<output>
				<port id="0" precision="FP32">
					<dim>72</dim>
					<dim>1</dim>
					<dim>5</dim>
					<dim>5</dim>
				</port>
			</output>
		</layer>
		<layer id="107" name="Constant_32601" type="Const" version="opset1">
			<data element_type="i64" shape="1" offset="31048" size="8" />
			<output>
				<port id="0" precision="I64">
					<dim>1</dim>
				</port>
			</output>
		</layer>
		<layer id="108" name="Constant_32594" type="Const" version="opset1">
			<data element_type="i64" shape="1" offset="31048" size="8" />
			<output>
				<port id="0" precision="I64">
					<dim>1</dim>
				</port>
			</output>
		</layer>
		<layer id="109" name="Divide_32602" type="Divide" version="opset1">
			<data auto_broadcast="numpy" m_pythondiv="true" />
			<input>
				<port id="0" precision="I64">
					<dim>1</dim>
				</port>
				<port id="1" precision="I64">
					<dim>1</dim>
				</port>
			</input>
			<output>
				<port id="2" precision="I64">
					<dim>1</dim>
				</port>
			</output>
		</layer>
		<layer id="110" name="Constant_32600" type="Const" version="opset1">
			<data element_type="i64" shape="3" offset="54768" size="24" />
			<output>
				<port id="0" precision="I64">
					<dim>3</dim>
				</port>
			</output>
		</layer>
		<layer id="111" name="Concat_32603" type="Concat" version="opset1">
			<data axis="0" />
			<input>
				<port id="0" precision="I64">
					<dim>1</dim>
				</port>
				<port id="1" precision="I64">
					<dim>1</dim>
				</port>
				<port id="2" precision="I64">
					<dim>3</dim>
				</port>
			</input>
			<output>
				<port id="3" precision="I64">
					<dim>5</dim>
				</port>
			</output>
		</layer>
		<layer id="112" name="Reshape_32604" type="Reshape" version="opset1">
			<data special_zero="false" />
			<input>
				<port id="0" precision="FP32">
					<dim>72</dim>
					<dim>1</dim>
					<dim>5</dim>
					<dim>5</dim>
				</port>
				<port id="1" precision="I64">
					<dim>5</dim>
				</port>
			</input>
			<output>
				<port id="2" precision="FP32">
					<dim>72</dim>
					<dim>1</dim>
					<dim>1</dim>
					<dim>5</dim>
					<dim>5</dim>
				</port>
			</output>
		</layer>
		<layer id="113" name="depthwise_conv2d_3.tmp_0" type="GroupConvolution" version="opset1">
			<data strides="2, 2" pads_begin="2, 2" pads_end="2, 2" dilations="1, 1" auto_pad="explicit" />
			<input>
				<port id="0" precision="FP32">
					<dim>-1</dim>
					<dim>72</dim>
					<dim>56</dim>
					<dim>56</dim>
				</port>
				<port id="1" precision="FP32">
					<dim>72</dim>
					<dim>1</dim>
					<dim>1</dim>
					<dim>5</dim>
					<dim>5</dim>
				</port>
			</input>
			<output>
				<port id="2" precision="FP32" names="depthwise_conv2d_3.tmp_0">
					<dim>-1</dim>
					<dim>72</dim>
					<dim>28</dim>
					<dim>28</dim>
				</port>
			</output>
		</layer>
		<layer id="114" name="conv5_depthwise_bn_scale" type="Const" version="opset1">
			<data element_type="f32" shape="72" offset="54792" size="288" />
			<output>
				<port id="0" precision="FP32">
					<dim>72</dim>
				</port>
			</output>
		</layer>
		<layer id="115" name="conv5_depthwise_bn_offset" type="Const" version="opset1">
			<data element_type="f32" shape="72" offset="55080" size="288" />
			<output>
				<port id="0" precision="FP32">
					<dim>72</dim>
				</port>
			</output>
		</layer>
		<layer id="116" name="conv5_depthwise_bn_mean" type="Const" version="opset1">
			<data element_type="f32" shape="72" offset="55368" size="288" />
			<output>
				<port id="0" precision="FP32">
					<dim>72</dim>
				</port>
			</output>
		</layer>
		<layer id="117" name="conv5_depthwise_bn_variance" type="Const" version="opset1">
			<data element_type="f32" shape="72" offset="55656" size="288" />
			<output>
				<port id="0" precision="FP32">
					<dim>72</dim>
				</port>
			</output>
		</layer>
		<layer id="118" name="conv5_depthwise_bn_mean0" type="BatchNormInference" version="opset5">
			<data epsilon="9.9999997473787516e-06" />
			<input>
				<port id="0" precision="FP32">
					<dim>-1</dim>
					<dim>72</dim>
					<dim>28</dim>
					<dim>28</dim>
				</port>
				<port id="1" precision="FP32">
					<dim>72</dim>
				</port>
				<port id="2" precision="FP32">
					<dim>72</dim>
				</port>
				<port id="3" precision="FP32">
					<dim>72</dim>
				</port>
				<port id="4" precision="FP32">
					<dim>72</dim>
				</port>
			</input>
			<output>
				<port id="5" precision="FP32" names="batch_norm_11.tmp_2">
					<dim>-1</dim>
					<dim>72</dim>
					<dim>28</dim>
					<dim>28</dim>
				</port>
			</output>
		</layer>
		<layer id="119" name="relu_7.tmp_0" type="ReLU" version="opset1">
			<input>
				<port id="0" precision="FP32">
					<dim>-1</dim>
					<dim>72</dim>
					<dim>28</dim>
					<dim>28</dim>
				</port>
			</input>
			<output>
				<port id="1" precision="FP32" names="relu_7.tmp_0">
					<dim>-1</dim>
					<dim>72</dim>
					<dim>28</dim>
					<dim>28</dim>
				</port>
			</output>
		</layer>
		<layer id="120" name="Constant_32645" type="Const" version="opset1">
			<data element_type="i64" shape="2" offset="55944" size="16" />
			<output>
				<port id="0" precision="I64">
					<dim>2</dim>
				</port>
			</output>
		</layer>
		<layer id="121" name="pool2d_0.tmp_0" type="ReduceMean" version="opset1">
			<data keep_dims="true" />
			<input>
				<port id="0" precision="FP32">
					<dim>-1</dim>
					<dim>72</dim>
					<dim>28</dim>
					<dim>28</dim>
				</port>
				<port id="1" precision="I64">
					<dim>2</dim>
				</port>
			</input>
			<output>
				<port id="2" precision="FP32" names="pool2d_0.tmp_0">
					<dim>-1</dim>
					<dim>72</dim>
					<dim>1</dim>
					<dim>1</dim>
				</port>
			</output>
		</layer>
		<layer id="122" name="conv5_se_1_weights" type="Const" version="opset1">
			<data element_type="f32" shape="18, 72, 1, 1" offset="55960" size="5184" />
			<output>
				<port id="0" precision="FP32">
					<dim>18</dim>
					<dim>72</dim>
					<dim>1</dim>
					<dim>1</dim>
				</port>
			</output>
		</layer>
		<layer id="123" name="conv2d_72.tmp_0" type="Convolution" version="opset1">
			<data strides="1, 1" dilations="1, 1" pads_begin="0, 0" pads_end="0, 0" auto_pad="explicit" />
			<input>
				<port id="0" precision="FP32">
					<dim>-1</dim>
					<dim>72</dim>
					<dim>1</dim>
					<dim>1</dim>
				</port>
				<port id="1" precision="FP32">
					<dim>18</dim>
					<dim>72</dim>
					<dim>1</dim>
					<dim>1</dim>
				</port>
			</input>
			<output>
				<port id="2" precision="FP32" names="conv2d_72.tmp_0">
					<dim>-1</dim>
					<dim>18</dim>
					<dim>1</dim>
					<dim>1</dim>
				</port>
			</output>
		</layer>
		<layer id="124" name="conv5_se_1_offset" type="Const" version="opset1">
			<data element_type="f32" shape="18" offset="61144" size="72" />
			<output>
				<port id="0" precision="FP32">
					<dim>18</dim>
				</port>
			</output>
		</layer>
		<layer id="125" name="Constant_32648" type="Const" version="opset1">
			<data element_type="i64" shape="3" offset="61216" size="24" />
			<output>
				<port id="0" precision="I64">
					<dim>3</dim>
				</port>
			</output>
		</layer>
		<layer id="126" name="Unsqueeze_32649" type="Unsqueeze" version="opset1">
			<input>
				<port id="0" precision="FP32">
					<dim>18</dim>
				</port>
				<port id="1" precision="I64">
					<dim>3</dim>
				</port>
			</input>
			<output>
				<port id="2" precision="FP32">
					<dim>1</dim>
					<dim>18</dim>
					<dim>1</dim>
					<dim>1</dim>
				</port>
			</output>
		</layer>
		<layer id="127" name="conv2d_72.tmp_1" type="Add" version="opset1">
			<data auto_broadcast="numpy" />
			<input>
				<port id="0" precision="FP32">
					<dim>-1</dim>
					<dim>18</dim>
					<dim>1</dim>
					<dim>1</dim>
				</port>
				<port id="1" precision="FP32">
					<dim>1</dim>
					<dim>18</dim>
					<dim>1</dim>
					<dim>1</dim>
				</port>
			</input>
			<output>
				<port id="2" precision="FP32" names="conv2d_72.tmp_1">
					<dim>-1</dim>
					<dim>18</dim>
					<dim>1</dim>
					<dim>1</dim>
				</port>
			</output>
		</layer>
		<layer id="128" name="relu_8.tmp_0" type="ReLU" version="opset1">
			<input>
				<port id="0" precision="FP32">
					<dim>-1</dim>
					<dim>18</dim>
					<dim>1</dim>
					<dim>1</dim>
				</port>
			</input>
			<output>
				<port id="1" precision="FP32" names="relu_8.tmp_0">
					<dim>-1</dim>
					<dim>18</dim>
					<dim>1</dim>
					<dim>1</dim>
				</port>
			</output>
		</layer>
		<layer id="129" name="conv5_se_2_weights" type="Const" version="opset1">
			<data element_type="f32" shape="72, 18, 1, 1" offset="61240" size="5184" />
			<output>
				<port id="0" precision="FP32">
					<dim>72</dim>
					<dim>18</dim>
					<dim>1</dim>
					<dim>1</dim>
				</port>
			</output>
		</layer>
		<layer id="130" name="conv2d_73.tmp_0" type="Convolution" version="opset1">
			<data strides="1, 1" dilations="1, 1" pads_begin="0, 0" pads_end="0, 0" auto_pad="explicit" />
			<input>
				<port id="0" precision="FP32">
					<dim>-1</dim>
					<dim>18</dim>
					<dim>1</dim>
					<dim>1</dim>
				</port>
				<port id="1" precision="FP32">
					<dim>72</dim>
					<dim>18</dim>
					<dim>1</dim>
					<dim>1</dim>
				</port>
			</input>
			<output>
				<port id="2" precision="FP32" names="conv2d_73.tmp_0">
					<dim>-1</dim>
					<dim>72</dim>
					<dim>1</dim>
					<dim>1</dim>
				</port>
			</output>
		</layer>
		<layer id="131" name="conv5_se_2_offset" type="Const" version="opset1">
			<data element_type="f32" shape="72" offset="66424" size="288" />
			<output>
				<port id="0" precision="FP32">
					<dim>72</dim>
				</port>
			</output>
		</layer>
		<layer id="132" name="Constant_32653" type="Const" version="opset1">
			<data element_type="i64" shape="3" offset="61216" size="24" />
			<output>
				<port id="0" precision="I64">
					<dim>3</dim>
				</port>
			</output>
		</layer>
		<layer id="133" name="Unsqueeze_32654" type="Unsqueeze" version="opset1">
			<input>
				<port id="0" precision="FP32">
					<dim>72</dim>
				</port>
				<port id="1" precision="I64">
					<dim>3</dim>
				</port>
			</input>
			<output>
				<port id="2" precision="FP32">
					<dim>1</dim>
					<dim>72</dim>
					<dim>1</dim>
					<dim>1</dim>
				</port>
			</output>
		</layer>
		<layer id="134" name="conv2d_73.tmp_1" type="Add" version="opset1">
			<data auto_broadcast="numpy" />
			<input>
				<port id="0" precision="FP32">
					<dim>-1</dim>
					<dim>72</dim>
					<dim>1</dim>
					<dim>1</dim>
				</port>
				<port id="1" precision="FP32">
					<dim>1</dim>
					<dim>72</dim>
					<dim>1</dim>
					<dim>1</dim>
				</port>
			</input>
			<output>
				<port id="2" precision="FP32" names="conv2d_73.tmp_1">
					<dim>-1</dim>
					<dim>72</dim>
					<dim>1</dim>
					<dim>1</dim>
				</port>
			</output>
		</layer>
		<layer id="135" name="Constant_32656" type="Const" version="opset1">
			<data element_type="f32" shape="" offset="66712" size="4" />
			<output>
				<port id="0" precision="FP32" />
			</output>
		</layer>
		<layer id="136" name="Constant_32657" type="Const" version="opset1">
			<data element_type="f32" shape="" offset="66716" size="4" />
			<output>
				<port id="0" precision="FP32" />
			</output>
		</layer>
		<layer id="137" name="hard_sigmoid_0.tmp_0" type="HardSigmoid" version="opset1">
			<input>
				<port id="0" precision="FP32">
					<dim>-1</dim>
					<dim>72</dim>
					<dim>1</dim>
					<dim>1</dim>
				</port>
				<port id="1" precision="FP32" />
				<port id="2" precision="FP32" />
			</input>
			<output>
				<port id="3" precision="FP32" names="hard_sigmoid_0.tmp_0">
					<dim>-1</dim>
					<dim>72</dim>
					<dim>1</dim>
					<dim>1</dim>
				</port>
			</output>
		</layer>
		<layer id="138" name="elementwise_mul_0" type="Multiply" version="opset1">
			<data auto_broadcast="numpy" />
			<input>
				<port id="0" precision="FP32">
					<dim>-1</dim>
					<dim>72</dim>
					<dim>28</dim>
					<dim>28</dim>
				</port>
				<port id="1" precision="FP32">
					<dim>-1</dim>
					<dim>72</dim>
					<dim>1</dim>
					<dim>1</dim>
				</port>
			</input>
			<output>
				<port id="2" precision="FP32" names="elementwise_mul_0">
					<dim>-1</dim>
					<dim>72</dim>
					<dim>28</dim>
					<dim>28</dim>
				</port>
			</output>
		</layer>
		<layer id="139" name="conv5_linear_weights" type="Const" version="opset1">
			<data element_type="f32" shape="40, 72, 1, 1" offset="66720" size="11520" />
			<output>
				<port id="0" precision="FP32">
					<dim>40</dim>
					<dim>72</dim>
					<dim>1</dim>
					<dim>1</dim>
				</port>
			</output>
		</layer>
		<layer id="140" name="conv2d_74.tmp_0" type="Convolution" version="opset1">
			<data strides="1, 1" dilations="1, 1" pads_begin="0, 0" pads_end="0, 0" auto_pad="explicit" />
			<input>
				<port id="0" precision="FP32">
					<dim>-1</dim>
					<dim>72</dim>
					<dim>28</dim>
					<dim>28</dim>
				</port>
				<port id="1" precision="FP32">
					<dim>40</dim>
					<dim>72</dim>
					<dim>1</dim>
					<dim>1</dim>
				</port>
			</input>
			<output>
				<port id="2" precision="FP32" names="conv2d_74.tmp_0">
					<dim>-1</dim>
					<dim>40</dim>
					<dim>28</dim>
					<dim>28</dim>
				</port>
			</output>
		</layer>
		<layer id="141" name="conv5_linear_bn_scale" type="Const" version="opset1">
			<data element_type="f32" shape="40" offset="78240" size="160" />
			<output>
				<port id="0" precision="FP32">
					<dim>40</dim>
				</port>
			</output>
		</layer>
		<layer id="142" name="conv5_linear_bn_offset" type="Const" version="opset1">
			<data element_type="f32" shape="40" offset="78400" size="160" />
			<output>
				<port id="0" precision="FP32">
					<dim>40</dim>
				</port>
			</output>
		</layer>
		<layer id="143" name="conv5_linear_bn_mean" type="Const" version="opset1">
			<data element_type="f32" shape="40" offset="78560" size="160" />
			<output>
				<port id="0" precision="FP32">
					<dim>40</dim>
				</port>
			</output>
		</layer>
		<layer id="144" name="conv5_linear_bn_variance" type="Const" version="opset1">
			<data element_type="f32" shape="40" offset="78720" size="160" />
			<output>
				<port id="0" precision="FP32">
					<dim>40</dim>
				</port>
			</output>
		</layer>
		<layer id="145" name="conv5_linear_bn_mean0" type="BatchNormInference" version="opset5">
			<data epsilon="9.9999997473787516e-06" />
			<input>
				<port id="0" precision="FP32">
					<dim>-1</dim>
					<dim>40</dim>
					<dim>28</dim>
					<dim>28</dim>
				</port>
				<port id="1" precision="FP32">
					<dim>40</dim>
				</port>
				<port id="2" precision="FP32">
					<dim>40</dim>
				</port>
				<port id="3" precision="FP32">
					<dim>40</dim>
				</port>
				<port id="4" precision="FP32">
					<dim>40</dim>
				</port>
			</input>
			<output>
				<port id="5" precision="FP32" names="batch_norm_12.tmp_2">
					<dim>-1</dim>
					<dim>40</dim>
					<dim>28</dim>
					<dim>28</dim>
				</port>
			</output>
		</layer>
		<layer id="146" name="conv6_expand_weights" type="Const" version="opset1">
			<data element_type="f32" shape="120, 40, 1, 1" offset="78880" size="19200" />
			<output>
				<port id="0" precision="FP32">
					<dim>120</dim>
					<dim>40</dim>
					<dim>1</dim>
					<dim>1</dim>
				</port>
			</output>
		</layer>
		<layer id="147" name="conv2d_75.tmp_0" type="Convolution" version="opset1">
			<data strides="1, 1" dilations="1, 1" pads_begin="0, 0" pads_end="0, 0" auto_pad="explicit" />
			<input>
				<port id="0" precision="FP32">
					<dim>-1</dim>
					<dim>40</dim>
					<dim>28</dim>
					<dim>28</dim>
				</port>
				<port id="1" precision="FP32">
					<dim>120</dim>
					<dim>40</dim>
					<dim>1</dim>
					<dim>1</dim>
				</port>
			</input>
			<output>
				<port id="2" precision="FP32" names="conv2d_75.tmp_0">
					<dim>-1</dim>
					<dim>120</dim>
					<dim>28</dim>
					<dim>28</dim>
				</port>
			</output>
		</layer>
		<layer id="148" name="conv6_expand_bn_scale" type="Const" version="opset1">
			<data element_type="f32" shape="120" offset="98080" size="480" />
			<output>
				<port id="0" precision="FP32">
					<dim>120</dim>
				</port>
			</output>
		</layer>
		<layer id="149" name="conv6_expand_bn_offset" type="Const" version="opset1">
			<data element_type="f32" shape="120" offset="98560" size="480" />
			<output>
				<port id="0" precision="FP32">
					<dim>120</dim>
				</port>
			</output>
		</layer>
		<layer id="150" name="conv6_expand_bn_mean" type="Const" version="opset1">
			<data element_type="f32" shape="120" offset="99040" size="480" />
			<output>
				<port id="0" precision="FP32">
					<dim>120</dim>
				</port>
			</output>
		</layer>
		<layer id="151" name="conv6_expand_bn_variance" type="Const" version="opset1">
			<data element_type="f32" shape="120" offset="99520" size="480" />
			<output>
				<port id="0" precision="FP32">
					<dim>120</dim>
				</port>
			</output>
		</layer>
		<layer id="152" name="conv6_expand_bn_mean0" type="BatchNormInference" version="opset5">
			<data epsilon="9.9999997473787516e-06" />
			<input>
				<port id="0" precision="FP32">
					<dim>-1</dim>
					<dim>120</dim>
					<dim>28</dim>
					<dim>28</dim>
				</port>
				<port id="1" precision="FP32">
					<dim>120</dim>
				</port>
				<port id="2" precision="FP32">
					<dim>120</dim>
				</port>
				<port id="3" precision="FP32">
					<dim>120</dim>
				</port>
				<port id="4" precision="FP32">
					<dim>120</dim>
				</port>
			</input>
			<output>
				<port id="5" precision="FP32" names="batch_norm_13.tmp_2">
					<dim>-1</dim>
					<dim>120</dim>
					<dim>28</dim>
					<dim>28</dim>
				</port>
			</output>
		</layer>
		<layer id="153" name="relu_9.tmp_0" type="ReLU" version="opset1">
			<input>
				<port id="0" precision="FP32">
					<dim>-1</dim>
					<dim>120</dim>
					<dim>28</dim>
					<dim>28</dim>
				</port>
			</input>
			<output>
				<port id="1" precision="FP32" names="relu_9.tmp_0">
					<dim>-1</dim>
					<dim>120</dim>
					<dim>28</dim>
					<dim>28</dim>
				</port>
			</output>
		</layer>
		<layer id="154" name="conv6_depthwise_weights" type="Const" version="opset1">
			<data element_type="f32" shape="120, 1, 5, 5" offset="100000" size="12000" />
			<output>
				<port id="0" precision="FP32">
					<dim>120</dim>
					<dim>1</dim>
					<dim>5</dim>
					<dim>5</dim>
				</port>
			</output>
		</layer>
		<layer id="155" name="Constant_32677" type="Const" version="opset1">
			<data element_type="i64" shape="1" offset="112000" size="8" />
			<output>
				<port id="0" precision="I64">
					<dim>1</dim>
				</port>
			</output>
		</layer>
		<layer id="156" name="Constant_32670" type="Const" version="opset1">
			<data element_type="i64" shape="1" offset="112000" size="8" />
			<output>
				<port id="0" precision="I64">
					<dim>1</dim>
				</port>
			</output>
		</layer>
		<layer id="157" name="Divide_32678" type="Divide" version="opset1">
			<data auto_broadcast="numpy" m_pythondiv="true" />
			<input>
				<port id="0" precision="I64">
					<dim>1</dim>
				</port>
				<port id="1" precision="I64">
					<dim>1</dim>
				</port>
			</input>
			<output>
				<port id="2" precision="I64">
					<dim>1</dim>
				</port>
			</output>
		</layer>
		<layer id="158" name="Constant_32676" type="Const" version="opset1">
			<data element_type="i64" shape="3" offset="54768" size="24" />
			<output>
				<port id="0" precision="I64">
					<dim>3</dim>
				</port>
			</output>
		</layer>
		<layer id="159" name="Concat_32679" type="Concat" version="opset1">
			<data axis="0" />
			<input>
				<port id="0" precision="I64">
					<dim>1</dim>
				</port>
				<port id="1" precision="I64">
					<dim>1</dim>
				</port>
				<port id="2" precision="I64">
					<dim>3</dim>
				</port>
			</input>
			<output>
				<port id="3" precision="I64">
					<dim>5</dim>
				</port>
			</output>
		</layer>
		<layer id="160" name="Reshape_32680" type="Reshape" version="opset1">
			<data special_zero="false" />
			<input>
				<port id="0" precision="FP32">
					<dim>120</dim>
					<dim>1</dim>
					<dim>5</dim>
					<dim>5</dim>
				</port>
				<port id="1" precision="I64">
					<dim>5</dim>
				</port>
			</input>
			<output>
				<port id="2" precision="FP32">
					<dim>120</dim>
					<dim>1</dim>
					<dim>1</dim>
					<dim>5</dim>
					<dim>5</dim>
				</port>
			</output>
		</layer>
		<layer id="161" name="depthwise_conv2d_4.tmp_0" type="GroupConvolution" version="opset1">
			<data strides="1, 1" pads_begin="2, 2" pads_end="2, 2" dilations="1, 1" auto_pad="explicit" />
			<input>
				<port id="0" precision="FP32">
					<dim>-1</dim>
					<dim>120</dim>
					<dim>28</dim>
					<dim>28</dim>
				</port>
				<port id="1" precision="FP32">
					<dim>120</dim>
					<dim>1</dim>
					<dim>1</dim>
					<dim>5</dim>
					<dim>5</dim>
				</port>
			</input>
			<output>
				<port id="2" precision="FP32" names="depthwise_conv2d_4.tmp_0">
					<dim>-1</dim>
					<dim>120</dim>
					<dim>28</dim>
					<dim>28</dim>
				</port>
			</output>
		</layer>
		<layer id="162" name="conv6_depthwise_bn_scale" type="Const" version="opset1">
			<data element_type="f32" shape="120" offset="112008" size="480" />
			<output>
				<port id="0" precision="FP32">
					<dim>120</dim>
				</port>
			</output>
		</layer>
		<layer id="163" name="conv6_depthwise_bn_offset" type="Const" version="opset1">
			<data element_type="f32" shape="120" offset="112488" size="480" />
			<output>
				<port id="0" precision="FP32">
					<dim>120</dim>
				</port>
			</output>
		</layer>
		<layer id="164" name="conv6_depthwise_bn_mean" type="Const" version="opset1">
			<data element_type="f32" shape="120" offset="112968" size="480" />
			<output>
				<port id="0" precision="FP32">
					<dim>120</dim>
				</port>
			</output>
		</layer>
		<layer id="165" name="conv6_depthwise_bn_variance" type="Const" version="opset1">
			<data element_type="f32" shape="120" offset="113448" size="480" />
			<output>
				<port id="0" precision="FP32">
					<dim>120</dim>
				</port>
			</output>
		</layer>
		<layer id="166" name="conv6_depthwise_bn_mean0" type="BatchNormInference" version="opset5">
			<data epsilon="9.9999997473787516e-06" />
			<input>
				<port id="0" precision="FP32">
					<dim>-1</dim>
					<dim>120</dim>
					<dim>28</dim>
					<dim>28</dim>
				</port>
				<port id="1" precision="FP32">
					<dim>120</dim>
				</port>
				<port id="2" precision="FP32">
					<dim>120</dim>
				</port>
				<port id="3" precision="FP32">
					<dim>120</dim>
				</port>
				<port id="4" precision="FP32">
					<dim>120</dim>
				</port>
			</input>
			<output>
				<port id="5" precision="FP32" names="batch_norm_14.tmp_2">
					<dim>-1</dim>
					<dim>120</dim>
					<dim>28</dim>
					<dim>28</dim>
				</port>
			</output>
		</layer>
		<layer id="167" name="relu_10.tmp_0" type="ReLU" version="opset1">
			<input>
				<port id="0" precision="FP32">
					<dim>-1</dim>
					<dim>120</dim>
					<dim>28</dim>
					<dim>28</dim>
				</port>
			</input>
			<output>
				<port id="1" precision="FP32" names="relu_10.tmp_0">
					<dim>-1</dim>
					<dim>120</dim>
					<dim>28</dim>
					<dim>28</dim>
				</port>
			</output>
		</layer>
		<layer id="168" name="Constant_32721" type="Const" version="opset1">
			<data element_type="i64" shape="2" offset="55944" size="16" />
			<output>
				<port id="0" precision="I64">
					<dim>2</dim>
				</port>
			</output>
		</layer>
		<layer id="169" name="pool2d_1.tmp_0" type="ReduceMean" version="opset1">
			<data keep_dims="true" />
			<input>
				<port id="0" precision="FP32">
					<dim>-1</dim>
					<dim>120</dim>
					<dim>28</dim>
					<dim>28</dim>
				</port>
				<port id="1" precision="I64">
					<dim>2</dim>
				</port>
			</input>
			<output>
				<port id="2" precision="FP32" names="pool2d_1.tmp_0">
					<dim>-1</dim>
					<dim>120</dim>
					<dim>1</dim>
					<dim>1</dim>
				</port>
			</output>
		</layer>
		<layer id="170" name="conv6_se_1_weights" type="Const" version="opset1">
			<data element_type="f32" shape="30, 120, 1, 1" offset="113928" size="14400" />
			<output>
				<port id="0" precision="FP32">
					<dim>30</dim>
					<dim>120</dim>
					<dim>1</dim>
					<dim>1</dim>
				</port>
			</output>
		</layer>
		<layer id="171" name="conv2d_76.tmp_0" type="Convolution" version="opset1">
			<data strides="1, 1" dilations="1, 1" pads_begin="0, 0" pads_end="0, 0" auto_pad="explicit" />
			<input>
				<port id="0" precision="FP32">
					<dim>-1</dim>
					<dim>120</dim>
					<dim>1</dim>
					<dim>1</dim>
				</port>
				<port id="1" precision="FP32">
					<dim>30</dim>
					<dim>120</dim>
					<dim>1</dim>
					<dim>1</dim>
				</port>
			</input>
			<output>
				<port id="2" precision="FP32" names="conv2d_76.tmp_0">
					<dim>-1</dim>
					<dim>30</dim>
					<dim>1</dim>
					<dim>1</dim>
				</port>
			</output>
		</layer>
		<layer id="172" name="conv6_se_1_offset" type="Const" version="opset1">
			<data element_type="f32" shape="30" offset="128328" size="120" />
			<output>
				<port id="0" precision="FP32">
					<dim>30</dim>
				</port>
			</output>
		</layer>
		<layer id="173" name="Constant_32724" type="Const" version="opset1">
			<data element_type="i64" shape="3" offset="61216" size="24" />
			<output>
				<port id="0" precision="I64">
					<dim>3</dim>
				</port>
			</output>
		</layer>
		<layer id="174" name="Unsqueeze_32725" type="Unsqueeze" version="opset1">
			<input>
				<port id="0" precision="FP32">
					<dim>30</dim>
				</port>
				<port id="1" precision="I64">
					<dim>3</dim>
				</port>
			</input>
			<output>
				<port id="2" precision="FP32">
					<dim>1</dim>
					<dim>30</dim>
					<dim>1</dim>
					<dim>1</dim>
				</port>
			</output>
		</layer>
		<layer id="175" name="conv2d_76.tmp_1" type="Add" version="opset1">
			<data auto_broadcast="numpy" />
			<input>
				<port id="0" precision="FP32">
					<dim>-1</dim>
					<dim>30</dim>
					<dim>1</dim>
					<dim>1</dim>
				</port>
				<port id="1" precision="FP32">
					<dim>1</dim>
					<dim>30</dim>
					<dim>1</dim>
					<dim>1</dim>
				</port>
			</input>
			<output>
				<port id="2" precision="FP32" names="conv2d_76.tmp_1">
					<dim>-1</dim>
					<dim>30</dim>
					<dim>1</dim>
					<dim>1</dim>
				</port>
			</output>
		</layer>
		<layer id="176" name="relu_11.tmp_0" type="ReLU" version="opset1">
			<input>
				<port id="0" precision="FP32">
					<dim>-1</dim>
					<dim>30</dim>
					<dim>1</dim>
					<dim>1</dim>
				</port>
			</input>
			<output>
				<port id="1" precision="FP32" names="relu_11.tmp_0">
					<dim>-1</dim>
					<dim>30</dim>
					<dim>1</dim>
					<dim>1</dim>
				</port>
			</output>
		</layer>
		<layer id="177" name="conv6_se_2_weights" type="Const" version="opset1">
			<data element_type="f32" shape="120, 30, 1, 1" offset="128448" size="14400" />
			<output>
				<port id="0" precision="FP32">
					<dim>120</dim>
					<dim>30</dim>
					<dim>1</dim>
					<dim>1</dim>
				</port>
			</output>
		</layer>
		<layer id="178" name="conv2d_77.tmp_0" type="Convolution" version="opset1">
			<data strides="1, 1" dilations="1, 1" pads_begin="0, 0" pads_end="0, 0" auto_pad="explicit" />
			<input>
				<port id="0" precision="FP32">
					<dim>-1</dim>
					<dim>30</dim>
					<dim>1</dim>
					<dim>1</dim>
				</port>
				<port id="1" precision="FP32">
					<dim>120</dim>
					<dim>30</dim>
					<dim>1</dim>
					<dim>1</dim>
				</port>
			</input>
			<output>
				<port id="2" precision="FP32" names="conv2d_77.tmp_0">
					<dim>-1</dim>
					<dim>120</dim>
					<dim>1</dim>
					<dim>1</dim>
				</port>
			</output>
		</layer>
		<layer id="179" name="conv6_se_2_offset" type="Const" version="opset1">
			<data element_type="f32" shape="120" offset="142848" size="480" />
			<output>
				<port id="0" precision="FP32">
					<dim>120</dim>
				</port>
			</output>
		</layer>
		<layer id="180" name="Constant_32729" type="Const" version="opset1">
			<data element_type="i64" shape="3" offset="61216" size="24" />
			<output>
				<port id="0" precision="I64">
					<dim>3</dim>
				</port>
			</output>
		</layer>
		<layer id="181" name="Unsqueeze_32730" type="Unsqueeze" version="opset1">
			<input>
				<port id="0" precision="FP32">
					<dim>120</dim>
				</port>
				<port id="1" precision="I64">
					<dim>3</dim>
				</port>
			</input>
			<output>
				<port id="2" precision="FP32">
					<dim>1</dim>
					<dim>120</dim>
					<dim>1</dim>
					<dim>1</dim>
				</port>
			</output>
		</layer>
		<layer id="182" name="conv2d_77.tmp_1" type="Add" version="opset1">
			<data auto_broadcast="numpy" />
			<input>
				<port id="0" precision="FP32">
					<dim>-1</dim>
					<dim>120</dim>
					<dim>1</dim>
					<dim>1</dim>
				</port>
				<port id="1" precision="FP32">
					<dim>1</dim>
					<dim>120</dim>
					<dim>1</dim>
					<dim>1</dim>
				</port>
			</input>
			<output>
				<port id="2" precision="FP32" names="conv2d_77.tmp_1">
					<dim>-1</dim>
					<dim>120</dim>
					<dim>1</dim>
					<dim>1</dim>
				</port>
			</output>
		</layer>
		<layer id="183" name="Constant_32732" type="Const" version="opset1">
			<data element_type="f32" shape="" offset="66712" size="4" />
			<output>
				<port id="0" precision="FP32" />
			</output>
		</layer>
		<layer id="184" name="Constant_32733" type="Const" version="opset1">
			<data element_type="f32" shape="" offset="66716" size="4" />
			<output>
				<port id="0" precision="FP32" />
			</output>
		</layer>
		<layer id="185" name="hard_sigmoid_1.tmp_0" type="HardSigmoid" version="opset1">
			<input>
				<port id="0" precision="FP32">
					<dim>-1</dim>
					<dim>120</dim>
					<dim>1</dim>
					<dim>1</dim>
				</port>
				<port id="1" precision="FP32" />
				<port id="2" precision="FP32" />
			</input>
			<output>
				<port id="3" precision="FP32" names="hard_sigmoid_1.tmp_0">
					<dim>-1</dim>
					<dim>120</dim>
					<dim>1</dim>
					<dim>1</dim>
				</port>
			</output>
		</layer>
		<layer id="186" name="elementwise_mul_1" type="Multiply" version="opset1">
			<data auto_broadcast="numpy" />
			<input>
				<port id="0" precision="FP32">
					<dim>-1</dim>
					<dim>120</dim>
					<dim>28</dim>
					<dim>28</dim>
				</port>
				<port id="1" precision="FP32">
					<dim>-1</dim>
					<dim>120</dim>
					<dim>1</dim>
					<dim>1</dim>
				</port>
			</input>
			<output>
				<port id="2" precision="FP32" names="elementwise_mul_1">
					<dim>-1</dim>
					<dim>120</dim>
					<dim>28</dim>
					<dim>28</dim>
				</port>
			</output>
		</layer>
		<layer id="187" name="conv6_linear_weights" type="Const" version="opset1">
			<data element_type="f32" shape="40, 120, 1, 1" offset="143328" size="19200" />
			<output>
				<port id="0" precision="FP32">
					<dim>40</dim>
					<dim>120</dim>
					<dim>1</dim>
					<dim>1</dim>
				</port>
			</output>
		</layer>
		<layer id="188" name="conv2d_78.tmp_0" type="Convolution" version="opset1">
			<data strides="1, 1" dilations="1, 1" pads_begin="0, 0" pads_end="0, 0" auto_pad="explicit" />
			<input>
				<port id="0" precision="FP32">
					<dim>-1</dim>
					<dim>120</dim>
					<dim>28</dim>
					<dim>28</dim>
				</port>
				<port id="1" precision="FP32">
					<dim>40</dim>
					<dim>120</dim>
					<dim>1</dim>
					<dim>1</dim>
				</port>
			</input>
			<output>
				<port id="2" precision="FP32" names="conv2d_78.tmp_0">
					<dim>-1</dim>
					<dim>40</dim>
					<dim>28</dim>
					<dim>28</dim>
				</port>
			</output>
		</layer>
		<layer id="189" name="conv6_linear_bn_scale" type="Const" version="opset1">
			<data element_type="f32" shape="40" offset="162528" size="160" />
			<output>
				<port id="0" precision="FP32">
					<dim>40</dim>
				</port>
			</output>
		</layer>
		<layer id="190" name="conv6_linear_bn_offset" type="Const" version="opset1">
			<data element_type="f32" shape="40" offset="162688" size="160" />
			<output>
				<port id="0" precision="FP32">
					<dim>40</dim>
				</port>
			</output>
		</layer>
		<layer id="191" name="conv6_linear_bn_mean" type="Const" version="opset1">
			<data element_type="f32" shape="40" offset="162848" size="160" />
			<output>
				<port id="0" precision="FP32">
					<dim>40</dim>
				</port>
			</output>
		</layer>
		<layer id="192" name="conv6_linear_bn_variance" type="Const" version="opset1">
			<data element_type="f32" shape="40" offset="163008" size="160" />
			<output>
				<port id="0" precision="FP32">
					<dim>40</dim>
				</port>
			</output>
		</layer>
		<layer id="193" name="conv6_linear_bn_mean0" type="BatchNormInference" version="opset5">
			<data epsilon="9.9999997473787516e-06" />
			<input>
				<port id="0" precision="FP32">
					<dim>-1</dim>
					<dim>40</dim>
					<dim>28</dim>
					<dim>28</dim>
				</port>
				<port id="1" precision="FP32">
					<dim>40</dim>
				</port>
				<port id="2" precision="FP32">
					<dim>40</dim>
				</port>
				<port id="3" precision="FP32">
					<dim>40</dim>
				</port>
				<port id="4" precision="FP32">
					<dim>40</dim>
				</port>
			</input>
			<output>
				<port id="5" precision="FP32" names="batch_norm_15.tmp_2">
					<dim>-1</dim>
					<dim>40</dim>
					<dim>28</dim>
					<dim>28</dim>
				</port>
			</output>
		</layer>
		<layer id="194" name="elementwise_add_2" type="Add" version="opset1">
			<data auto_broadcast="numpy" />
			<input>
				<port id="0" precision="FP32">
					<dim>-1</dim>
					<dim>40</dim>
					<dim>28</dim>
					<dim>28</dim>
				</port>
				<port id="1" precision="FP32">
					<dim>-1</dim>
					<dim>40</dim>
					<dim>28</dim>
					<dim>28</dim>
				</port>
			</input>
			<output>
				<port id="2" precision="FP32" names="elementwise_add_2">
					<dim>-1</dim>
					<dim>40</dim>
					<dim>28</dim>
					<dim>28</dim>
				</port>
			</output>
		</layer>
		<layer id="195" name="conv7_expand_weights" type="Const" version="opset1">
			<data element_type="f32" shape="120, 40, 1, 1" offset="163168" size="19200" />
			<output>
				<port id="0" precision="FP32">
					<dim>120</dim>
					<dim>40</dim>
					<dim>1</dim>
					<dim>1</dim>
				</port>
			</output>
		</layer>
		<layer id="196" name="conv2d_79.tmp_0" type="Convolution" version="opset1">
			<data strides="1, 1" dilations="1, 1" pads_begin="0, 0" pads_end="0, 0" auto_pad="explicit" />
			<input>
				<port id="0" precision="FP32">
					<dim>-1</dim>
					<dim>40</dim>
					<dim>28</dim>
					<dim>28</dim>
				</port>
				<port id="1" precision="FP32">
					<dim>120</dim>
					<dim>40</dim>
					<dim>1</dim>
					<dim>1</dim>
				</port>
			</input>
			<output>
				<port id="2" precision="FP32" names="conv2d_79.tmp_0">
					<dim>-1</dim>
					<dim>120</dim>
					<dim>28</dim>
					<dim>28</dim>
				</port>
			</output>
		</layer>
		<layer id="197" name="conv7_expand_bn_scale" type="Const" version="opset1">
			<data element_type="f32" shape="120" offset="182368" size="480" />
			<output>
				<port id="0" precision="FP32">
					<dim>120</dim>
				</port>
			</output>
		</layer>
		<layer id="198" name="conv7_expand_bn_offset" type="Const" version="opset1">
			<data element_type="f32" shape="120" offset="182848" size="480" />
			<output>
				<port id="0" precision="FP32">
					<dim>120</dim>
				</port>
			</output>
		</layer>
		<layer id="199" name="conv7_expand_bn_mean" type="Const" version="opset1">
			<data element_type="f32" shape="120" offset="183328" size="480" />
			<output>
				<port id="0" precision="FP32">
					<dim>120</dim>
				</port>
			</output>
		</layer>
		<layer id="200" name="conv7_expand_bn_variance" type="Const" version="opset1">
			<data element_type="f32" shape="120" offset="183808" size="480" />
			<output>
				<port id="0" precision="FP32">
					<dim>120</dim>
				</port>
			</output>
		</layer>
		<layer id="201" name="conv7_expand_bn_mean0" type="BatchNormInference" version="opset5">
			<data epsilon="9.9999997473787516e-06" />
			<input>
				<port id="0" precision="FP32">
					<dim>-1</dim>
					<dim>120</dim>
					<dim>28</dim>
					<dim>28</dim>
				</port>
				<port id="1" precision="FP32">
					<dim>120</dim>
				</port>
				<port id="2" precision="FP32">
					<dim>120</dim>
				</port>
				<port id="3" precision="FP32">
					<dim>120</dim>
				</port>
				<port id="4" precision="FP32">
					<dim>120</dim>
				</port>
			</input>
			<output>
				<port id="5" precision="FP32" names="batch_norm_16.tmp_2">
					<dim>-1</dim>
					<dim>120</dim>
					<dim>28</dim>
					<dim>28</dim>
				</port>
			</output>
		</layer>
		<layer id="202" name="relu_12.tmp_0" type="ReLU" version="opset1">
			<input>
				<port id="0" precision="FP32">
					<dim>-1</dim>
					<dim>120</dim>
					<dim>28</dim>
					<dim>28</dim>
				</port>
			</input>
			<output>
				<port id="1" precision="FP32" names="relu_12.tmp_0">
					<dim>-1</dim>
					<dim>120</dim>
					<dim>28</dim>
					<dim>28</dim>
				</port>
			</output>
		</layer>
		<layer id="203" name="conv7_depthwise_weights" type="Const" version="opset1">
			<data element_type="f32" shape="120, 1, 5, 5" offset="184288" size="12000" />
			<output>
				<port id="0" precision="FP32">
					<dim>120</dim>
					<dim>1</dim>
					<dim>5</dim>
					<dim>5</dim>
				</port>
			</output>
		</layer>
		<layer id="204" name="Constant_32754" type="Const" version="opset1">
			<data element_type="i64" shape="1" offset="112000" size="8" />
			<output>
				<port id="0" precision="I64">
					<dim>1</dim>
				</port>
			</output>
		</layer>
		<layer id="205" name="Constant_32747" type="Const" version="opset1">
			<data element_type="i64" shape="1" offset="112000" size="8" />
			<output>
				<port id="0" precision="I64">
					<dim>1</dim>
				</port>
			</output>
		</layer>
		<layer id="206" name="Divide_32755" type="Divide" version="opset1">
			<data auto_broadcast="numpy" m_pythondiv="true" />
			<input>
				<port id="0" precision="I64">
					<dim>1</dim>
				</port>
				<port id="1" precision="I64">
					<dim>1</dim>
				</port>
			</input>
			<output>
				<port id="2" precision="I64">
					<dim>1</dim>
				</port>
			</output>
		</layer>
		<layer id="207" name="Constant_32753" type="Const" version="opset1">
			<data element_type="i64" shape="3" offset="54768" size="24" />
			<output>
				<port id="0" precision="I64">
					<dim>3</dim>
				</port>
			</output>
		</layer>
		<layer id="208" name="Concat_32756" type="Concat" version="opset1">
			<data axis="0" />
			<input>
				<port id="0" precision="I64">
					<dim>1</dim>
				</port>
				<port id="1" precision="I64">
					<dim>1</dim>
				</port>
				<port id="2" precision="I64">
					<dim>3</dim>
				</port>
			</input>
			<output>
				<port id="3" precision="I64">
					<dim>5</dim>
				</port>
			</output>
		</layer>
		<layer id="209" name="Reshape_32757" type="Reshape" version="opset1">
			<data special_zero="false" />
			<input>
				<port id="0" precision="FP32">
					<dim>120</dim>
					<dim>1</dim>
					<dim>5</dim>
					<dim>5</dim>
				</port>
				<port id="1" precision="I64">
					<dim>5</dim>
				</port>
			</input>
			<output>
				<port id="2" precision="FP32">
					<dim>120</dim>
					<dim>1</dim>
					<dim>1</dim>
					<dim>5</dim>
					<dim>5</dim>
				</port>
			</output>
		</layer>
		<layer id="210" name="depthwise_conv2d_5.tmp_0" type="GroupConvolution" version="opset1">
			<data strides="1, 1" pads_begin="2, 2" pads_end="2, 2" dilations="1, 1" auto_pad="explicit" />
			<input>
				<port id="0" precision="FP32">
					<dim>-1</dim>
					<dim>120</dim>
					<dim>28</dim>
					<dim>28</dim>
				</port>
				<port id="1" precision="FP32">
					<dim>120</dim>
					<dim>1</dim>
					<dim>1</dim>
					<dim>5</dim>
					<dim>5</dim>
				</port>
			</input>
			<output>
				<port id="2" precision="FP32" names="depthwise_conv2d_5.tmp_0">
					<dim>-1</dim>
					<dim>120</dim>
					<dim>28</dim>
					<dim>28</dim>
				</port>
			</output>
		</layer>
		<layer id="211" name="conv7_depthwise_bn_scale" type="Const" version="opset1">
			<data element_type="f32" shape="120" offset="196288" size="480" />
			<output>
				<port id="0" precision="FP32">
					<dim>120</dim>
				</port>
			</output>
		</layer>
		<layer id="212" name="conv7_depthwise_bn_offset" type="Const" version="opset1">
			<data element_type="f32" shape="120" offset="196768" size="480" />
			<output>
				<port id="0" precision="FP32">
					<dim>120</dim>
				</port>
			</output>
		</layer>
		<layer id="213" name="conv7_depthwise_bn_mean" type="Const" version="opset1">
			<data element_type="f32" shape="120" offset="197248" size="480" />
			<output>
				<port id="0" precision="FP32">
					<dim>120</dim>
				</port>
			</output>
		</layer>
		<layer id="214" name="conv7_depthwise_bn_variance" type="Const" version="opset1">
			<data element_type="f32" shape="120" offset="197728" size="480" />
			<output>
				<port id="0" precision="FP32">
					<dim>120</dim>
				</port>
			</output>
		</layer>
		<layer id="215" name="conv7_depthwise_bn_mean0" type="BatchNormInference" version="opset5">
			<data epsilon="9.9999997473787516e-06" />
			<input>
				<port id="0" precision="FP32">
					<dim>-1</dim>
					<dim>120</dim>
					<dim>28</dim>
					<dim>28</dim>
				</port>
				<port id="1" precision="FP32">
					<dim>120</dim>
				</port>
				<port id="2" precision="FP32">
					<dim>120</dim>
				</port>
				<port id="3" precision="FP32">
					<dim>120</dim>
				</port>
				<port id="4" precision="FP32">
					<dim>120</dim>
				</port>
			</input>
			<output>
				<port id="5" precision="FP32" names="batch_norm_17.tmp_2">
					<dim>-1</dim>
					<dim>120</dim>
					<dim>28</dim>
					<dim>28</dim>
				</port>
			</output>
		</layer>
		<layer id="216" name="relu_13.tmp_0" type="ReLU" version="opset1">
			<input>
				<port id="0" precision="FP32">
					<dim>-1</dim>
					<dim>120</dim>
					<dim>28</dim>
					<dim>28</dim>
				</port>
			</input>
			<output>
				<port id="1" precision="FP32" names="relu_13.tmp_0">
					<dim>-1</dim>
					<dim>120</dim>
					<dim>28</dim>
					<dim>28</dim>
				</port>
			</output>
		</layer>
		<layer id="217" name="Constant_32798" type="Const" version="opset1">
			<data element_type="i64" shape="2" offset="55944" size="16" />
			<output>
				<port id="0" precision="I64">
					<dim>2</dim>
				</port>
			</output>
		</layer>
		<layer id="218" name="pool2d_2.tmp_0" type="ReduceMean" version="opset1">
			<data keep_dims="true" />
			<input>
				<port id="0" precision="FP32">
					<dim>-1</dim>
					<dim>120</dim>
					<dim>28</dim>
					<dim>28</dim>
				</port>
				<port id="1" precision="I64">
					<dim>2</dim>
				</port>
			</input>
			<output>
				<port id="2" precision="FP32" names="pool2d_2.tmp_0">
					<dim>-1</dim>
					<dim>120</dim>
					<dim>1</dim>
					<dim>1</dim>
				</port>
			</output>
		</layer>
		<layer id="219" name="conv7_se_1_weights" type="Const" version="opset1">
			<data element_type="f32" shape="30, 120, 1, 1" offset="198208" size="14400" />
			<output>
				<port id="0" precision="FP32">
					<dim>30</dim>
					<dim>120</dim>
					<dim>1</dim>
					<dim>1</dim>
				</port>
			</output>
		</layer>
		<layer id="220" name="conv2d_80.tmp_0" type="Convolution" version="opset1">
			<data strides="1, 1" dilations="1, 1" pads_begin="0, 0" pads_end="0, 0" auto_pad="explicit" />
			<input>
				<port id="0" precision="FP32">
					<dim>-1</dim>
					<dim>120</dim>
					<dim>1</dim>
					<dim>1</dim>
				</port>
				<port id="1" precision="FP32">
					<dim>30</dim>
					<dim>120</dim>
					<dim>1</dim>
					<dim>1</dim>
				</port>
			</input>
			<output>
				<port id="2" precision="FP32" names="conv2d_80.tmp_0">
					<dim>-1</dim>
					<dim>30</dim>
					<dim>1</dim>
					<dim>1</dim>
				</port>
			</output>
		</layer>
		<layer id="221" name="conv7_se_1_offset" type="Const" version="opset1">
			<data element_type="f32" shape="30" offset="212608" size="120" />
			<output>
				<port id="0" precision="FP32">
					<dim>30</dim>
				</port>
			</output>
		</layer>
		<layer id="222" name="Constant_32801" type="Const" version="opset1">
			<data element_type="i64" shape="3" offset="61216" size="24" />
			<output>
				<port id="0" precision="I64">
					<dim>3</dim>
				</port>
			</output>
		</layer>
		<layer id="223" name="Unsqueeze_32802" type="Unsqueeze" version="opset1">
			<input>
				<port id="0" precision="FP32">
					<dim>30</dim>
				</port>
				<port id="1" precision="I64">
					<dim>3</dim>
				</port>
			</input>
			<output>
				<port id="2" precision="FP32">
					<dim>1</dim>
					<dim>30</dim>
					<dim>1</dim>
					<dim>1</dim>
				</port>
			</output>
		</layer>
		<layer id="224" name="conv2d_80.tmp_1" type="Add" version="opset1">
			<data auto_broadcast="numpy" />
			<input>
				<port id="0" precision="FP32">
					<dim>-1</dim>
					<dim>30</dim>
					<dim>1</dim>
					<dim>1</dim>
				</port>
				<port id="1" precision="FP32">
					<dim>1</dim>
					<dim>30</dim>
					<dim>1</dim>
					<dim>1</dim>
				</port>
			</input>
			<output>
				<port id="2" precision="FP32" names="conv2d_80.tmp_1">
					<dim>-1</dim>
					<dim>30</dim>
					<dim>1</dim>
					<dim>1</dim>
				</port>
			</output>
		</layer>
		<layer id="225" name="relu_14.tmp_0" type="ReLU" version="opset1">
			<input>
				<port id="0" precision="FP32">
					<dim>-1</dim>
					<dim>30</dim>
					<dim>1</dim>
					<dim>1</dim>
				</port>
			</input>
			<output>
				<port id="1" precision="FP32" names="relu_14.tmp_0">
					<dim>-1</dim>
					<dim>30</dim>
					<dim>1</dim>
					<dim>1</dim>
				</port>
			</output>
		</layer>
		<layer id="226" name="conv7_se_2_weights" type="Const" version="opset1">
			<data element_type="f32" shape="120, 30, 1, 1" offset="212728" size="14400" />
			<output>
				<port id="0" precision="FP32">
					<dim>120</dim>
					<dim>30</dim>
					<dim>1</dim>
					<dim>1</dim>
				</port>
			</output>
		</layer>
		<layer id="227" name="conv2d_81.tmp_0" type="Convolution" version="opset1">
			<data strides="1, 1" dilations="1, 1" pads_begin="0, 0" pads_end="0, 0" auto_pad="explicit" />
			<input>
				<port id="0" precision="FP32">
					<dim>-1</dim>
					<dim>30</dim>
					<dim>1</dim>
					<dim>1</dim>
				</port>
				<port id="1" precision="FP32">
					<dim>120</dim>
					<dim>30</dim>
					<dim>1</dim>
					<dim>1</dim>
				</port>
			</input>
			<output>
				<port id="2" precision="FP32" names="conv2d_81.tmp_0">
					<dim>-1</dim>
					<dim>120</dim>
					<dim>1</dim>
					<dim>1</dim>
				</port>
			</output>
		</layer>
		<layer id="228" name="conv7_se_2_offset" type="Const" version="opset1">
			<data element_type="f32" shape="120" offset="227128" size="480" />
			<output>
				<port id="0" precision="FP32">
					<dim>120</dim>
				</port>
			</output>
		</layer>
		<layer id="229" name="Constant_32806" type="Const" version="opset1">
			<data element_type="i64" shape="3" offset="61216" size="24" />
			<output>
				<port id="0" precision="I64">
					<dim>3</dim>
				</port>
			</output>
		</layer>
		<layer id="230" name="Unsqueeze_32807" type="Unsqueeze" version="opset1">
			<input>
				<port id="0" precision="FP32">
					<dim>120</dim>
				</port>
				<port id="1" precision="I64">
					<dim>3</dim>
				</port>
			</input>
			<output>
				<port id="2" precision="FP32">
					<dim>1</dim>
					<dim>120</dim>
					<dim>1</dim>
					<dim>1</dim>
				</port>
			</output>
		</layer>
		<layer id="231" name="conv2d_81.tmp_1" type="Add" version="opset1">
			<data auto_broadcast="numpy" />
			<input>
				<port id="0" precision="FP32">
					<dim>-1</dim>
					<dim>120</dim>
					<dim>1</dim>
					<dim>1</dim>
				</port>
				<port id="1" precision="FP32">
					<dim>1</dim>
					<dim>120</dim>
					<dim>1</dim>
					<dim>1</dim>
				</port>
			</input>
			<output>
				<port id="2" precision="FP32" names="conv2d_81.tmp_1">
					<dim>-1</dim>
					<dim>120</dim>
					<dim>1</dim>
					<dim>1</dim>
				</port>
			</output>
		</layer>
		<layer id="232" name="Constant_32809" type="Const" version="opset1">
			<data element_type="f32" shape="" offset="66712" size="4" />
			<output>
				<port id="0" precision="FP32" />
			</output>
		</layer>
		<layer id="233" name="Constant_32810" type="Const" version="opset1">
			<data element_type="f32" shape="" offset="66716" size="4" />
			<output>
				<port id="0" precision="FP32" />
			</output>
		</layer>
		<layer id="234" name="hard_sigmoid_2.tmp_0" type="HardSigmoid" version="opset1">
			<input>
				<port id="0" precision="FP32">
					<dim>-1</dim>
					<dim>120</dim>
					<dim>1</dim>
					<dim>1</dim>
				</port>
				<port id="1" precision="FP32" />
				<port id="2" precision="FP32" />
			</input>
			<output>
				<port id="3" precision="FP32" names="hard_sigmoid_2.tmp_0">
					<dim>-1</dim>
					<dim>120</dim>
					<dim>1</dim>
					<dim>1</dim>
				</port>
			</output>
		</layer>
		<layer id="235" name="elementwise_mul_2" type="Multiply" version="opset1">
			<data auto_broadcast="numpy" />
			<input>
				<port id="0" precision="FP32">
					<dim>-1</dim>
					<dim>120</dim>
					<dim>28</dim>
					<dim>28</dim>
				</port>
				<port id="1" precision="FP32">
					<dim>-1</dim>
					<dim>120</dim>
					<dim>1</dim>
					<dim>1</dim>
				</port>
			</input>
			<output>
				<port id="2" precision="FP32" names="elementwise_mul_2">
					<dim>-1</dim>
					<dim>120</dim>
					<dim>28</dim>
					<dim>28</dim>
				</port>
			</output>
		</layer>
		<layer id="236" name="conv7_linear_weights" type="Const" version="opset1">
			<data element_type="f32" shape="40, 120, 1, 1" offset="227608" size="19200" />
			<output>
				<port id="0" precision="FP32">
					<dim>40</dim>
					<dim>120</dim>
					<dim>1</dim>
					<dim>1</dim>
				</port>
			</output>
		</layer>
		<layer id="237" name="conv2d_82.tmp_0" type="Convolution" version="opset1">
			<data strides="1, 1" dilations="1, 1" pads_begin="0, 0" pads_end="0, 0" auto_pad="explicit" />
			<input>
				<port id="0" precision="FP32">
					<dim>-1</dim>
					<dim>120</dim>
					<dim>28</dim>
					<dim>28</dim>
				</port>
				<port id="1" precision="FP32">
					<dim>40</dim>
					<dim>120</dim>
					<dim>1</dim>
					<dim>1</dim>
				</port>
			</input>
			<output>
				<port id="2" precision="FP32" names="conv2d_82.tmp_0">
					<dim>-1</dim>
					<dim>40</dim>
					<dim>28</dim>
					<dim>28</dim>
				</port>
			</output>
		</layer>
		<layer id="238" name="conv7_linear_bn_scale" type="Const" version="opset1">
			<data element_type="f32" shape="40" offset="246808" size="160" />
			<output>
				<port id="0" precision="FP32">
					<dim>40</dim>
				</port>
			</output>
		</layer>
		<layer id="239" name="conv7_linear_bn_offset" type="Const" version="opset1">
			<data element_type="f32" shape="40" offset="246968" size="160" />
			<output>
				<port id="0" precision="FP32">
					<dim>40</dim>
				</port>
			</output>
		</layer>
		<layer id="240" name="conv7_linear_bn_mean" type="Const" version="opset1">
			<data element_type="f32" shape="40" offset="247128" size="160" />
			<output>
				<port id="0" precision="FP32">
					<dim>40</dim>
				</port>
			</output>
		</layer>
		<layer id="241" name="conv7_linear_bn_variance" type="Const" version="opset1">
			<data element_type="f32" shape="40" offset="247288" size="160" />
			<output>
				<port id="0" precision="FP32">
					<dim>40</dim>
				</port>
			</output>
		</layer>
		<layer id="242" name="conv7_linear_bn_mean0" type="BatchNormInference" version="opset5">
			<data epsilon="9.9999997473787516e-06" />
			<input>
				<port id="0" precision="FP32">
					<dim>-1</dim>
					<dim>40</dim>
					<dim>28</dim>
					<dim>28</dim>
				</port>
				<port id="1" precision="FP32">
					<dim>40</dim>
				</port>
				<port id="2" precision="FP32">
					<dim>40</dim>
				</port>
				<port id="3" precision="FP32">
					<dim>40</dim>
				</port>
				<port id="4" precision="FP32">
					<dim>40</dim>
				</port>
			</input>
			<output>
				<port id="5" precision="FP32" names="batch_norm_18.tmp_2">
					<dim>-1</dim>
					<dim>40</dim>
					<dim>28</dim>
					<dim>28</dim>
				</port>
			</output>
		</layer>
		<layer id="243" name="elementwise_add_3" type="Add" version="opset1">
			<data auto_broadcast="numpy" />
			<input>
				<port id="0" precision="FP32">
					<dim>-1</dim>
					<dim>40</dim>
					<dim>28</dim>
					<dim>28</dim>
				</port>
				<port id="1" precision="FP32">
					<dim>-1</dim>
					<dim>40</dim>
					<dim>28</dim>
					<dim>28</dim>
				</port>
			</input>
			<output>
				<port id="2" precision="FP32" names="elementwise_add_3">
					<dim>-1</dim>
					<dim>40</dim>
					<dim>28</dim>
					<dim>28</dim>
				</port>
			</output>
		</layer>
		<layer id="244" name="conv8_expand_weights" type="Const" version="opset1">
			<data element_type="f32" shape="240, 40, 1, 1" offset="247448" size="38400" />
			<output>
				<port id="0" precision="FP32">
					<dim>240</dim>
					<dim>40</dim>
					<dim>1</dim>
					<dim>1</dim>
				</port>
			</output>
		</layer>
		<layer id="245" name="conv2d_83.tmp_0" type="Convolution" version="opset1">
			<data strides="1, 1" dilations="1, 1" pads_begin="0, 0" pads_end="0, 0" auto_pad="explicit" />
			<input>
				<port id="0" precision="FP32">
					<dim>-1</dim>
					<dim>40</dim>
					<dim>28</dim>
					<dim>28</dim>
				</port>
				<port id="1" precision="FP32">
					<dim>240</dim>
					<dim>40</dim>
					<dim>1</dim>
					<dim>1</dim>
				</port>
			</input>
			<output>
				<port id="2" precision="FP32" names="conv2d_83.tmp_0">
					<dim>-1</dim>
					<dim>240</dim>
					<dim>28</dim>
					<dim>28</dim>
				</port>
			</output>
		</layer>
		<layer id="246" name="conv8_expand_bn_scale" type="Const" version="opset1">
			<data element_type="f32" shape="240" offset="285848" size="960" />
			<output>
				<port id="0" precision="FP32">
					<dim>240</dim>
				</port>
			</output>
		</layer>
		<layer id="247" name="conv8_expand_bn_offset" type="Const" version="opset1">
			<data element_type="f32" shape="240" offset="286808" size="960" />
			<output>
				<port id="0" precision="FP32">
					<dim>240</dim>
				</port>
			</output>
		</layer>
		<layer id="248" name="conv8_expand_bn_mean" type="Const" version="opset1">
			<data element_type="f32" shape="240" offset="287768" size="960" />
			<output>
				<port id="0" precision="FP32">
					<dim>240</dim>
				</port>
			</output>
		</layer>
		<layer id="249" name="conv8_expand_bn_variance" type="Const" version="opset1">
			<data element_type="f32" shape="240" offset="288728" size="960" />
			<output>
				<port id="0" precision="FP32">
					<dim>240</dim>
				</port>
			</output>
		</layer>
		<layer id="250" name="conv8_expand_bn_mean0" type="BatchNormInference" version="opset5">
			<data epsilon="9.9999997473787516e-06" />
			<input>
				<port id="0" precision="FP32">
					<dim>-1</dim>
					<dim>240</dim>
					<dim>28</dim>
					<dim>28</dim>
				</port>
				<port id="1" precision="FP32">
					<dim>240</dim>
				</port>
				<port id="2" precision="FP32">
					<dim>240</dim>
				</port>
				<port id="3" precision="FP32">
					<dim>240</dim>
				</port>
				<port id="4" precision="FP32">
					<dim>240</dim>
				</port>
			</input>
			<output>
				<port id="5" precision="FP32" names="batch_norm_19.tmp_2">
					<dim>-1</dim>
					<dim>240</dim>
					<dim>28</dim>
					<dim>28</dim>
				</port>
			</output>
		</layer>
		<layer id="251" name="hard_swish_1.tmp_0" type="HSwish" version="opset4">
			<input>
				<port id="0" precision="FP32">
					<dim>-1</dim>
					<dim>240</dim>
					<dim>28</dim>
					<dim>28</dim>
				</port>
			</input>
			<output>
				<port id="1" precision="FP32" names="hard_swish_1.tmp_0">
					<dim>-1</dim>
					<dim>240</dim>
					<dim>28</dim>
					<dim>28</dim>
				</port>
			</output>
		</layer>
		<layer id="252" name="conv8_depthwise_weights" type="Const" version="opset1">
			<data element_type="f32" shape="240, 1, 3, 3" offset="289688" size="8640" />
			<output>
				<port id="0" precision="FP32">
					<dim>240</dim>
					<dim>1</dim>
					<dim>3</dim>
					<dim>3</dim>
				</port>
			</output>
		</layer>
		<layer id="253" name="Constant_32831" type="Const" version="opset1">
			<data element_type="i64" shape="1" offset="298328" size="8" />
			<output>
				<port id="0" precision="I64">
					<dim>1</dim>
				</port>
			</output>
		</layer>
		<layer id="254" name="Constant_32824" type="Const" version="opset1">
			<data element_type="i64" shape="1" offset="298328" size="8" />
			<output>
				<port id="0" precision="I64">
					<dim>1</dim>
				</port>
			</output>
		</layer>
		<layer id="255" name="Divide_32832" type="Divide" version="opset1">
			<data auto_broadcast="numpy" m_pythondiv="true" />
			<input>
				<port id="0" precision="I64">
					<dim>1</dim>
				</port>
				<port id="1" precision="I64">
					<dim>1</dim>
				</port>
			</input>
			<output>
				<port id="2" precision="I64">
					<dim>1</dim>
				</port>
			</output>
		</layer>
		<layer id="256" name="Constant_32830" type="Const" version="opset1">
			<data element_type="i64" shape="3" offset="3848" size="24" />
			<output>
				<port id="0" precision="I64">
					<dim>3</dim>
				</port>
			</output>
		</layer>
		<layer id="257" name="Concat_32833" type="Concat" version="opset1">
			<data axis="0" />
			<input>
				<port id="0" precision="I64">
					<dim>1</dim>
				</port>
				<port id="1" precision="I64">
					<dim>1</dim>
				</port>
				<port id="2" precision="I64">
					<dim>3</dim>
				</port>
			</input>
			<output>
				<port id="3" precision="I64">
					<dim>5</dim>
				</port>
			</output>
		</layer>
		<layer id="258" name="Reshape_32834" type="Reshape" version="opset1">
			<data special_zero="false" />
			<input>
				<port id="0" precision="FP32">
					<dim>240</dim>
					<dim>1</dim>
					<dim>3</dim>
					<dim>3</dim>
				</port>
				<port id="1" precision="I64">
					<dim>5</dim>
				</port>
			</input>
			<output>
				<port id="2" precision="FP32">
					<dim>240</dim>
					<dim>1</dim>
					<dim>1</dim>
					<dim>3</dim>
					<dim>3</dim>
				</port>
			</output>
		</layer>
		<layer id="259" name="depthwise_conv2d_6.tmp_0" type="GroupConvolution" version="opset1">
			<data strides="2, 2" pads_begin="1, 1" pads_end="1, 1" dilations="1, 1" auto_pad="explicit" />
			<input>
				<port id="0" precision="FP32">
					<dim>-1</dim>
					<dim>240</dim>
					<dim>28</dim>
					<dim>28</dim>
				</port>
				<port id="1" precision="FP32">
					<dim>240</dim>
					<dim>1</dim>
					<dim>1</dim>
					<dim>3</dim>
					<dim>3</dim>
				</port>
			</input>
			<output>
				<port id="2" precision="FP32" names="depthwise_conv2d_6.tmp_0">
					<dim>-1</dim>
					<dim>240</dim>
					<dim>14</dim>
					<dim>14</dim>
				</port>
			</output>
		</layer>
		<layer id="260" name="conv8_depthwise_bn_scale" type="Const" version="opset1">
			<data element_type="f32" shape="240" offset="298336" size="960" />
			<output>
				<port id="0" precision="FP32">
					<dim>240</dim>
				</port>
			</output>
		</layer>
		<layer id="261" name="conv8_depthwise_bn_offset" type="Const" version="opset1">
			<data element_type="f32" shape="240" offset="299296" size="960" />
			<output>
				<port id="0" precision="FP32">
					<dim>240</dim>
				</port>
			</output>
		</layer>
		<layer id="262" name="conv8_depthwise_bn_mean" type="Const" version="opset1">
			<data element_type="f32" shape="240" offset="300256" size="960" />
			<output>
				<port id="0" precision="FP32">
					<dim>240</dim>
				</port>
			</output>
		</layer>
		<layer id="263" name="conv8_depthwise_bn_variance" type="Const" version="opset1">
			<data element_type="f32" shape="240" offset="301216" size="960" />
			<output>
				<port id="0" precision="FP32">
					<dim>240</dim>
				</port>
			</output>
		</layer>
		<layer id="264" name="conv8_depthwise_bn_mean0" type="BatchNormInference" version="opset5">
			<data epsilon="9.9999997473787516e-06" />
			<input>
				<port id="0" precision="FP32">
					<dim>-1</dim>
					<dim>240</dim>
					<dim>14</dim>
					<dim>14</dim>
				</port>
				<port id="1" precision="FP32">
					<dim>240</dim>
				</port>
				<port id="2" precision="FP32">
					<dim>240</dim>
				</port>
				<port id="3" precision="FP32">
					<dim>240</dim>
				</port>
				<port id="4" precision="FP32">
					<dim>240</dim>
				</port>
			</input>
			<output>
				<port id="5" precision="FP32" names="batch_norm_20.tmp_2">
					<dim>-1</dim>
					<dim>240</dim>
					<dim>14</dim>
					<dim>14</dim>
				</port>
			</output>
		</layer>
		<layer id="265" name="hard_swish_2.tmp_0" type="HSwish" version="opset4">
			<input>
				<port id="0" precision="FP32">
					<dim>-1</dim>
					<dim>240</dim>
					<dim>14</dim>
					<dim>14</dim>
				</port>
			</input>
			<output>
				<port id="1" precision="FP32" names="hard_swish_2.tmp_0">
					<dim>-1</dim>
					<dim>240</dim>
					<dim>14</dim>
					<dim>14</dim>
				</port>
			</output>
		</layer>
		<layer id="266" name="conv8_linear_weights" type="Const" version="opset1">
			<data element_type="f32" shape="80, 240, 1, 1" offset="302176" size="76800" />
			<output>
				<port id="0" precision="FP32">
					<dim>80</dim>
					<dim>240</dim>
					<dim>1</dim>
					<dim>1</dim>
				</port>
			</output>
		</layer>
		<layer id="267" name="conv2d_84.tmp_0" type="Convolution" version="opset1">
			<data strides="1, 1" dilations="1, 1" pads_begin="0, 0" pads_end="0, 0" auto_pad="explicit" />
			<input>
				<port id="0" precision="FP32">
					<dim>-1</dim>
					<dim>240</dim>
					<dim>14</dim>
					<dim>14</dim>
				</port>
				<port id="1" precision="FP32">
					<dim>80</dim>
					<dim>240</dim>
					<dim>1</dim>
					<dim>1</dim>
				</port>
			</input>
			<output>
				<port id="2" precision="FP32" names="conv2d_84.tmp_0">
					<dim>-1</dim>
					<dim>80</dim>
					<dim>14</dim>
					<dim>14</dim>
				</port>
			</output>
		</layer>
		<layer id="268" name="conv8_linear_bn_scale" type="Const" version="opset1">
			<data element_type="f32" shape="80" offset="378976" size="320" />
			<output>
				<port id="0" precision="FP32">
					<dim>80</dim>
				</port>
			</output>
		</layer>
		<layer id="269" name="conv8_linear_bn_offset" type="Const" version="opset1">
			<data element_type="f32" shape="80" offset="379296" size="320" />
			<output>
				<port id="0" precision="FP32">
					<dim>80</dim>
				</port>
			</output>
		</layer>
		<layer id="270" name="conv8_linear_bn_mean" type="Const" version="opset1">
			<data element_type="f32" shape="80" offset="379616" size="320" />
			<output>
				<port id="0" precision="FP32">
					<dim>80</dim>
				</port>
			</output>
		</layer>
		<layer id="271" name="conv8_linear_bn_variance" type="Const" version="opset1">
			<data element_type="f32" shape="80" offset="379936" size="320" />
			<output>
				<port id="0" precision="FP32">
					<dim>80</dim>
				</port>
			</output>
		</layer>
		<layer id="272" name="conv8_linear_bn_mean0" type="BatchNormInference" version="opset5">
			<data epsilon="9.9999997473787516e-06" />
			<input>
				<port id="0" precision="FP32">
					<dim>-1</dim>
					<dim>80</dim>
					<dim>14</dim>
					<dim>14</dim>
				</port>
				<port id="1" precision="FP32">
					<dim>80</dim>
				</port>
				<port id="2" precision="FP32">
					<dim>80</dim>
				</port>
				<port id="3" precision="FP32">
					<dim>80</dim>
				</port>
				<port id="4" precision="FP32">
					<dim>80</dim>
				</port>
			</input>
			<output>
				<port id="5" precision="FP32" names="batch_norm_21.tmp_2">
					<dim>-1</dim>
					<dim>80</dim>
					<dim>14</dim>
					<dim>14</dim>
				</port>
			</output>
		</layer>
		<layer id="273" name="conv9_expand_weights" type="Const" version="opset1">
			<data element_type="f32" shape="200, 80, 1, 1" offset="380256" size="64000" />
			<output>
				<port id="0" precision="FP32">
					<dim>200</dim>
					<dim>80</dim>
					<dim>1</dim>
					<dim>1</dim>
				</port>
			</output>
		</layer>
		<layer id="274" name="conv2d_85.tmp_0" type="Convolution" version="opset1">
			<data strides="1, 1" dilations="1, 1" pads_begin="0, 0" pads_end="0, 0" auto_pad="explicit" />
			<input>
				<port id="0" precision="FP32">
					<dim>-1</dim>
					<dim>80</dim>
					<dim>14</dim>
					<dim>14</dim>
				</port>
				<port id="1" precision="FP32">
					<dim>200</dim>
					<dim>80</dim>
					<dim>1</dim>
					<dim>1</dim>
				</port>
			</input>
			<output>
				<port id="2" precision="FP32" names="conv2d_85.tmp_0">
					<dim>-1</dim>
					<dim>200</dim>
					<dim>14</dim>
					<dim>14</dim>
				</port>
			</output>
		</layer>
		<layer id="275" name="conv9_expand_bn_scale" type="Const" version="opset1">
			<data element_type="f32" shape="200" offset="444256" size="800" />
			<output>
				<port id="0" precision="FP32">
					<dim>200</dim>
				</port>
			</output>
		</layer>
		<layer id="276" name="conv9_expand_bn_offset" type="Const" version="opset1">
			<data element_type="f32" shape="200" offset="445056" size="800" />
			<output>
				<port id="0" precision="FP32">
					<dim>200</dim>
				</port>
			</output>
		</layer>
		<layer id="277" name="conv9_expand_bn_mean" type="Const" version="opset1">
			<data element_type="f32" shape="200" offset="445856" size="800" />
			<output>
				<port id="0" precision="FP32">
					<dim>200</dim>
				</port>
			</output>
		</layer>
		<layer id="278" name="conv9_expand_bn_variance" type="Const" version="opset1">
			<data element_type="f32" shape="200" offset="446656" size="800" />
			<output>
				<port id="0" precision="FP32">
					<dim>200</dim>
				</port>
			</output>
		</layer>
		<layer id="279" name="conv9_expand_bn_mean0" type="BatchNormInference" version="opset5">
			<data epsilon="9.9999997473787516e-06" />
			<input>
				<port id="0" precision="FP32">
					<dim>-1</dim>
					<dim>200</dim>
					<dim>14</dim>
					<dim>14</dim>
				</port>
				<port id="1" precision="FP32">
					<dim>200</dim>
				</port>
				<port id="2" precision="FP32">
					<dim>200</dim>
				</port>
				<port id="3" precision="FP32">
					<dim>200</dim>
				</port>
				<port id="4" precision="FP32">
					<dim>200</dim>
				</port>
			</input>
			<output>
				<port id="5" precision="FP32" names="batch_norm_22.tmp_2">
					<dim>-1</dim>
					<dim>200</dim>
					<dim>14</dim>
					<dim>14</dim>
				</port>
			</output>
		</layer>
		<layer id="280" name="hard_swish_3.tmp_0" type="HSwish" version="opset4">
			<input>
				<port id="0" precision="FP32">
					<dim>-1</dim>
					<dim>200</dim>
					<dim>14</dim>
					<dim>14</dim>
				</port>
			</input>
			<output>
				<port id="1" precision="FP32" names="hard_swish_3.tmp_0">
					<dim>-1</dim>
					<dim>200</dim>
					<dim>14</dim>
					<dim>14</dim>
				</port>
			</output>
		</layer>
		<layer id="281" name="conv9_depthwise_weights" type="Const" version="opset1">
			<data element_type="f32" shape="200, 1, 3, 3" offset="447456" size="7200" />
			<output>
				<port id="0" precision="FP32">
					<dim>200</dim>
					<dim>1</dim>
					<dim>3</dim>
					<dim>3</dim>
				</port>
			</output>
		</layer>
		<layer id="282" name="Constant_32892" type="Const" version="opset1">
			<data element_type="i64" shape="1" offset="454656" size="8" />
			<output>
				<port id="0" precision="I64">
					<dim>1</dim>
				</port>
			</output>
		</layer>
		<layer id="283" name="Constant_32885" type="Const" version="opset1">
			<data element_type="i64" shape="1" offset="454656" size="8" />
			<output>
				<port id="0" precision="I64">
					<dim>1</dim>
				</port>
			</output>
		</layer>
		<layer id="284" name="Divide_32893" type="Divide" version="opset1">
			<data auto_broadcast="numpy" m_pythondiv="true" />
			<input>
				<port id="0" precision="I64">
					<dim>1</dim>
				</port>
				<port id="1" precision="I64">
					<dim>1</dim>
				</port>
			</input>
			<output>
				<port id="2" precision="I64">
					<dim>1</dim>
				</port>
			</output>
		</layer>
		<layer id="285" name="Constant_32891" type="Const" version="opset1">
			<data element_type="i64" shape="3" offset="3848" size="24" />
			<output>
				<port id="0" precision="I64">
					<dim>3</dim>
				</port>
			</output>
		</layer>
		<layer id="286" name="Concat_32894" type="Concat" version="opset1">
			<data axis="0" />
			<input>
				<port id="0" precision="I64">
					<dim>1</dim>
				</port>
				<port id="1" precision="I64">
					<dim>1</dim>
				</port>
				<port id="2" precision="I64">
					<dim>3</dim>
				</port>
			</input>
			<output>
				<port id="3" precision="I64">
					<dim>5</dim>
				</port>
			</output>
		</layer>
		<layer id="287" name="Reshape_32895" type="Reshape" version="opset1">
			<data special_zero="false" />
			<input>
				<port id="0" precision="FP32">
					<dim>200</dim>
					<dim>1</dim>
					<dim>3</dim>
					<dim>3</dim>
				</port>
				<port id="1" precision="I64">
					<dim>5</dim>
				</port>
			</input>
			<output>
				<port id="2" precision="FP32">
					<dim>200</dim>
					<dim>1</dim>
					<dim>1</dim>
					<dim>3</dim>
					<dim>3</dim>
				</port>
			</output>
		</layer>
		<layer id="288" name="depthwise_conv2d_7.tmp_0" type="GroupConvolution" version="opset1">
			<data strides="1, 1" pads_begin="1, 1" pads_end="1, 1" dilations="1, 1" auto_pad="explicit" />
			<input>
				<port id="0" precision="FP32">
					<dim>-1</dim>
					<dim>200</dim>
					<dim>14</dim>
					<dim>14</dim>
				</port>
				<port id="1" precision="FP32">
					<dim>200</dim>
					<dim>1</dim>
					<dim>1</dim>
					<dim>3</dim>
					<dim>3</dim>
				</port>
			</input>
			<output>
				<port id="2" precision="FP32" names="depthwise_conv2d_7.tmp_0">
					<dim>-1</dim>
					<dim>200</dim>
					<dim>14</dim>
					<dim>14</dim>
				</port>
			</output>
		</layer>
		<layer id="289" name="conv9_depthwise_bn_scale" type="Const" version="opset1">
			<data element_type="f32" shape="200" offset="454664" size="800" />
			<output>
				<port id="0" precision="FP32">
					<dim>200</dim>
				</port>
			</output>
		</layer>
		<layer id="290" name="conv9_depthwise_bn_offset" type="Const" version="opset1">
			<data element_type="f32" shape="200" offset="455464" size="800" />
			<output>
				<port id="0" precision="FP32">
					<dim>200</dim>
				</port>
			</output>
		</layer>
		<layer id="291" name="conv9_depthwise_bn_mean" type="Const" version="opset1">
			<data element_type="f32" shape="200" offset="456264" size="800" />
			<output>
				<port id="0" precision="FP32">
					<dim>200</dim>
				</port>
			</output>
		</layer>
		<layer id="292" name="conv9_depthwise_bn_variance" type="Const" version="opset1">
			<data element_type="f32" shape="200" offset="457064" size="800" />
			<output>
				<port id="0" precision="FP32">
					<dim>200</dim>
				</port>
			</output>
		</layer>
		<layer id="293" name="conv9_depthwise_bn_mean0" type="BatchNormInference" version="opset5">
			<data epsilon="9.9999997473787516e-06" />
			<input>
				<port id="0" precision="FP32">
					<dim>-1</dim>
					<dim>200</dim>
					<dim>14</dim>
					<dim>14</dim>
				</port>
				<port id="1" precision="FP32">
					<dim>200</dim>
				</port>
				<port id="2" precision="FP32">
					<dim>200</dim>
				</port>
				<port id="3" precision="FP32">
					<dim>200</dim>
				</port>
				<port id="4" precision="FP32">
					<dim>200</dim>
				</port>
			</input>
			<output>
				<port id="5" precision="FP32" names="batch_norm_23.tmp_2">
					<dim>-1</dim>
					<dim>200</dim>
					<dim>14</dim>
					<dim>14</dim>
				</port>
			</output>
		</layer>
		<layer id="294" name="hard_swish_4.tmp_0" type="HSwish" version="opset4">
			<input>
				<port id="0" precision="FP32">
					<dim>-1</dim>
					<dim>200</dim>
					<dim>14</dim>
					<dim>14</dim>
				</port>
			</input>
			<output>
				<port id="1" precision="FP32" names="hard_swish_4.tmp_0">
					<dim>-1</dim>
					<dim>200</dim>
					<dim>14</dim>
					<dim>14</dim>
				</port>
			</output>
		</layer>
		<layer id="295" name="conv9_linear_weights" type="Const" version="opset1">
			<data element_type="f32" shape="80, 200, 1, 1" offset="457864" size="64000" />
			<output>
				<port id="0" precision="FP32">
					<dim>80</dim>
					<dim>200</dim>
					<dim>1</dim>
					<dim>1</dim>
				</port>
			</output>
		</layer>
		<layer id="296" name="conv2d_86.tmp_0" type="Convolution" version="opset1">
			<data strides="1, 1" dilations="1, 1" pads_begin="0, 0" pads_end="0, 0" auto_pad="explicit" />
			<input>
				<port id="0" precision="FP32">
					<dim>-1</dim>
					<dim>200</dim>
					<dim>14</dim>
					<dim>14</dim>
				</port>
				<port id="1" precision="FP32">
					<dim>80</dim>
					<dim>200</dim>
					<dim>1</dim>
					<dim>1</dim>
				</port>
			</input>
			<output>
				<port id="2" precision="FP32" names="conv2d_86.tmp_0">
					<dim>-1</dim>
					<dim>80</dim>
					<dim>14</dim>
					<dim>14</dim>
				</port>
			</output>
		</layer>
		<layer id="297" name="conv9_linear_bn_scale" type="Const" version="opset1">
			<data element_type="f32" shape="80" offset="521864" size="320" />
			<output>
				<port id="0" precision="FP32">
					<dim>80</dim>
				</port>
			</output>
		</layer>
		<layer id="298" name="conv9_linear_bn_offset" type="Const" version="opset1">
			<data element_type="f32" shape="80" offset="522184" size="320" />
			<output>
				<port id="0" precision="FP32">
					<dim>80</dim>
				</port>
			</output>
		</layer>
		<layer id="299" name="conv9_linear_bn_mean" type="Const" version="opset1">
			<data element_type="f32" shape="80" offset="522504" size="320" />
			<output>
				<port id="0" precision="FP32">
					<dim>80</dim>
				</port>
			</output>
		</layer>
		<layer id="300" name="conv9_linear_bn_variance" type="Const" version="opset1">
			<data element_type="f32" shape="80" offset="522824" size="320" />
			<output>
				<port id="0" precision="FP32">
					<dim>80</dim>
				</port>
			</output>
		</layer>
		<layer id="301" name="conv9_linear_bn_mean0" type="BatchNormInference" version="opset5">
			<data epsilon="9.9999997473787516e-06" />
			<input>
				<port id="0" precision="FP32">
					<dim>-1</dim>
					<dim>80</dim>
					<dim>14</dim>
					<dim>14</dim>
				</port>
				<port id="1" precision="FP32">
					<dim>80</dim>
				</port>
				<port id="2" precision="FP32">
					<dim>80</dim>
				</port>
				<port id="3" precision="FP32">
					<dim>80</dim>
				</port>
				<port id="4" precision="FP32">
					<dim>80</dim>
				</port>
			</input>
			<output>
				<port id="5" precision="FP32" names="batch_norm_24.tmp_2">
					<dim>-1</dim>
					<dim>80</dim>
					<dim>14</dim>
					<dim>14</dim>
				</port>
			</output>
		</layer>
		<layer id="302" name="elementwise_add_4" type="Add" version="opset1">
			<data auto_broadcast="numpy" />
			<input>
				<port id="0" precision="FP32">
					<dim>-1</dim>
					<dim>80</dim>
					<dim>14</dim>
					<dim>14</dim>
				</port>
				<port id="1" precision="FP32">
					<dim>-1</dim>
					<dim>80</dim>
					<dim>14</dim>
					<dim>14</dim>
				</port>
			</input>
			<output>
				<port id="2" precision="FP32" names="elementwise_add_4">
					<dim>-1</dim>
					<dim>80</dim>
					<dim>14</dim>
					<dim>14</dim>
				</port>
			</output>
		</layer>
		<layer id="303" name="conv10_expand_weights" type="Const" version="opset1">
			<data element_type="f32" shape="184, 80, 1, 1" offset="523144" size="58880" />
			<output>
				<port id="0" precision="FP32">
					<dim>184</dim>
					<dim>80</dim>
					<dim>1</dim>
					<dim>1</dim>
				</port>
			</output>
		</layer>
		<layer id="304" name="conv2d_87.tmp_0" type="Convolution" version="opset1">
			<data strides="1, 1" dilations="1, 1" pads_begin="0, 0" pads_end="0, 0" auto_pad="explicit" />
			<input>
				<port id="0" precision="FP32">
					<dim>-1</dim>
					<dim>80</dim>
					<dim>14</dim>
					<dim>14</dim>
				</port>
				<port id="1" precision="FP32">
					<dim>184</dim>
					<dim>80</dim>
					<dim>1</dim>
					<dim>1</dim>
				</port>
			</input>
			<output>
				<port id="2" precision="FP32" names="conv2d_87.tmp_0">
					<dim>-1</dim>
					<dim>184</dim>
					<dim>14</dim>
					<dim>14</dim>
				</port>
			</output>
		</layer>
		<layer id="305" name="conv10_expand_bn_scale" type="Const" version="opset1">
			<data element_type="f32" shape="184" offset="582024" size="736" />
			<output>
				<port id="0" precision="FP32">
					<dim>184</dim>
				</port>
			</output>
		</layer>
		<layer id="306" name="conv10_expand_bn_offset" type="Const" version="opset1">
			<data element_type="f32" shape="184" offset="582760" size="736" />
			<output>
				<port id="0" precision="FP32">
					<dim>184</dim>
				</port>
			</output>
		</layer>
		<layer id="307" name="conv10_expand_bn_mean" type="Const" version="opset1">
			<data element_type="f32" shape="184" offset="583496" size="736" />
			<output>
				<port id="0" precision="FP32">
					<dim>184</dim>
				</port>
			</output>
		</layer>
		<layer id="308" name="conv10_expand_bn_variance" type="Const" version="opset1">
			<data element_type="f32" shape="184" offset="584232" size="736" />
			<output>
				<port id="0" precision="FP32">
					<dim>184</dim>
				</port>
			</output>
		</layer>
		<layer id="309" name="conv10_expand_bn_mean0" type="BatchNormInference" version="opset5">
			<data epsilon="9.9999997473787516e-06" />
			<input>
				<port id="0" precision="FP32">
					<dim>-1</dim>
					<dim>184</dim>
					<dim>14</dim>
					<dim>14</dim>
				</port>
				<port id="1" precision="FP32">
					<dim>184</dim>
				</port>
				<port id="2" precision="FP32">
					<dim>184</dim>
				</port>
				<port id="3" precision="FP32">
					<dim>184</dim>
				</port>
				<port id="4" precision="FP32">
					<dim>184</dim>
				</port>
			</input>
			<output>
				<port id="5" precision="FP32" names="batch_norm_25.tmp_2">
					<dim>-1</dim>
					<dim>184</dim>
					<dim>14</dim>
					<dim>14</dim>
				</port>
			</output>
		</layer>
		<layer id="310" name="hard_swish_5.tmp_0" type="HSwish" version="opset4">
			<input>
				<port id="0" precision="FP32">
					<dim>-1</dim>
					<dim>184</dim>
					<dim>14</dim>
					<dim>14</dim>
				</port>
			</input>
			<output>
				<port id="1" precision="FP32" names="hard_swish_5.tmp_0">
					<dim>-1</dim>
					<dim>184</dim>
					<dim>14</dim>
					<dim>14</dim>
				</port>
			</output>
		</layer>
		<layer id="311" name="conv10_depthwise_weights" type="Const" version="opset1">
			<data element_type="f32" shape="184, 1, 3, 3" offset="584968" size="6624" />
			<output>
				<port id="0" precision="FP32">
					<dim>184</dim>
					<dim>1</dim>
					<dim>3</dim>
					<dim>3</dim>
				</port>
			</output>
		</layer>
		<layer id="312" name="Constant_32954" type="Const" version="opset1">
			<data element_type="i64" shape="1" offset="591592" size="8" />
			<output>
				<port id="0" precision="I64">
					<dim>1</dim>
				</port>
			</output>
		</layer>
		<layer id="313" name="Constant_32947" type="Const" version="opset1">
			<data element_type="i64" shape="1" offset="591592" size="8" />
			<output>
				<port id="0" precision="I64">
					<dim>1</dim>
				</port>
			</output>
		</layer>
		<layer id="314" name="Divide_32955" type="Divide" version="opset1">
			<data auto_broadcast="numpy" m_pythondiv="true" />
			<input>
				<port id="0" precision="I64">
					<dim>1</dim>
				</port>
				<port id="1" precision="I64">
					<dim>1</dim>
				</port>
			</input>
			<output>
				<port id="2" precision="I64">
					<dim>1</dim>
				</port>
			</output>
		</layer>
		<layer id="315" name="Constant_32953" type="Const" version="opset1">
			<data element_type="i64" shape="3" offset="3848" size="24" />
			<output>
				<port id="0" precision="I64">
					<dim>3</dim>
				</port>
			</output>
		</layer>
		<layer id="316" name="Concat_32956" type="Concat" version="opset1">
			<data axis="0" />
			<input>
				<port id="0" precision="I64">
					<dim>1</dim>
				</port>
				<port id="1" precision="I64">
					<dim>1</dim>
				</port>
				<port id="2" precision="I64">
					<dim>3</dim>
				</port>
			</input>
			<output>
				<port id="3" precision="I64">
					<dim>5</dim>
				</port>
			</output>
		</layer>
		<layer id="317" name="Reshape_32957" type="Reshape" version="opset1">
			<data special_zero="false" />
			<input>
				<port id="0" precision="FP32">
					<dim>184</dim>
					<dim>1</dim>
					<dim>3</dim>
					<dim>3</dim>
				</port>
				<port id="1" precision="I64">
					<dim>5</dim>
				</port>
			</input>
			<output>
				<port id="2" precision="FP32">
					<dim>184</dim>
					<dim>1</dim>
					<dim>1</dim>
					<dim>3</dim>
					<dim>3</dim>
				</port>
			</output>
		</layer>
		<layer id="318" name="depthwise_conv2d_8.tmp_0" type="GroupConvolution" version="opset1">
			<data strides="1, 1" pads_begin="1, 1" pads_end="1, 1" dilations="1, 1" auto_pad="explicit" />
			<input>
				<port id="0" precision="FP32">
					<dim>-1</dim>
					<dim>184</dim>
					<dim>14</dim>
					<dim>14</dim>
				</port>
				<port id="1" precision="FP32">
					<dim>184</dim>
					<dim>1</dim>
					<dim>1</dim>
					<dim>3</dim>
					<dim>3</dim>
				</port>
			</input>
			<output>
				<port id="2" precision="FP32" names="depthwise_conv2d_8.tmp_0">
					<dim>-1</dim>
					<dim>184</dim>
					<dim>14</dim>
					<dim>14</dim>
				</port>
			</output>
		</layer>
		<layer id="319" name="conv10_depthwise_bn_scale" type="Const" version="opset1">
			<data element_type="f32" shape="184" offset="591600" size="736" />
			<output>
				<port id="0" precision="FP32">
					<dim>184</dim>
				</port>
			</output>
		</layer>
		<layer id="320" name="conv10_depthwise_bn_offset" type="Const" version="opset1">
			<data element_type="f32" shape="184" offset="592336" size="736" />
			<output>
				<port id="0" precision="FP32">
					<dim>184</dim>
				</port>
			</output>
		</layer>
		<layer id="321" name="conv10_depthwise_bn_mean" type="Const" version="opset1">
			<data element_type="f32" shape="184" offset="593072" size="736" />
			<output>
				<port id="0" precision="FP32">
					<dim>184</dim>
				</port>
			</output>
		</layer>
		<layer id="322" name="conv10_depthwise_bn_variance" type="Const" version="opset1">
			<data element_type="f32" shape="184" offset="593808" size="736" />
			<output>
				<port id="0" precision="FP32">
					<dim>184</dim>
				</port>
			</output>
		</layer>
		<layer id="323" name="conv10_depthwise_bn_mean0" type="BatchNormInference" version="opset5">
			<data epsilon="9.9999997473787516e-06" />
			<input>
				<port id="0" precision="FP32">
					<dim>-1</dim>
					<dim>184</dim>
					<dim>14</dim>
					<dim>14</dim>
				</port>
				<port id="1" precision="FP32">
					<dim>184</dim>
				</port>
				<port id="2" precision="FP32">
					<dim>184</dim>
				</port>
				<port id="3" precision="FP32">
					<dim>184</dim>
				</port>
				<port id="4" precision="FP32">
					<dim>184</dim>
				</port>
			</input>
			<output>
				<port id="5" precision="FP32" names="batch_norm_26.tmp_2">
					<dim>-1</dim>
					<dim>184</dim>
					<dim>14</dim>
					<dim>14</dim>
				</port>
			</output>
		</layer>
		<layer id="324" name="hard_swish_6.tmp_0" type="HSwish" version="opset4">
			<input>
				<port id="0" precision="FP32">
					<dim>-1</dim>
					<dim>184</dim>
					<dim>14</dim>
					<dim>14</dim>
				</port>
			</input>
			<output>
				<port id="1" precision="FP32" names="hard_swish_6.tmp_0">
					<dim>-1</dim>
					<dim>184</dim>
					<dim>14</dim>
					<dim>14</dim>
				</port>
			</output>
		</layer>
		<layer id="325" name="conv10_linear_weights" type="Const" version="opset1">
			<data element_type="f32" shape="80, 184, 1, 1" offset="594544" size="58880" />
			<output>
				<port id="0" precision="FP32">
					<dim>80</dim>
					<dim>184</dim>
					<dim>1</dim>
					<dim>1</dim>
				</port>
			</output>
		</layer>
		<layer id="326" name="conv2d_88.tmp_0" type="Convolution" version="opset1">
			<data strides="1, 1" dilations="1, 1" pads_begin="0, 0" pads_end="0, 0" auto_pad="explicit" />
			<input>
				<port id="0" precision="FP32">
					<dim>-1</dim>
					<dim>184</dim>
					<dim>14</dim>
					<dim>14</dim>
				</port>
				<port id="1" precision="FP32">
					<dim>80</dim>
					<dim>184</dim>
					<dim>1</dim>
					<dim>1</dim>
				</port>
			</input>
			<output>
				<port id="2" precision="FP32" names="conv2d_88.tmp_0">
					<dim>-1</dim>
					<dim>80</dim>
					<dim>14</dim>
					<dim>14</dim>
				</port>
			</output>
		</layer>
		<layer id="327" name="conv10_linear_bn_scale" type="Const" version="opset1">
			<data element_type="f32" shape="80" offset="653424" size="320" />
			<output>
				<port id="0" precision="FP32">
					<dim>80</dim>
				</port>
			</output>
		</layer>
		<layer id="328" name="conv10_linear_bn_offset" type="Const" version="opset1">
			<data element_type="f32" shape="80" offset="653744" size="320" />
			<output>
				<port id="0" precision="FP32">
					<dim>80</dim>
				</port>
			</output>
		</layer>
		<layer id="329" name="conv10_linear_bn_mean" type="Const" version="opset1">
			<data element_type="f32" shape="80" offset="654064" size="320" />
			<output>
				<port id="0" precision="FP32">
					<dim>80</dim>
				</port>
			</output>
		</layer>
		<layer id="330" name="conv10_linear_bn_variance" type="Const" version="opset1">
			<data element_type="f32" shape="80" offset="654384" size="320" />
			<output>
				<port id="0" precision="FP32">
					<dim>80</dim>
				</port>
			</output>
		</layer>
		<layer id="331" name="conv10_linear_bn_mean0" type="BatchNormInference" version="opset5">
			<data epsilon="9.9999997473787516e-06" />
			<input>
				<port id="0" precision="FP32">
					<dim>-1</dim>
					<dim>80</dim>
					<dim>14</dim>
					<dim>14</dim>
				</port>
				<port id="1" precision="FP32">
					<dim>80</dim>
				</port>
				<port id="2" precision="FP32">
					<dim>80</dim>
				</port>
				<port id="3" precision="FP32">
					<dim>80</dim>
				</port>
				<port id="4" precision="FP32">
					<dim>80</dim>
				</port>
			</input>
			<output>
				<port id="5" precision="FP32" names="batch_norm_27.tmp_2">
					<dim>-1</dim>
					<dim>80</dim>
					<dim>14</dim>
					<dim>14</dim>
				</port>
			</output>
		</layer>
		<layer id="332" name="elementwise_add_5" type="Add" version="opset1">
			<data auto_broadcast="numpy" />
			<input>
				<port id="0" precision="FP32">
					<dim>-1</dim>
					<dim>80</dim>
					<dim>14</dim>
					<dim>14</dim>
				</port>
				<port id="1" precision="FP32">
					<dim>-1</dim>
					<dim>80</dim>
					<dim>14</dim>
					<dim>14</dim>
				</port>
			</input>
			<output>
				<port id="2" precision="FP32" names="elementwise_add_5">
					<dim>-1</dim>
					<dim>80</dim>
					<dim>14</dim>
					<dim>14</dim>
				</port>
			</output>
		</layer>
		<layer id="333" name="conv11_expand_weights" type="Const" version="opset1">
			<data element_type="f32" shape="184, 80, 1, 1" offset="654704" size="58880" />
			<output>
				<port id="0" precision="FP32">
					<dim>184</dim>
					<dim>80</dim>
					<dim>1</dim>
					<dim>1</dim>
				</port>
			</output>
		</layer>
		<layer id="334" name="conv2d_89.tmp_0" type="Convolution" version="opset1">
			<data strides="1, 1" dilations="1, 1" pads_begin="0, 0" pads_end="0, 0" auto_pad="explicit" />
			<input>
				<port id="0" precision="FP32">
					<dim>-1</dim>
					<dim>80</dim>
					<dim>14</dim>
					<dim>14</dim>
				</port>
				<port id="1" precision="FP32">
					<dim>184</dim>
					<dim>80</dim>
					<dim>1</dim>
					<dim>1</dim>
				</port>
			</input>
			<output>
				<port id="2" precision="FP32" names="conv2d_89.tmp_0">
					<dim>-1</dim>
					<dim>184</dim>
					<dim>14</dim>
					<dim>14</dim>
				</port>
			</output>
		</layer>
		<layer id="335" name="conv11_expand_bn_scale" type="Const" version="opset1">
			<data element_type="f32" shape="184" offset="713584" size="736" />
			<output>
				<port id="0" precision="FP32">
					<dim>184</dim>
				</port>
			</output>
		</layer>
		<layer id="336" name="conv11_expand_bn_offset" type="Const" version="opset1">
			<data element_type="f32" shape="184" offset="714320" size="736" />
			<output>
				<port id="0" precision="FP32">
					<dim>184</dim>
				</port>
			</output>
		</layer>
		<layer id="337" name="conv11_expand_bn_mean" type="Const" version="opset1">
			<data element_type="f32" shape="184" offset="715056" size="736" />
			<output>
				<port id="0" precision="FP32">
					<dim>184</dim>
				</port>
			</output>
		</layer>
		<layer id="338" name="conv11_expand_bn_variance" type="Const" version="opset1">
			<data element_type="f32" shape="184" offset="715792" size="736" />
			<output>
				<port id="0" precision="FP32">
					<dim>184</dim>
				</port>
			</output>
		</layer>
		<layer id="339" name="conv11_expand_bn_mean0" type="BatchNormInference" version="opset5">
			<data epsilon="9.9999997473787516e-06" />
			<input>
				<port id="0" precision="FP32">
					<dim>-1</dim>
					<dim>184</dim>
					<dim>14</dim>
					<dim>14</dim>
				</port>
				<port id="1" precision="FP32">
					<dim>184</dim>
				</port>
				<port id="2" precision="FP32">
					<dim>184</dim>
				</port>
				<port id="3" precision="FP32">
					<dim>184</dim>
				</port>
				<port id="4" precision="FP32">
					<dim>184</dim>
				</port>
			</input>
			<output>
				<port id="5" precision="FP32" names="batch_norm_28.tmp_2">
					<dim>-1</dim>
					<dim>184</dim>
					<dim>14</dim>
					<dim>14</dim>
				</port>
			</output>
		</layer>
		<layer id="340" name="hard_swish_7.tmp_0" type="HSwish" version="opset4">
			<input>
				<port id="0" precision="FP32">
					<dim>-1</dim>
					<dim>184</dim>
					<dim>14</dim>
					<dim>14</dim>
				</port>
			</input>
			<output>
				<port id="1" precision="FP32" names="hard_swish_7.tmp_0">
					<dim>-1</dim>
					<dim>184</dim>
					<dim>14</dim>
					<dim>14</dim>
				</port>
			</output>
		</layer>
		<layer id="341" name="conv11_depthwise_weights" type="Const" version="opset1">
			<data element_type="f32" shape="184, 1, 3, 3" offset="716528" size="6624" />
			<output>
				<port id="0" precision="FP32">
					<dim>184</dim>
					<dim>1</dim>
					<dim>3</dim>
					<dim>3</dim>
				</port>
			</output>
		</layer>
		<layer id="342" name="Constant_33016" type="Const" version="opset1">
			<data element_type="i64" shape="1" offset="591592" size="8" />
			<output>
				<port id="0" precision="I64">
					<dim>1</dim>
				</port>
			</output>
		</layer>
		<layer id="343" name="Constant_33009" type="Const" version="opset1">
			<data element_type="i64" shape="1" offset="591592" size="8" />
			<output>
				<port id="0" precision="I64">
					<dim>1</dim>
				</port>
			</output>
		</layer>
		<layer id="344" name="Divide_33017" type="Divide" version="opset1">
			<data auto_broadcast="numpy" m_pythondiv="true" />
			<input>
				<port id="0" precision="I64">
					<dim>1</dim>
				</port>
				<port id="1" precision="I64">
					<dim>1</dim>
				</port>
			</input>
			<output>
				<port id="2" precision="I64">
					<dim>1</dim>
				</port>
			</output>
		</layer>
		<layer id="345" name="Constant_33015" type="Const" version="opset1">
			<data element_type="i64" shape="3" offset="3848" size="24" />
			<output>
				<port id="0" precision="I64">
					<dim>3</dim>
				</port>
			</output>
		</layer>
		<layer id="346" name="Concat_33018" type="Concat" version="opset1">
			<data axis="0" />
			<input>
				<port id="0" precision="I64">
					<dim>1</dim>
				</port>
				<port id="1" precision="I64">
					<dim>1</dim>
				</port>
				<port id="2" precision="I64">
					<dim>3</dim>
				</port>
			</input>
			<output>
				<port id="3" precision="I64">
					<dim>5</dim>
				</port>
			</output>
		</layer>
		<layer id="347" name="Reshape_33019" type="Reshape" version="opset1">
			<data special_zero="false" />
			<input>
				<port id="0" precision="FP32">
					<dim>184</dim>
					<dim>1</dim>
					<dim>3</dim>
					<dim>3</dim>
				</port>
				<port id="1" precision="I64">
					<dim>5</dim>
				</port>
			</input>
			<output>
				<port id="2" precision="FP32">
					<dim>184</dim>
					<dim>1</dim>
					<dim>1</dim>
					<dim>3</dim>
					<dim>3</dim>
				</port>
			</output>
		</layer>
		<layer id="348" name="depthwise_conv2d_9.tmp_0" type="GroupConvolution" version="opset1">
			<data strides="1, 1" pads_begin="1, 1" pads_end="1, 1" dilations="1, 1" auto_pad="explicit" />
			<input>
				<port id="0" precision="FP32">
					<dim>-1</dim>
					<dim>184</dim>
					<dim>14</dim>
					<dim>14</dim>
				</port>
				<port id="1" precision="FP32">
					<dim>184</dim>
					<dim>1</dim>
					<dim>1</dim>
					<dim>3</dim>
					<dim>3</dim>
				</port>
			</input>
			<output>
				<port id="2" precision="FP32" names="depthwise_conv2d_9.tmp_0">
					<dim>-1</dim>
					<dim>184</dim>
					<dim>14</dim>
					<dim>14</dim>
				</port>
			</output>
		</layer>
		<layer id="349" name="conv11_depthwise_bn_scale" type="Const" version="opset1">
			<data element_type="f32" shape="184" offset="723152" size="736" />
			<output>
				<port id="0" precision="FP32">
					<dim>184</dim>
				</port>
			</output>
		</layer>
		<layer id="350" name="conv11_depthwise_bn_offset" type="Const" version="opset1">
			<data element_type="f32" shape="184" offset="723888" size="736" />
			<output>
				<port id="0" precision="FP32">
					<dim>184</dim>
				</port>
			</output>
		</layer>
		<layer id="351" name="conv11_depthwise_bn_mean" type="Const" version="opset1">
			<data element_type="f32" shape="184" offset="724624" size="736" />
			<output>
				<port id="0" precision="FP32">
					<dim>184</dim>
				</port>
			</output>
		</layer>
		<layer id="352" name="conv11_depthwise_bn_variance" type="Const" version="opset1">
			<data element_type="f32" shape="184" offset="725360" size="736" />
			<output>
				<port id="0" precision="FP32">
					<dim>184</dim>
				</port>
			</output>
		</layer>
		<layer id="353" name="conv11_depthwise_bn_mean0" type="BatchNormInference" version="opset5">
			<data epsilon="9.9999997473787516e-06" />
			<input>
				<port id="0" precision="FP32">
					<dim>-1</dim>
					<dim>184</dim>
					<dim>14</dim>
					<dim>14</dim>
				</port>
				<port id="1" precision="FP32">
					<dim>184</dim>
				</port>
				<port id="2" precision="FP32">
					<dim>184</dim>
				</port>
				<port id="3" precision="FP32">
					<dim>184</dim>
				</port>
				<port id="4" precision="FP32">
					<dim>184</dim>
				</port>
			</input>
			<output>
				<port id="5" precision="FP32" names="batch_norm_29.tmp_2">
					<dim>-1</dim>
					<dim>184</dim>
					<dim>14</dim>
					<dim>14</dim>
				</port>
			</output>
		</layer>
		<layer id="354" name="hard_swish_8.tmp_0" type="HSwish" version="opset4">
			<input>
				<port id="0" precision="FP32">
					<dim>-1</dim>
					<dim>184</dim>
					<dim>14</dim>
					<dim>14</dim>
				</port>
			</input>
			<output>
				<port id="1" precision="FP32" names="hard_swish_8.tmp_0">
					<dim>-1</dim>
					<dim>184</dim>
					<dim>14</dim>
					<dim>14</dim>
				</port>
			</output>
		</layer>
		<layer id="355" name="conv11_linear_weights" type="Const" version="opset1">
			<data element_type="f32" shape="80, 184, 1, 1" offset="726096" size="58880" />
			<output>
				<port id="0" precision="FP32">
					<dim>80</dim>
					<dim>184</dim>
					<dim>1</dim>
					<dim>1</dim>
				</port>
			</output>
		</layer>
		<layer id="356" name="conv2d_90.tmp_0" type="Convolution" version="opset1">
			<data strides="1, 1" dilations="1, 1" pads_begin="0, 0" pads_end="0, 0" auto_pad="explicit" />
			<input>
				<port id="0" precision="FP32">
					<dim>-1</dim>
					<dim>184</dim>
					<dim>14</dim>
					<dim>14</dim>
				</port>
				<port id="1" precision="FP32">
					<dim>80</dim>
					<dim>184</dim>
					<dim>1</dim>
					<dim>1</dim>
				</port>
			</input>
			<output>
				<port id="2" precision="FP32" names="conv2d_90.tmp_0">
					<dim>-1</dim>
					<dim>80</dim>
					<dim>14</dim>
					<dim>14</dim>
				</port>
			</output>
		</layer>
		<layer id="357" name="conv11_linear_bn_scale" type="Const" version="opset1">
			<data element_type="f32" shape="80" offset="784976" size="320" />
			<output>
				<port id="0" precision="FP32">
					<dim>80</dim>
				</port>
			</output>
		</layer>
		<layer id="358" name="conv11_linear_bn_offset" type="Const" version="opset1">
			<data element_type="f32" shape="80" offset="785296" size="320" />
			<output>
				<port id="0" precision="FP32">
					<dim>80</dim>
				</port>
			</output>
		</layer>
		<layer id="359" name="conv11_linear_bn_mean" type="Const" version="opset1">
			<data element_type="f32" shape="80" offset="785616" size="320" />
			<output>
				<port id="0" precision="FP32">
					<dim>80</dim>
				</port>
			</output>
		</layer>
		<layer id="360" name="conv11_linear_bn_variance" type="Const" version="opset1">
			<data element_type="f32" shape="80" offset="785936" size="320" />
			<output>
				<port id="0" precision="FP32">
					<dim>80</dim>
				</port>
			</output>
		</layer>
		<layer id="361" name="conv11_linear_bn_mean0" type="BatchNormInference" version="opset5">
			<data epsilon="9.9999997473787516e-06" />
			<input>
				<port id="0" precision="FP32">
					<dim>-1</dim>
					<dim>80</dim>
					<dim>14</dim>
					<dim>14</dim>
				</port>
				<port id="1" precision="FP32">
					<dim>80</dim>
				</port>
				<port id="2" precision="FP32">
					<dim>80</dim>
				</port>
				<port id="3" precision="FP32">
					<dim>80</dim>
				</port>
				<port id="4" precision="FP32">
					<dim>80</dim>
				</port>
			</input>
			<output>
				<port id="5" precision="FP32" names="batch_norm_30.tmp_2">
					<dim>-1</dim>
					<dim>80</dim>
					<dim>14</dim>
					<dim>14</dim>
				</port>
			</output>
		</layer>
		<layer id="362" name="elementwise_add_6" type="Add" version="opset1">
			<data auto_broadcast="numpy" />
			<input>
				<port id="0" precision="FP32">
					<dim>-1</dim>
					<dim>80</dim>
					<dim>14</dim>
					<dim>14</dim>
				</port>
				<port id="1" precision="FP32">
					<dim>-1</dim>
					<dim>80</dim>
					<dim>14</dim>
					<dim>14</dim>
				</port>
			</input>
			<output>
				<port id="2" precision="FP32" names="elementwise_add_6">
					<dim>-1</dim>
					<dim>80</dim>
					<dim>14</dim>
					<dim>14</dim>
				</port>
			</output>
		</layer>
		<layer id="363" name="conv12_expand_weights" type="Const" version="opset1">
			<data element_type="f32" shape="480, 80, 1, 1" offset="786256" size="153600" />
			<output>
				<port id="0" precision="FP32">
					<dim>480</dim>
					<dim>80</dim>
					<dim>1</dim>
					<dim>1</dim>
				</port>
			</output>
		</layer>
		<layer id="364" name="conv2d_91.tmp_0" type="Convolution" version="opset1">
			<data strides="1, 1" dilations="1, 1" pads_begin="0, 0" pads_end="0, 0" auto_pad="explicit" />
			<input>
				<port id="0" precision="FP32">
					<dim>-1</dim>
					<dim>80</dim>
					<dim>14</dim>
					<dim>14</dim>
				</port>
				<port id="1" precision="FP32">
					<dim>480</dim>
					<dim>80</dim>
					<dim>1</dim>
					<dim>1</dim>
				</port>
			</input>
			<output>
				<port id="2" precision="FP32" names="conv2d_91.tmp_0">
					<dim>-1</dim>
					<dim>480</dim>
					<dim>14</dim>
					<dim>14</dim>
				</port>
			</output>
		</layer>
		<layer id="365" name="conv12_expand_bn_scale" type="Const" version="opset1">
			<data element_type="f32" shape="480" offset="939856" size="1920" />
			<output>
				<port id="0" precision="FP32">
					<dim>480</dim>
				</port>
			</output>
		</layer>
		<layer id="366" name="conv12_expand_bn_offset" type="Const" version="opset1">
			<data element_type="f32" shape="480" offset="941776" size="1920" />
			<output>
				<port id="0" precision="FP32">
					<dim>480</dim>
				</port>
			</output>
		</layer>
		<layer id="367" name="conv12_expand_bn_mean" type="Const" version="opset1">
			<data element_type="f32" shape="480" offset="943696" size="1920" />
			<output>
				<port id="0" precision="FP32">
					<dim>480</dim>
				</port>
			</output>
		</layer>
		<layer id="368" name="conv12_expand_bn_variance" type="Const" version="opset1">
			<data element_type="f32" shape="480" offset="945616" size="1920" />
			<output>
				<port id="0" precision="FP32">
					<dim>480</dim>
				</port>
			</output>
		</layer>
		<layer id="369" name="conv12_expand_bn_mean0" type="BatchNormInference" version="opset5">
			<data epsilon="9.9999997473787516e-06" />
			<input>
				<port id="0" precision="FP32">
					<dim>-1</dim>
					<dim>480</dim>
					<dim>14</dim>
					<dim>14</dim>
				</port>
				<port id="1" precision="FP32">
					<dim>480</dim>
				</port>
				<port id="2" precision="FP32">
					<dim>480</dim>
				</port>
				<port id="3" precision="FP32">
					<dim>480</dim>
				</port>
				<port id="4" precision="FP32">
					<dim>480</dim>
				</port>
			</input>
			<output>
				<port id="5" precision="FP32" names="batch_norm_31.tmp_2">
					<dim>-1</dim>
					<dim>480</dim>
					<dim>14</dim>
					<dim>14</dim>
				</port>
			</output>
		</layer>
		<layer id="370" name="hard_swish_9.tmp_0" type="HSwish" version="opset4">
			<input>
				<port id="0" precision="FP32">
					<dim>-1</dim>
					<dim>480</dim>
					<dim>14</dim>
					<dim>14</dim>
				</port>
			</input>
			<output>
				<port id="1" precision="FP32" names="hard_swish_9.tmp_0">
					<dim>-1</dim>
					<dim>480</dim>
					<dim>14</dim>
					<dim>14</dim>
				</port>
			</output>
		</layer>
		<layer id="371" name="conv12_depthwise_weights" type="Const" version="opset1">
			<data element_type="f32" shape="480, 1, 3, 3" offset="947536" size="17280" />
			<output>
				<port id="0" precision="FP32">
					<dim>480</dim>
					<dim>1</dim>
					<dim>3</dim>
					<dim>3</dim>
				</port>
			</output>
		</layer>
		<layer id="372" name="Constant_33078" type="Const" version="opset1">
			<data element_type="i64" shape="1" offset="964816" size="8" />
			<output>
				<port id="0" precision="I64">
					<dim>1</dim>
				</port>
			</output>
		</layer>
		<layer id="373" name="Constant_33071" type="Const" version="opset1">
			<data element_type="i64" shape="1" offset="964816" size="8" />
			<output>
				<port id="0" precision="I64">
					<dim>1</dim>
				</port>
			</output>
		</layer>
		<layer id="374" name="Divide_33079" type="Divide" version="opset1">
			<data auto_broadcast="numpy" m_pythondiv="true" />
			<input>
				<port id="0" precision="I64">
					<dim>1</dim>
				</port>
				<port id="1" precision="I64">
					<dim>1</dim>
				</port>
			</input>
			<output>
				<port id="2" precision="I64">
					<dim>1</dim>
				</port>
			</output>
		</layer>
		<layer id="375" name="Constant_33077" type="Const" version="opset1">
			<data element_type="i64" shape="3" offset="3848" size="24" />
			<output>
				<port id="0" precision="I64">
					<dim>3</dim>
				</port>
			</output>
		</layer>
		<layer id="376" name="Concat_33080" type="Concat" version="opset1">
			<data axis="0" />
			<input>
				<port id="0" precision="I64">
					<dim>1</dim>
				</port>
				<port id="1" precision="I64">
					<dim>1</dim>
				</port>
				<port id="2" precision="I64">
					<dim>3</dim>
				</port>
			</input>
			<output>
				<port id="3" precision="I64">
					<dim>5</dim>
				</port>
			</output>
		</layer>
		<layer id="377" name="Reshape_33081" type="Reshape" version="opset1">
			<data special_zero="false" />
			<input>
				<port id="0" precision="FP32">
					<dim>480</dim>
					<dim>1</dim>
					<dim>3</dim>
					<dim>3</dim>
				</port>
				<port id="1" precision="I64">
					<dim>5</dim>
				</port>
			</input>
			<output>
				<port id="2" precision="FP32">
					<dim>480</dim>
					<dim>1</dim>
					<dim>1</dim>
					<dim>3</dim>
					<dim>3</dim>
				</port>
			</output>
		</layer>
		<layer id="378" name="depthwise_conv2d_10.tmp_0" type="GroupConvolution" version="opset1">
			<data strides="1, 1" pads_begin="1, 1" pads_end="1, 1" dilations="1, 1" auto_pad="explicit" />
			<input>
				<port id="0" precision="FP32">
					<dim>-1</dim>
					<dim>480</dim>
					<dim>14</dim>
					<dim>14</dim>
				</port>
				<port id="1" precision="FP32">
					<dim>480</dim>
					<dim>1</dim>
					<dim>1</dim>
					<dim>3</dim>
					<dim>3</dim>
				</port>
			</input>
			<output>
				<port id="2" precision="FP32" names="depthwise_conv2d_10.tmp_0">
					<dim>-1</dim>
					<dim>480</dim>
					<dim>14</dim>
					<dim>14</dim>
				</port>
			</output>
		</layer>
		<layer id="379" name="conv12_depthwise_bn_scale" type="Const" version="opset1">
			<data element_type="f32" shape="480" offset="964824" size="1920" />
			<output>
				<port id="0" precision="FP32">
					<dim>480</dim>
				</port>
			</output>
		</layer>
		<layer id="380" name="conv12_depthwise_bn_offset" type="Const" version="opset1">
			<data element_type="f32" shape="480" offset="966744" size="1920" />
			<output>
				<port id="0" precision="FP32">
					<dim>480</dim>
				</port>
			</output>
		</layer>
		<layer id="381" name="conv12_depthwise_bn_mean" type="Const" version="opset1">
			<data element_type="f32" shape="480" offset="968664" size="1920" />
			<output>
				<port id="0" precision="FP32">
					<dim>480</dim>
				</port>
			</output>
		</layer>
		<layer id="382" name="conv12_depthwise_bn_variance" type="Const" version="opset1">
			<data element_type="f32" shape="480" offset="970584" size="1920" />
			<output>
				<port id="0" precision="FP32">
					<dim>480</dim>
				</port>
			</output>
		</layer>
		<layer id="383" name="conv12_depthwise_bn_mean0" type="BatchNormInference" version="opset5">
			<data epsilon="9.9999997473787516e-06" />
			<input>
				<port id="0" precision="FP32">
					<dim>-1</dim>
					<dim>480</dim>
					<dim>14</dim>
					<dim>14</dim>
				</port>
				<port id="1" precision="FP32">
					<dim>480</dim>
				</port>
				<port id="2" precision="FP32">
					<dim>480</dim>
				</port>
				<port id="3" precision="FP32">
					<dim>480</dim>
				</port>
				<port id="4" precision="FP32">
					<dim>480</dim>
				</port>
			</input>
			<output>
				<port id="5" precision="FP32" names="batch_norm_32.tmp_2">
					<dim>-1</dim>
					<dim>480</dim>
					<dim>14</dim>
					<dim>14</dim>
				</port>
			</output>
		</layer>
		<layer id="384" name="hard_swish_10.tmp_0" type="HSwish" version="opset4">
			<input>
				<port id="0" precision="FP32">
					<dim>-1</dim>
					<dim>480</dim>
					<dim>14</dim>
					<dim>14</dim>
				</port>
			</input>
			<output>
				<port id="1" precision="FP32" names="hard_swish_10.tmp_0">
					<dim>-1</dim>
					<dim>480</dim>
					<dim>14</dim>
					<dim>14</dim>
				</port>
			</output>
		</layer>
		<layer id="385" name="Constant_33122" type="Const" version="opset1">
			<data element_type="i64" shape="2" offset="55944" size="16" />
			<output>
				<port id="0" precision="I64">
					<dim>2</dim>
				</port>
			</output>
		</layer>
		<layer id="386" name="pool2d_3.tmp_0" type="ReduceMean" version="opset1">
			<data keep_dims="true" />
			<input>
				<port id="0" precision="FP32">
					<dim>-1</dim>
					<dim>480</dim>
					<dim>14</dim>
					<dim>14</dim>
				</port>
				<port id="1" precision="I64">
					<dim>2</dim>
				</port>
			</input>
			<output>
				<port id="2" precision="FP32" names="pool2d_3.tmp_0">
					<dim>-1</dim>
					<dim>480</dim>
					<dim>1</dim>
					<dim>1</dim>
				</port>
			</output>
		</layer>
		<layer id="387" name="conv12_se_1_weights" type="Const" version="opset1">
			<data element_type="f32" shape="120, 480, 1, 1" offset="972504" size="230400" />
			<output>
				<port id="0" precision="FP32">
					<dim>120</dim>
					<dim>480</dim>
					<dim>1</dim>
					<dim>1</dim>
				</port>
			</output>
		</layer>
		<layer id="388" name="conv2d_92.tmp_0" type="Convolution" version="opset1">
			<data strides="1, 1" dilations="1, 1" pads_begin="0, 0" pads_end="0, 0" auto_pad="explicit" />
			<input>
				<port id="0" precision="FP32">
					<dim>-1</dim>
					<dim>480</dim>
					<dim>1</dim>
					<dim>1</dim>
				</port>
				<port id="1" precision="FP32">
					<dim>120</dim>
					<dim>480</dim>
					<dim>1</dim>
					<dim>1</dim>
				</port>
			</input>
			<output>
				<port id="2" precision="FP32" names="conv2d_92.tmp_0">
					<dim>-1</dim>
					<dim>120</dim>
					<dim>1</dim>
					<dim>1</dim>
				</port>
			</output>
		</layer>
		<layer id="389" name="conv12_se_1_offset" type="Const" version="opset1">
			<data element_type="f32" shape="120" offset="1202904" size="480" />
			<output>
				<port id="0" precision="FP32">
					<dim>120</dim>
				</port>
			</output>
		</layer>
		<layer id="390" name="Constant_33125" type="Const" version="opset1">
			<data element_type="i64" shape="3" offset="61216" size="24" />
			<output>
				<port id="0" precision="I64">
					<dim>3</dim>
				</port>
			</output>
		</layer>
		<layer id="391" name="Unsqueeze_33126" type="Unsqueeze" version="opset1">
			<input>
				<port id="0" precision="FP32">
					<dim>120</dim>
				</port>
				<port id="1" precision="I64">
					<dim>3</dim>
				</port>
			</input>
			<output>
				<port id="2" precision="FP32">
					<dim>1</dim>
					<dim>120</dim>
					<dim>1</dim>
					<dim>1</dim>
				</port>
			</output>
		</layer>
		<layer id="392" name="conv2d_92.tmp_1" type="Add" version="opset1">
			<data auto_broadcast="numpy" />
			<input>
				<port id="0" precision="FP32">
					<dim>-1</dim>
					<dim>120</dim>
					<dim>1</dim>
					<dim>1</dim>
				</port>
				<port id="1" precision="FP32">
					<dim>1</dim>
					<dim>120</dim>
					<dim>1</dim>
					<dim>1</dim>
				</port>
			</input>
			<output>
				<port id="2" precision="FP32" names="conv2d_92.tmp_1">
					<dim>-1</dim>
					<dim>120</dim>
					<dim>1</dim>
					<dim>1</dim>
				</port>
			</output>
		</layer>
		<layer id="393" name="relu_15.tmp_0" type="ReLU" version="opset1">
			<input>
				<port id="0" precision="FP32">
					<dim>-1</dim>
					<dim>120</dim>
					<dim>1</dim>
					<dim>1</dim>
				</port>
			</input>
			<output>
				<port id="1" precision="FP32" names="relu_15.tmp_0">
					<dim>-1</dim>
					<dim>120</dim>
					<dim>1</dim>
					<dim>1</dim>
				</port>
			</output>
		</layer>
		<layer id="394" name="conv12_se_2_weights" type="Const" version="opset1">
			<data element_type="f32" shape="480, 120, 1, 1" offset="1203384" size="230400" />
			<output>
				<port id="0" precision="FP32">
					<dim>480</dim>
					<dim>120</dim>
					<dim>1</dim>
					<dim>1</dim>
				</port>
			</output>
		</layer>
…
			</output>
		</layer>
		<layer id="628" name="flatten_0.tmp_0" type="Reshape" version="opset1">
			<data special_zero="false" />
			<input>
				<port id="0" precision="FP32">
					<dim>-1</dim>
					<dim>1280</dim>
					<dim>1</dim>
					<dim>1</dim>
				</port>
				<port id="1" precision="I64">
					<dim>2</dim>
				</port>
			</input>
			<output>
				<port id="2" precision="FP32" names="flatten_0.tmp_0">
					<dim>-1</dim>
					<dim>-1</dim>
				</port>
			</output>
		</layer>
		<layer id="629" name="fc_weights" type="Const" version="opset1">
			<data element_type="f32" shape="1280, 1000" offset="16894756" size="5120000" />
			<output>
				<port id="0" precision="FP32">
					<dim>1280</dim>
					<dim>1000</dim>
				</port>
			</output>
		</layer>
		<layer id="630" name="linear_1.tmp_0" type="MatMul" version="opset1">
			<data transpose_a="false" transpose_b="false" />
			<input>
				<port id="0" precision="FP32">
					<dim>-1</dim>
					<dim>-1</dim>
				</port>
				<port id="1" precision="FP32">
					<dim>1280</dim>
					<dim>1000</dim>
				</port>
			</input>
			<output>
				<port id="2" precision="FP32" names="linear_1.tmp_0">
					<dim>-1</dim>
					<dim>1000</dim>
				</port>
			</output>
		</layer>
		<layer id="631" name="fc_offset" type="Const" version="opset1">
			<data element_type="f32" shape="1000" offset="22014756" size="4000" />
			<output>
				<port id="0" precision="FP32">
					<dim>1000</dim>
				</port>
			</output>
		</layer>
		<layer id="632" name="linear_1.tmp_1" type="Add" version="opset1">
			<data auto_broadcast="numpy" />
			<input>
				<port id="0" precision="FP32">
					<dim>-1</dim>
					<dim>1000</dim>
				</port>
				<port id="1" precision="FP32">
					<dim>1000</dim>
				</port>
			</input>
			<output>
				<port id="2" precision="FP32" names="linear_1.tmp_1">
					<dim>-1</dim>
					<dim>1000</dim>
				</port>
			</output>
		</layer>
		<layer id="633" name="softmax_0.tmp_0" type="SoftMax" version="opset1">
			<data axis="1" />
			<input>
				<port id="0" precision="FP32">
					<dim>-1</dim>
					<dim>1000</dim>
				</port>
			</input>
			<output>
				<port id="1" precision="FP32" names="softmax_0.tmp_0">
					<dim>-1</dim>
					<dim>1000</dim>
				</port>
			</output>
		</layer>
		<layer id="634" name="Constant_33523" type="Const" version="opset1">
			<data element_type="f32" shape="1" offset="22018756" size="4" />
			<output>
				<port id="0" precision="FP32">
					<dim>1</dim>
				</port>
			</output>
		</layer>
		<layer id="635" name="Multiply_33525" type="Multiply" version="opset1">
			<data auto_broadcast="numpy" />
			<input>
				<port id="0" precision="FP32">
					<dim>-1</dim>
					<dim>1000</dim>
				</port>
				<port id="1" precision="FP32">
					<dim>1</dim>
				</port>
			</input>
			<output>
				<port id="2" precision="FP32">
					<dim>-1</dim>
					<dim>1000</dim>
				</port>
			</output>
		</layer>
		<layer id="636" name="Constant_33524" type="Const" version="opset1">
			<data element_type="f32" shape="1" offset="22018760" size="4" />
			<output>
				<port id="0" precision="FP32">
					<dim>1</dim>
				</port>
			</output>
		</layer>
		<layer id="637" name="save_infer_model/scale_0.tmp_1" type="Add" version="opset1">
			<data auto_broadcast="numpy" />
			<input>
				<port id="0" precision="FP32">
					<dim>-1</dim>
					<dim>1000</dim>
				</port>
				<port id="1" precision="FP32">
					<dim>1</dim>
				</port>
			</input>
			<output>
				<port id="2" precision="FP32" names="save_infer_model/scale_0.tmp_1">
					<dim>-1</dim>
					<dim>1000</dim>
				</port>
			</output>
		</layer>
		<layer id="638" name="save_infer_model/scale_0.tmp_1/Result" type="Result" version="opset1">
			<input>
				<port id="0" precision="FP32">
					<dim>-1</dim>
					<dim>1000</dim>
				</port>
			</input>
		</layer>
	</layers>
	<edges>
		<edge from-layer="0" from-port="0" to-layer="2" to-port="0" />
		<edge from-layer="1" from-port="0" to-layer="2" to-port="1" />
		<edge from-layer="2" from-port="2" to-layer="7" to-port="0" />
		<edge from-layer="3" from-port="0" to-layer="7" to-port="1" />
		<edge from-layer="4" from-port="0" to-layer="7" to-port="2" />
		<edge from-layer="5" from-port="0" to-layer="7" to-port="3" />
		<edge from-layer="6" from-port="0" to-layer="7" to-port="4" />
		<edge from-layer="7" from-port="5" to-layer="8" to-port="0" />
		<edge from-layer="8" from-port="1" to-layer="10" to-port="0" />
		<edge from-layer="8" from-port="1" to-layer="38" to-port="0" />
		<edge from-layer="9" from-port="0" to-layer="10" to-port="1" />
		<edge from-layer="10" from-port="2" to-layer="15" to-port="0" />
		<edge from-layer="11" from-port="0" to-layer="15" to-port="1" />
		<edge from-layer="12" from-port="0" to-layer="15" to-port="2" />
		<edge from-layer="13" from-port="0" to-layer="15" to-port="3" />
		<edge from-layer="14" from-port="0" to-layer="15" to-port="4" />
		<edge from-layer="15" from-port="5" to-layer="16" to-port="0" />
		<edge from-layer="16" from-port="1" to-layer="24" to-port="0" />
		<edge from-layer="17" from-port="0" to-layer="23" to-port="0" />
		<edge from-layer="18" from-port="0" to-layer="20" to-port="1" />
		<edge from-layer="18" from-port="0" to-layer="22" to-port="0" />
		<edge from-layer="19" from-port="0" to-layer="20" to-port="0" />
		<edge from-layer="20" from-port="2" to-layer="22" to-port="1" />
		<edge from-layer="21" from-port="0" to-layer="22" to-port="2" />
		<edge from-layer="22" from-port="3" to-layer="23" to-port="1" />
		<edge from-layer="23" from-port="2" to-layer="24" to-port="1" />
		<edge from-layer="24" from-port="2" to-layer="29" to-port="0" />
		<edge from-layer="25" from-port="0" to-layer="29" to-port="1" />
		<edge from-layer="26" from-port="0" to-layer="29" to-port="2" />
		<edge from-layer="27" from-port="0" to-layer="29" to-port="3" />
		<edge from-layer="28" from-port="0" to-layer="29" to-port="4" />
		<edge from-layer="29" from-port="5" to-layer="30" to-port="0" />
		<edge from-layer="30" from-port="1" to-layer="32" to-port="0" />
		<edge from-layer="31" from-port="0" to-layer="32" to-port="1" />
		<edge from-layer="32" from-port="2" to-layer="37" to-port="0" />
		<edge from-layer="33" from-port="0" to-layer="37" to-port="1" />
		<edge from-layer="34" from-port="0" to-layer="37" to-port="2" />
		<edge from-layer="35" from-port="0" to-layer="37" to-port="3" />
		<edge from-layer="36" from-port="0" to-layer="37" to-port="4" />
		<edge from-layer="37" from-port="5" to-layer="38" to-port="1" />
		<edge from-layer="38" from-port="2" to-layer="40" to-port="0" />
		<edge from-layer="39" from-port="0" to-layer="40" to-port="1" />
		<edge from-layer="40" from-port="2" to-layer="45" to-port="0" />
		<edge from-layer="41" from-port="0" to-layer="45" to-port="1" />
		<edge from-layer="42" from-port="0" to-layer="45" to-port="2" />
		<edge from-layer="43" from-port="0" to-layer="45" to-port="3" />
		<edge from-layer="44" from-port="0" to-layer="45" to-port="4" />
		<edge from-layer="45" from-port="5" to-layer="46" to-port="0" />
		<edge from-layer="46" from-port="1" to-layer="54" to-port="0" />
		<edge from-layer="47" from-port="0" to-layer="53" to-port="0" />
		<edge from-layer="48" from-port="0" to-layer="50" to-port="1" />
		<edge from-layer="48" from-port="0" to-layer="52" to-port="0" />
		<edge from-layer="49" from-port="0" to-layer="50" to-port="0" />
		<edge from-layer="50" from-port="2" to-layer="52" to-port="1" />
		<edge from-layer="51" from-port="0" to-layer="52" to-port="2" />
		<edge from-layer="52" from-port="3" to-layer="53" to-port="1" />
		<edge from-layer="53" from-port="2" to-layer="54" to-port="1" />
		<edge from-layer="54" from-port="2" to-layer="59" to-port="0" />
		<edge from-layer="55" from-port="0" to-layer="59" to-port="1" />
		<edge from-layer="56" from-port="0" to-layer="59" to-port="2" />
		<edge from-layer="57" from-port="0" to-layer="59" to-port="3" />
		<edge from-layer="58" from-port="0" to-layer="59" to-port="4" />
		<edge from-layer="59" from-port="5" to-layer="60" to-port="0" />
		<edge from-layer="60" from-port="1" to-layer="62" to-port="0" />
		<edge from-layer="61" from-port="0" to-layer="62" to-port="1" />
		<edge from-layer="62" from-port="2" to-layer="67" to-port="0" />
		<edge from-layer="63" from-port="0" to-layer="67" to-port="1" />
		<edge from-layer="64" from-port="0" to-layer="67" to-port="2" />
		<edge from-layer="65" from-port="0" to-layer="67" to-port="3" />
		<edge from-layer="66" from-port="0" to-layer="67" to-port="4" />
		<edge from-layer="67" from-port="5" to-layer="69" to-port="0" />
		<edge from-layer="67" from-port="5" to-layer="97" to-port="0" />
		<edge from-layer="68" from-port="0" to-layer="69" to-port="1" />
		<edge from-layer="69" from-port="2" to-layer="74" to-port="0" />
		<edge from-layer="70" from-port="0" to-layer="74" to-port="1" />
		<edge from-layer="71" from-port="0" to-layer="74" to-port="2" />
		<edge from-layer="72" from-port="0" to-layer="74" to-port="3" />
		<edge from-layer="73" from-port="0" to-layer="74" to-port="4" />
		<edge from-layer="74" from-port="5" to-layer="75" to-port="0" />
		<edge from-layer="75" from-port="1" to-layer="83" to-port="0" />
		<edge from-layer="76" from-port="0" to-layer="82" to-port="0" />
		<edge from-layer="77" from-port="0" to-layer="79" to-port="1" />
		<edge from-layer="77" from-port="0" to-layer="81" to-port="0" />
		<edge from-layer="78" from-port="0" to-layer="79" to-port="0" />
		<edge from-layer="79" from-port="2" to-layer="81" to-port="1" />
		<edge from-layer="80" from-port="0" to-layer="81" to-port="2" />
		<edge from-layer="81" from-port="3" to-layer="82" to-port="1" />
		<edge from-layer="82" from-port="2" to-layer="83" to-port="1" />
		<edge from-layer="83" from-port="2" to-layer="88" to-port="0" />
		<edge from-layer="84" from-port="0" to-layer="88" to-port="1" />
		<edge from-layer="85" from-port="0" to-layer="88" to-port="2" />
		<edge from-layer="86" from-port="0" to-layer="88" to-port="3" />
		<edge from-layer="87" from-port="0" to-layer="88" to-port="4" />
		<edge from-layer="88" from-port="5" to-layer="89" to-port="0" />
		<edge from-layer="89" from-port="1" to-layer="91" to-port="0" />
		<edge from-layer="90" from-port="0" to-layer="91" to-port="1" />
		<edge from-layer="91" from-port="2" to-layer="96" to-port="0" />
		<edge from-layer="92" from-port="0" to-layer="96" to-port="1" />
		<edge from-layer="93" from-port="0" to-layer="96" to-port="2" />
		<edge from-layer="94" from-port="0" to-layer="96" to-port="3" />
		<edge from-layer="95" from-port="0" to-layer="96" to-port="4" />
		<edge from-layer="96" from-port="5" to-layer="97" to-port="1" />
		<edge from-layer="97" from-port="2" to-layer="99" to-port="0" />
		<edge from-layer="98" from-port="0" to-layer="99" to-port="1" />
		<edge from-layer="99" from-port="2" to-layer="104" to-port="0" />
		<edge from-layer="100" from-port="0" to-layer="104" to-port="1" />
		<edge from-layer="101" from-port="0" to-layer="104" to-port="2" />
		<edge from-layer="102" from-port="0" to-layer="104" to-port="3" />
		<edge from-layer="103" from-port="0" to-layer="104" to-port="4" />
		<edge from-layer="104" from-port="5" to-layer="105" to-port="0" />
		<edge from-layer="105" from-port="1" to-layer="113" to-port="0" />
		<edge from-layer="106" from-port="0" to-layer="112" to-port="0" />
		<edge from-layer="107" from-port="0" to-layer="109" to-port="1" />
		<edge from-layer="107" from-port="0" to-layer="111" to-port="0" />
		<edge from-layer="108" from-port="0" to-layer="109" to-port="0" />
		<edge from-layer="109" from-port="2" to-layer="111" to-port="1" />
		<edge from-layer="110" from-port="0" to-layer="111" to-port="2" />
		<edge from-layer="111" from-port="3" to-layer="112" to-port="1" />
		<edge from-layer="112" from-port="2" to-layer="113" to-port="1" />
		<edge from-layer="113" from-port="2" to-layer="118" to-port="0" />
		<edge from-layer="114" from-port="0" to-layer="118" to-port="1" />
		<edge from-layer="115" from-port="0" to-layer="118" to-port="2" />
		<edge from-layer="116" from-port="0" to-layer="118" to-port="3" />
		<edge from-layer="117" from-port="0" to-layer="118" to-port="4" />
		<edge from-layer="118" from-port="5" to-layer="119" to-port="0" />
		<edge from-layer="119" from-port="1" to-layer="121" to-port="0" />
		<edge from-layer="119" from-port="1" to-layer="138" to-port="0" />
		<edge from-layer="120" from-port="0" to-layer="121" to-port="1" />
		<edge from-layer="121" from-port="2" to-layer="123" to-port="0" />
		<edge from-layer="122" from-port="0" to-layer="123" to-port="1" />
		<edge from-layer="123" from-port="2" to-layer="127" to-port="0" />
		<edge from-layer="124" from-port="0" to-layer="126" to-port="0" />
		<edge from-layer="125" from-port="0" to-layer="126" to-port="1" />
		<edge from-layer="126" from-port="2" to-layer="127" to-port="1" />
		<edge from-layer="127" from-port="2" to-layer="128" to-port="0" />
		<edge from-layer="128" from-port="1" to-layer="130" to-port="0" />
		<edge from-layer="129" from-port="0" to-layer="130" to-port="1" />
		<edge from-layer="130" from-port="2" to-layer="134" to-port="0" />
		<edge from-layer="131" from-port="0" to-layer="133" to-port="0" />
		<edge from-layer="132" from-port="0" to-layer="133" to-port="1" />
		<edge from-layer="133" from-port="2" to-layer="134" to-port="1" />
		<edge from-layer="134" from-port="2" to-layer="137" to-port="0" />
		<edge from-layer="135" from-port="0" to-layer="137" to-port="1" />
		<edge from-layer="136" from-port="0" to-layer="137" to-port="2" />
		<edge from-layer="137" from-port="3" to-layer="138" to-port="1" />
		<edge from-layer="138" from-port="2" to-layer="140" to-port="0" />
		<edge from-layer="139" from-port="0" to-layer="140" to-port="1" />
		<edge from-layer="140" from-port="2" to-layer="145" to-port="0" />
		<edge from-layer="141" from-port="0" to-layer="145" to-port="1" />
		<edge from-layer="142" from-port="0" to-layer="145" to-port="2" />
		<edge from-layer="143" from-port="0" to-layer="145" to-port="3" />
		<edge from-layer="144" from-port="0" to-layer="145" to-port="4" />
		<edge from-layer="145" from-port="5" to-layer="147" to-port="0" />
		<edge from-layer="145" from-port="5" to-layer="194" to-port="0" />
		<edge from-layer="146" from-port="0" to-layer="147" to-port="1" />
		<edge from-layer="147" from-port="2" to-layer="152" to-port="0" />
		<edge from-layer="148" from-port="0" to-layer="152" to-port="1" />
		<edge from-layer="149" from-port="0" to-layer="152" to-port="2" />
		<edge from-layer="150" from-port="0" to-layer="152" to-port="3" />
		<edge from-layer="151" from-port="0" to-layer="152" to-port="4" />
		<edge from-layer="152" from-port="5" to-layer="153" to-port="0" />
		<edge from-layer="153" from-port="1" to-layer="161" to-port="0" />
		<edge from-layer="154" from-port="0" to-layer="160" to-port="0" />
		<edge from-layer="155" from-port="0" to-layer="157" to-port="1" />
		<edge from-layer="155" from-port="0" to-layer="159" to-port="0" />
		<edge from-layer="156" from-port="0" to-layer="157" to-port="0" />
		<edge from-layer="157" from-port="2" to-layer="159" to-port="1" />
		<edge from-layer="158" from-port="0" to-layer="159" to-port="2" />
		<edge from-layer="159" from-port="3" to-layer="160" to-port="1" />
		<edge from-layer="160" from-port="2" to-layer="161" to-port="1" />
		<edge from-layer="161" from-port="2" to-layer="166" to-port="0" />
		<edge from-layer="162" from-port="0" to-layer="166" to-port="1" />
		<edge from-layer="163" from-port="0" to-layer="166" to-port="2" />
		<edge from-layer="164" from-port="0" to-layer="166" to-port="3" />
		<edge from-layer="165" from-port="0" to-layer="166" to-port="4" />
		<edge from-layer="166" from-port="5" to-layer="167" to-port="0" />
		<edge from-layer="167" from-port="1" to-layer="169" to-port="0" />
		<edge from-layer="167" from-port="1" to-layer="186" to-port="0" />
		<edge from-layer="168" from-port="0" to-layer="169" to-port="1" />
		<edge from-layer="169" from-port="2" to-layer="171" to-port="0" />
		<edge from-layer="170" from-port="0" to-layer="171" to-port="1" />
		<edge from-layer="171" from-port="2" to-layer="175" to-port="0" />
		<edge from-layer="172" from-port="0" to-layer="174" to-port="0" />
		<edge from-layer="173" from-port="0" to-layer="174" to-port="1" />
		<edge from-layer="174" from-port="2" to-layer="175" to-port="1" />
		<edge from-layer="175" from-port="2" to-layer="176" to-port="0" />
		<edge from-layer="176" from-port="1" to-layer="178" to-port="0" />
		<edge from-layer="177" from-port="0" to-layer="178" to-port="1" />
		<edge from-layer="178" from-port="2" to-layer="182" to-port="0" />
		<edge from-layer="179" from-port="0" to-layer="181" to-port="0" />
		<edge from-layer="180" from-port="0" to-layer="181" to-port="1" />
		<edge from-layer="181" from-port="2" to-layer="182" to-port="1" />
		<edge from-layer="182" from-port="2" to-layer="185" to-port="0" />
		<edge from-layer="183" from-port="0" to-layer="185" to-port="1" />
		<edge from-layer="184" from-port="0" to-layer="185" to-port="2" />
		<edge from-layer="185" from-port="3" to-layer="186" to-port="1" />
		<edge from-layer="186" from-port="2" to-layer="188" to-port="0" />
		<edge from-layer="187" from-port="0" to-layer="188" to-port="1" />
		<edge from-layer="188" from-port="2" to-layer="193" to-port="0" />
		<edge from-layer="189" from-port="0" to-layer="193" to-port="1" />
		<edge from-layer="190" from-port="0" to-layer="193" to-port="2" />
		<edge from-layer="191" from-port="0" to-layer="193" to-port="3" />
		<edge from-layer="192" from-port="0" to-layer="193" to-port="4" />
		<edge from-layer="193" from-port="5" to-layer="194" to-port="1" />
		<edge from-layer="194" from-port="2" to-layer="196" to-port="0" />
		<edge from-layer="194" from-port="2" to-layer="243" to-port="0" />
		<edge from-layer="195" from-port="0" to-layer="196" to-port="1" />
		<edge from-layer="196" from-port="2" to-layer="201" to-port="0" />
		<edge from-layer="197" from-port="0" to-layer="201" to-port="1" />
		<edge from-layer="198" from-port="0" to-layer="201" to-port="2" />
		<edge from-layer="199" from-port="0" to-layer="201" to-port="3" />
		<edge from-layer="200" from-port="0" to-layer="201" to-port="4" />
		<edge from-layer="201" from-port="5" to-layer="202" to-port="0" />
		<edge from-layer="202" from-port="1" to-layer="210" to-port="0" />
		<edge from-layer="203" from-port="0" to-layer="209" to-port="0" />
		<edge from-layer="204" from-port="0" to-layer="206" to-port="1" />
		<edge from-layer="204" from-port="0" to-layer="208" to-port="0" />
		<edge from-layer="205" from-port="0" to-layer="206" to-port="0" />
		<edge from-layer="206" from-port="2" to-layer="208" to-port="1" />
		<edge from-layer="207" from-port="0" to-layer="208" to-port="2" />
		<edge from-layer="208" from-port="3" to-layer="209" to-port="1" />
		<edge from-layer="209" from-port="2" to-layer="210" to-port="1" />
		<edge from-layer="210" from-port="2" to-layer="215" to-port="0" />
		<edge from-layer="211" from-port="0" to-layer="215" to-port="1" />
		<edge from-layer="212" from-port="0" to-layer="215" to-port="2" />
		<edge from-layer="213" from-port="0" to-layer="215" to-port="3" />
		<edge from-layer="214" from-port="0" to-layer="215" to-port="4" />
		<edge from-layer="215" from-port="5" to-layer="216" to-port="0" />
		<edge from-layer="216" from-port="1" to-layer="218" to-port="0" />
		<edge from-layer="216" from-port="1" to-layer="235" to-port="0" />
		<edge from-layer="217" from-port="0" to-layer="218" to-port="1" />
		<edge from-layer="218" from-port="2" to-layer="220" to-port="0" />
		<edge from-layer="219" from-port="0" to-layer="220" to-port="1" />
		<edge from-layer="220" from-port="2" to-layer="224" to-port="0" />
		<edge from-layer="221" from-port="0" to-layer="223" to-port="0" />
		<edge from-layer="222" from-port="0" to-layer="223" to-port="1" />
		<edge from-layer="223" from-port="2" to-layer="224" to-port="1" />
		<edge from-layer="224" from-port="2" to-layer="225" to-port="0" />
		<edge from-layer="225" from-port="1" to-layer="227" to-port="0" />
		<edge from-layer="226" from-port="0" to-layer="227" to-port="1" />
		<edge from-layer="227" from-port="2" to-layer="231" to-port="0" />
		<edge from-layer="228" from-port="0" to-layer="230" to-port="0" />
		<edge from-layer="229" from-port="0" to-layer="230" to-port="1" />
		<edge from-layer="230" from-port="2" to-layer="231" to-port="1" />
		<edge from-layer="231" from-port="2" to-layer="234" to-port="0" />
		<edge from-layer="232" from-port="0" to-layer="234" to-port="1" />
		<edge from-layer="233" from-port="0" to-layer="234" to-port="2" />
		<edge from-layer="234" from-port="3" to-layer="235" to-port="1" />
		<edge from-layer="235" from-port="2" to-layer="237" to-port="0" />
		<edge from-layer="236" from-port="0" to-layer="237" to-port="1" />
		<edge from-layer="237" from-port="2" to-layer="242" to-port="0" />
		<edge from-layer="238" from-port="0" to-layer="242" to-port="1" />
		<edge from-layer="239" from-port="0" to-layer="242" to-port="2" />
		<edge from-layer="240" from-port="0" to-layer="242" to-port="3" />
		<edge from-layer="241" from-port="0" to-layer="242" to-port="4" />
		<edge from-layer="242" from-port="5" to-layer="243" to-port="1" />
		<edge from-layer="243" from-port="2" to-layer="245" to-port="0" />
		<edge from-layer="244" from-port="0" to-layer="245" to-port="1" />
		<edge from-layer="245" from-port="2" to-layer="250" to-port="0" />
		<edge from-layer="246" from-port="0" to-layer="250" to-port="1" />
		<edge from-layer="247" from-port="0" to-layer="250" to-port="2" />
		<edge from-layer="248" from-port="0" to-layer="250" to-port="3" />
		<edge from-layer="249" from-port="0" to-layer="250" to-port="4" />
		<edge from-layer="250" from-port="5" to-layer="251" to-port="0" />
		<edge from-layer="251" from-port="1" to-layer="259" to-port="0" />
		<edge from-layer="252" from-port="0" to-layer="258" to-port="0" />
		<edge from-layer="253" from-port="0" to-layer="255" to-port="1" />
		<edge from-layer="253" from-port="0" to-layer="257" to-port="0" />
		<edge from-layer="254" from-port="0" to-layer="255" to-port="0" />
		<edge from-layer="255" from-port="2" to-layer="257" to-port="1" />
		<edge from-layer="256" from-port="0" to-layer="257" to-port="2" />
		<edge from-layer="257" from-port="3" to-layer="258" to-port="1" />
		<edge from-layer="258" from-port="2" to-layer="259" to-port="1" />
		<edge from-layer="259" from-port="2" to-layer="264" to-port="0" />
		<edge from-layer="260" from-port="0" to-layer="264" to-port="1" />
		<edge from-layer="261" from-port="0" to-layer="264" to-port="2" />
		<edge from-layer="262" from-port="0" to-layer="264" to-port="3" />
		<edge from-layer="263" from-port="0" to-layer="264" to-port="4" />
		<edge from-layer="264" from-port="5" to-layer="265" to-port="0" />
		<edge from-layer="265" from-port="1" to-layer="267" to-port="0" />
		<edge from-layer="266" from-port="0" to-layer="267" to-port="1" />
		<edge from-layer="267" from-port="2" to-layer="272" to-port="0" />
		<edge from-layer="268" from-port="0" to-layer="272" to-port="1" />
		<edge from-layer="269" from-port="0" to-layer="272" to-port="2" />
		<edge from-layer="270" from-port="0" to-layer="272" to-port="3" />
		<edge from-layer="271" from-port="0" to-layer="272" to-port="4" />
		<edge from-layer="272" from-port="5" to-layer="274" to-port="0" />
		<edge from-layer="272" from-port="5" to-layer="302" to-port="0" />
		<edge from-layer="273" from-port="0" to-layer="274" to-port="1" />
		<edge from-layer="274" from-port="2" to-layer="279" to-port="0" />
		<edge from-layer="275" from-port="0" to-layer="279" to-port="1" />
		<edge from-layer="276" from-port="0" to-layer="279" to-port="2" />
		<edge from-layer="277" from-port="0" to-layer="279" to-port="3" />
		<edge from-layer="278" from-port="0" to-layer="279" to-port="4" />
		<edge from-layer="279" from-port="5" to-layer="280" to-port="0" />
		<edge from-layer="280" from-port="1" to-layer="288" to-port="0" />
		<edge from-layer="281" from-port="0" to-layer="287" to-port="0" />
		<edge from-layer="282" from-port="0" to-layer="284" to-port="1" />
		<edge from-layer="282" from-port="0" to-layer="286" to-port="0" />
		<edge from-layer="283" from-port="0" to-layer="284" to-port="0" />
		<edge from-layer="284" from-port="2" to-layer="286" to-port="1" />
		<edge from-layer="285" from-port="0" to-layer="286" to-port="2" />
		<edge from-layer="286" from-port="3" to-layer="287" to-port="1" />
		<edge from-layer="287" from-port="2" to-layer="288" to-port="1" />
		<edge from-layer="288" from-port="2" to-layer="293" to-port="0" />
		<edge from-layer="289" from-port="0" to-layer="293" to-port="1" />
		<edge from-layer="290" from-port="0" to-layer="293" to-port="2" />
		<edge from-layer="291" from-port="0" to-layer="293" to-port="3" />
		<edge from-layer="292" from-port="0" to-layer="293" to-port="4" />
		<edge from-layer="293" from-port="5" to-layer="294" to-port="0" />
		<edge from-layer="294" from-port="1" to-layer="296" to-port="0" />
		<edge from-layer="295" from-port="0" to-layer="296" to-port="1" />
		<edge from-layer="296" from-port="2" to-layer="301" to-port="0" />
		<edge from-layer="297" from-port="0" to-layer="301" to-port="1" />
		<edge from-layer="298" from-port="0" to-layer="301" to-port="2" />
		<edge from-layer="299" from-port="0" to-layer="301" to-port="3" />
		<edge from-layer="300" from-port="0" to-layer="301" to-port="4" />
		<edge from-layer="301" from-port="5" to-layer="302" to-port="1" />
		<edge from-layer="302" from-port="2" to-layer="304" to-port="0" />
		<edge from-layer="302" from-port="2" to-layer="332" to-port="0" />
		<edge from-layer="303" from-port="0" to-layer="304" to-port="1" />
		<edge from-layer="304" from-port="2" to-layer="309" to-port="0" />
		<edge from-layer="305" from-port="0" to-layer="309" to-port="1" />
		<edge from-layer="306" from-port="0" to-layer="309" to-port="2" />
		<edge from-layer="307" from-port="0" to-layer="309" to-port="3" />
		<edge from-layer="308" from-port="0" to-layer="309" to-port="4" />
		<edge from-layer="309" from-port="5" to-layer="310" to-port="0" />
		<edge from-layer="310" from-port="1" to-layer="318" to-port="0" />
		<edge from-layer="311" from-port="0" to-layer="317" to-port="0" />
		<edge from-layer="312" from-port="0" to-layer="314" to-port="1" />
		<edge from-layer="312" from-port="0" to-layer="316" to-port="0" />
		<edge from-layer="313" from-port="0" to-layer="314" to-port="0" />
		<edge from-layer="314" from-port="2" to-layer="316" to-port="1" />
		<edge from-layer="315" from-port="0" to-layer="316" to-port="2" />
		<edge from-layer="316" from-port="3" to-layer="317" to-port="1" />
		<edge from-layer="317" from-port="2" to-layer="318" to-port="1" />
		<edge from-layer="318" from-port="2" to-layer="323" to-port="0" />
		<edge from-layer="319" from-port="0" to-layer="323" to-port="1" />
		<edge from-layer="320" from-port="0" to-layer="323" to-port="2" />
		<edge from-layer="321" from-port="0" to-layer="323" to-port="3" />
		<edge from-layer="322" from-port="0" to-layer="323" to-port="4" />
		<edge from-layer="323" from-port="5" to-layer="324" to-port="0" />
		<edge from-layer="324" from-port="1" to-layer="326" to-port="0" />
		<edge from-layer="325" from-port="0" to-layer="326" to-port="1" />
		<edge from-layer="326" from-port="2" to-layer="331" to-port="0" />
		<edge from-layer="327" from-port="0" to-layer="331" to-port="1" />
		<edge from-layer="328" from-port="0" to-layer="331" to-port="2" />
		<edge from-layer="329" from-port="0" to-layer="331" to-port="3" />
		<edge from-layer="330" from-port="0" to-layer="331" to-port="4" />
		<edge from-layer="331" from-port="5" to-layer="332" to-port="1" />
		<edge from-layer="332" from-port="2" to-layer="334" to-port="0" />
		<edge from-layer="332" from-port="2" to-layer="362" to-port="0" />
		<edge from-layer="333" from-port="0" to-layer="334" to-port="1" />
		<edge from-layer="334" from-port="2" to-layer="339" to-port="0" />
		<edge from-layer="335" from-port="0" to-layer="339" to-port="1" />
		<edge from-layer="336" from-port="0" to-layer="339" to-port="2" />
		<edge from-layer="337" from-port="0" to-layer="339" to-port="3" />
		<edge from-layer="338" from-port="0" to-layer="339" to-port="4" />
		<edge from-layer="339" from-port="5" to-layer="340" to-port="0" />
		<edge from-layer="340" from-port="1" to-layer="348" to-port="0" />
		<edge from-layer="341" from-port="0" to-layer="347" to-port="0" />
		<edge from-layer="342" from-port="0" to-layer="344" to-port="1" />
		<edge from-layer="342" from-port="0" to-layer="346" to-port="0" />
		<edge from-layer="343" from-port="0" to-layer="344" to-port="0" />
		<edge from-layer="344" from-port="2" to-layer="346" to-port="1" />
		<edge from-layer="345" from-port="0" to-layer="346" to-port="2" />
		<edge from-layer="346" from-port="3" to-layer="347" to-port="1" />
		<edge from-layer="347" from-port="2" to-layer="348" to-port="1" />
		<edge from-layer="348" from-port="2" to-layer="353" to-port="0" />
		<edge from-layer="349" from-port="0" to-layer="353" to-port="1" />
		<edge from-layer="350" from-port="0" to-layer="353" to-port="2" />
		<edge from-layer="351" from-port="0" to-layer="353" to-port="3" />
		<edge from-layer="352" from-port="0" to-layer="353" to-port="4" />
		<edge from-layer="353" from-port="5" to-layer="354" to-port="0" />
		<edge from-layer="354" from-port="1" to-layer="356" to-port="0" />
		<edge from-layer="355" from-port="0" to-layer="356" to-port="1" />
		<edge from-layer="356" from-port="2" to-layer="361" to-port="0" />
		<edge from-layer="357" from-port="0" to-layer="361" to-port="1" />
		<edge from-layer="358" from-port="0" to-layer="361" to-port="2" />
		<edge from-layer="359" from-port="0" to-layer="361" to-port="3" />
		<edge from-layer="360" from-port="0" to-layer="361" to-port="4" />
		<edge from-layer="361" from-port="5" to-layer="362" to-port="1" />
		<edge from-layer="362" from-port="2" to-layer="364" to-port="0" />
		<edge from-layer="363" from-port="0" to-layer="364" to-port="1" />
		<edge from-layer="364" from-port="2" to-layer="369" to-port="0" />
		<edge from-layer="365" from-port="0" to-layer="369" to-port="1" />
		<edge from-layer="366" from-port="0" to-layer="369" to-port="2" />
		<edge from-layer="367" from-port="0" to-layer="369" to-port="3" />
		<edge from-layer="368" from-port="0" to-layer="369" to-port="4" />
		<edge from-layer="369" from-port="5" to-layer="370" to-port="0" />
		<edge from-layer="370" from-port="1" to-layer="378" to-port="0" />
		<edge from-layer="371" from-port="0" to-layer="377" to-port="0" />
		<edge from-layer="372" from-port="0" to-layer="374" to-port="1" />
		<edge from-layer="372" from-port="0" to-layer="376" to-port="0" />
		<edge from-layer="373" from-port="0" to-layer="374" to-port="0" />
		<edge from-layer="374" from-port="2" to-layer="376" to-port="1" />
		<edge from-layer="375" from-port="0" to-layer="376" to-port="2" />
		<edge from-layer="376" from-port="3" to-layer="377" to-port="1" />
		<edge from-layer="377" from-port="2" to-layer="378" to-port="1" />
		<edge from-layer="378" from-port="2" to-layer="383" to-port="0" />
		<edge from-layer="379" from-port="0" to-layer="383" to-port="1" />
		<edge from-layer="380" from-port="0" to-layer="383" to-port="2" />
		<edge from-layer="381" from-port="0" to-layer="383" to-port="3" />
		<edge from-layer="382" from-port="0" to-layer="383" to-port="4" />
		<edge from-layer="383" from-port="5" to-layer="384" to-port="0" />
		<edge from-layer="384" from-port="1" to-layer="386" to-port="0" />
		<edge from-layer="384" from-port="1" to-layer="403" to-port="0" />
		<edge from-layer="385" from-port="0" to-layer="386" to-port="1" />
		<edge from-layer="386" from-port="2" to-layer="388" to-port="0" />
		<edge from-layer="387" from-port="0" to-layer="388" to-port="1" />
		<edge from-layer="388" from-port="2" to-layer="392" to-port="0" />
		<edge from-layer="389" from-port="0" to-layer="391" to-port="0" />
		<edge from-layer="390" from-port="0" to-layer="391" to-port="1" />
		<edge from-layer="391" from-port="2" to-layer="392" to-port="1" />
		<edge from-layer="392" from-port="2" to-layer="393" to-port="0" />
		<edge from-layer="393" from-port="1" to-layer="395" to-port="0" />
		<edge from-layer="394" from-port="0" to-layer="395" to-port="1" />
		<edge from-layer="395" from-port="2" to-layer="399" to-port="0" />
		<edge from-layer="396" from-port="0" to-layer="398" to-port="0" />
		<edge from-layer="397" from-port="0" to-layer="398" to-port="1" />
		<edge from-layer="398" from-port="2" to-layer="399" to-port="1" />
		<edge from-layer="399" from-port="2" to-layer="402" to-port="0" />
		<edge from-layer="400" from-port="0" to-layer="402" to-port="1" />
		<edge from-layer="401" from-port="0" to-layer="402" to-port="2" />
		<edge from-layer="402" from-port="3" to-layer="403" to-port="1" />
		<edge from-layer="403" from-port="2" to-layer="405" to-port="0" />
		<edge from-layer="404" from-port="0" to-layer="405" to-port="1" />
		<edge from-layer="405" from-port="2" to-layer="410" to-port="0" />
		<edge from-layer="406" from-port="0" to-layer="410" to-port="1" />
		<edge from-layer="407" from-port="0" to-layer="410" to-port="2" />
		<edge from-layer="408" from-port="0" to-layer="410" to-port="3" />
		<edge from-layer="409" from-port="0" to-layer="410" to-port="4" />
		<edge from-layer="410" from-port="5" to-layer="412" to-port="0" />
		<edge from-layer="410" from-port="5" to-layer="459" to-port="0" />
		<edge from-layer="411" from-port="0" to-layer="412" to-port="1" />
		<edge from-layer="412" from-port="2" to-layer="417" to-port="0" />
		<edge from-layer="413" from-port="0" to-layer="417" to-port="1" />
		<edge from-layer="414" from-port="0" to-layer="417" to-port="2" />
		<edge from-layer="415" from-port="0" to-layer="417" to-port="3" />
		<edge from-layer="416" from-port="0" to-layer="417" to-port="4" />
		<edge from-layer="417" from-port="5" to-layer="418" to-port="0" />
		<edge from-layer="418" from-port="1" to-layer="426" to-port="0" />
		<edge from-layer="419" from-port="0" to-layer="425" to-port="0" />
		<edge from-layer="420" from-port="0" to-layer="422" to-port="1" />
		<edge from-layer="420" from-port="0" to-layer="424" to-port="0" />
		<edge from-layer="421" from-port="0" to-layer="422" to-port="0" />
		<edge from-layer="422" from-port="2" to-layer="424" to-port="1" />
		<edge from-layer="423" from-port="0" to-layer="424" to-port="2" />
		<edge from-layer="424" from-port="3" to-layer="425" to-port="1" />
		<edge from-layer="425" from-port="2" to-layer="426" to-port="1" />
		<edge from-layer="426" from-port="2" to-layer="431" to-port="0" />
		<edge from-layer="427" from-port="0" to-layer="431" to-port="1" />
		<edge from-layer="428" from-port="0" to-layer="431" to-port="2" />
		<edge from-layer="429" from-port="0" to-layer="431" to-port="3" />
		<edge from-layer="430" from-port="0" to-layer="431" to-port="4" />
		<edge from-layer="431" from-port="5" to-layer="432" to-port="0" />
		<edge from-layer="432" from-port="1" to-layer="434" to-port="0" />
		<edge from-layer="432" from-port="1" to-layer="451" to-port="0" />
		<edge from-layer="433" from-port="0" to-layer="434" to-port="1" />
		<edge from-layer="434" from-port="2" to-layer="436" to-port="0" />
		<edge from-layer="435" from-port="0" to-layer="436" to-port="1" />
		<edge from-layer="436" from-port="2" to-layer="440" to-port="0" />
		<edge from-layer="437" from-port="0" to-layer="439" to-port="0" />
		<edge from-layer="438" from-port="0" to-layer="439" to-port="1" />
		<edge from-layer="439" from-port="2" to-layer="440" to-port="1" />
		<edge from-layer="440" from-port="2" to-layer="441" to-port="0" />
		<edge from-layer="441" from-port="1" to-layer="443" to-port="0" />
		<edge from-layer="442" from-port="0" to-layer="443" to-port="1" />
		<edge from-layer="443" from-port="2" to-layer="447" to-port="0" />
		<edge from-layer="444" from-port="0" to-layer="446" to-port="0" />
		<edge from-layer="445" from-port="0" to-layer="446" to-port="1" />
		<edge from-layer="446" from-port="2" to-layer="447" to-port="1" />
		<edge from-layer="447" from-port="2" to-layer="450" to-port="0" />
		<edge from-layer="448" from-port="0" to-layer="450" to-port="1" />
		<edge from-layer="449" from-port="0" to-layer="450" to-port="2" />
		<edge from-layer="450" from-port="3" to-layer="451" to-port="1" />
		<edge from-layer="451" from-port="2" to-layer="453" to-port="0" />
		<edge from-layer="452" from-port="0" to-layer="453" to-port="1" />
		<edge from-layer="453" from-port="2" to-layer="458" to-port="0" />
		<edge from-layer="454" from-port="0" to-layer="458" to-port="1" />
		<edge from-layer="455" from-port="0" to-layer="458" to-port="2" />
		<edge from-layer="456" from-port="0" to-layer="458" to-port="3" />
		<edge from-layer="457" from-port="0" to-layer="458" to-port="4" />
		<edge from-layer="458" from-port="5" to-layer="459" to-port="1" />
		<edge from-layer="459" from-port="2" to-layer="461" to-port="0" />
		<edge from-layer="460" from-port="0" to-layer="461" to-port="1" />
		<edge from-layer="461" from-port="2" to-layer="466" to-port="0" />
		<edge from-layer="462" from-port="0" to-layer="466" to-port="1" />
		<edge from-layer="463" from-port="0" to-layer="466" to-port="2" />
		<edge from-layer="464" from-port="0" to-layer="466" to-port="3" />
		<edge from-layer="465" from-port="0" to-layer="466" to-port="4" />
		<edge from-layer="466" from-port="5" to-layer="467" to-port="0" />
		<edge from-layer="467" from-port="1" to-layer="475" to-port="0" />
		<edge from-layer="468" from-port="0" to-layer="474" to-port="0" />
		<edge from-layer="469" from-port="0" to-layer="471" to-port="1" />
		<edge from-layer="469" from-port="0" to-layer="473" to-port="0" />
		<edge from-layer="470" from-port="0" to-layer="471" to-port="0" />
		<edge from-layer="471" from-port="2" to-layer="473" to-port="1" />
		<edge from-layer="472" from-port="0" to-layer="473" to-port="2" />
		<edge from-layer="473" from-port="3" to-layer="474" to-port="1" />
		<edge from-layer="474" from-port="2" to-layer="475" to-port="1" />
		<edge from-layer="475" from-port="2" to-layer="480" to-port="0" />
		<edge from-layer="476" from-port="0" to-layer="480" to-port="1" />
		<edge from-layer="477" from-port="0" to-layer="480" to-port="2" />
		<edge from-layer="478" from-port="0" to-layer="480" to-port="3" />
		<edge from-layer="479" from-port="0" to-layer="480" to-port="4" />
		<edge from-layer="480" from-port="5" to-layer="481" to-port="0" />
		<edge from-layer="481" from-port="1" to-layer="483" to-port="0" />
		<edge from-layer="481" from-port="1" to-layer="500" to-port="0" />
		<edge from-layer="482" from-port="0" to-layer="483" to-port="1" />
		<edge from-layer="483" from-port="2" to-layer="485" to-port="0" />
		<edge from-layer="484" from-port="0" to-layer="485" to-port="1" />
		<edge from-layer="485" from-port="2" to-layer="489" to-port="0" />
		<edge from-layer="486" from-port="0" to-layer="488" to-port="0" />
		<edge from-layer="487" from-port="0" to-layer="488" to-port="1" />
		<edge from-layer="488" from-port="2" to-layer="489" to-port="1" />
		<edge from-layer="489" from-port="2" to-layer="490" to-port="0" />
		<edge from-layer="490" from-port="1" to-layer="492" to-port="0" />
		<edge from-layer="491" from-port="0" to-layer="492" to-port="1" />
		<edge from-layer="492" from-port="2" to-layer="496" to-port="0" />
		<edge from-layer="493" from-port="0" to-layer="495" to-port="0" />
		<edge from-layer="494" from-port="0" to-layer="495" to-port="1" />
		<edge from-layer="495" from-port="2" to-layer="496" to-port="1" />
		<edge from-layer="496" from-port="2" to-layer="499" to-port="0" />
		<edge from-layer="497" from-port="0" to-layer="499" to-port="1" />
		<edge from-layer="498" from-port="0" to-layer="499" to-port="2" />
		<edge from-layer="499" from-port="3" to-layer="500" to-port="1" />
		<edge from-layer="500" from-port="2" to-layer="502" to-port="0" />
		<edge from-layer="501" from-port="0" to-layer="502" to-port="1" />
		<edge from-layer="502" from-port="2" to-layer="507" to-port="0" />
		<edge from-layer="503" from-port="0" to-layer="507" to-port="1" />
		<edge from-layer="504" from-port="0" to-layer="507" to-port="2" />
		<edge from-layer="505" from-port="0" to-layer="507" to-port="3" />
		<edge from-layer="506" from-port="0" to-layer="507" to-port="4" />
		<edge from-layer="507" from-port="5" to-layer="509" to-port="0" />
		<edge from-layer="507" from-port="5" to-layer="556" to-port="0" />
		<edge from-layer="508" from-port="0" to-layer="509" to-port="1" />
		<edge from-layer="509" from-port="2" to-layer="514" to-port="0" />
		<edge from-layer="510" from-port="0" to-layer="514" to-port="1" />
		<edge from-layer="511" from-port="0" to-layer="514" to-port="2" />
		<edge from-layer="512" from-port="0" to-layer="514" to-port="3" />
		<edge from-layer="513" from-port="0" to-layer="514" to-port="4" />
		<edge from-layer="514" from-port="5" to-layer="515" to-port="0" />
		<edge from-layer="515" from-port="1" to-layer="523" to-port="0" />
		<edge from-layer="516" from-port="0" to-layer="522" to-port="0" />
		<edge from-layer="517" from-port="0" to-layer="519" to-port="1" />
		<edge from-layer="517" from-port="0" to-layer="521" to-port="0" />
		<edge from-layer="518" from-port="0" to-layer="519" to-port="0" />
		<edge from-layer="519" from-port="2" to-layer="521" to-port="1" />
		<edge from-layer="520" from-port="0" to-layer="521" to-port="2" />
		<edge from-layer="521" from-port="3" to-layer="522" to-port="1" />
		<edge from-layer="522" from-port="2" to-layer="523" to-port="1" />
		<edge from-layer="523" from-port="2" to-layer="528" to-port="0" />
		<edge from-layer="524" from-port="0" to-layer="528" to-port="1" />
		<edge from-layer="525" from-port="0" to-layer="528" to-port="2" />
		<edge from-layer="526" from-port="0" to-layer="528" to-port="3" />
		<edge from-layer="527" from-port="0" to-layer="528" to-port="4" />
		<edge from-layer="528" from-port="5" to-layer="529" to-port="0" />
		<edge from-layer="529" from-port="1" to-layer="531" to-port="0" />
		<edge from-layer="529" from-port="1" to-layer="548" to-port="0" />
		<edge from-layer="530" from-port="0" to-layer="531" to-port="1" />
		<edge from-layer="531" from-port="2" to-layer="533" to-port="0" />
		<edge from-layer="532" from-port="0" to-layer="533" to-port="1" />
		<edge from-layer="533" from-port="2" to-layer="537" to-port="0" />
		<edge from-layer="534" from-port="0" to-layer="536" to-port="0" />
		<edge from-layer="535" from-port="0" to-layer="536" to-port="1" />
		<edge from-layer="536" from-port="2" to-layer="537" to-port="1" />
		<edge from-layer="537" from-port="2" to-layer="538" to-port="0" />
		<edge from-layer="538" from-port="1" to-layer="540" to-port="0" />
		<edge from-layer="539" from-port="0" to-layer="540" to-port="1" />
		<edge from-layer="540" from-port="2" to-layer="544" to-port="0" />
		<edge from-layer="541" from-port="0" to-layer="543" to-port="0" />
		<edge from-layer="542" from-port="0" to-layer="543" to-port="1" />
		<edge from-layer="543" from-port="2" to-layer="544" to-port="1" />
		<edge from-layer="544" from-port="2" to-layer="547" to-port="0" />
		<edge from-layer="545" from-port="0" to-layer="547" to-port="1" />
		<edge from-layer="546" from-port="0" to-layer="547" to-port="2" />
		<edge from-layer="547" from-port="3" to-layer="548" to-port="1" />
		<edge from-layer="548" from-port="2" to-layer="550" to-port="0" />
		<edge from-layer="549" from-port="0" to-layer="550" to-port="1" />
		<edge from-layer="550" from-port="2" to-layer="555" to-port="0" />
		<edge from-layer="551" from-port="0" to-layer="555" to-port="1" />
		<edge from-layer="552" from-port="0" to-layer="555" to-port="2" />
		<edge from-layer="553" from-port="0" to-layer="555" to-port="3" />
		<edge from-layer="554" from-port="0" to-layer="555" to-port="4" />
		<edge from-layer="555" from-port="5" to-layer="556" to-port="1" />
		<edge from-layer="556" from-port="2" to-layer="558" to-port="0" />
		<edge from-layer="556" from-port="2" to-layer="605" to-port="0" />
		<edge from-layer="557" from-port="0" to-layer="558" to-port="1" />
		<edge from-layer="558" from-port="2" to-layer="563" to-port="0" />
		<edge from-layer="559" from-port="0" to-layer="563" to-port="1" />
		<edge from-layer="560" from-port="0" to-layer="563" to-port="2" />
		<edge from-layer="561" from-port="0" to-layer="563" to-port="3" />
		<edge from-layer="562" from-port="0" to-layer="563" to-port="4" />
		<edge from-layer="563" from-port="5" to-layer="564" to-port="0" />
		<edge from-layer="564" from-port="1" to-layer="572" to-port="0" />
		<edge from-layer="565" from-port="0" to-layer="571" to-port="0" />
		<edge from-layer="566" from-port="0" to-layer="568" to-port="1" />
		<edge from-layer="566" from-port="0" to-layer="570" to-port="0" />
		<edge from-layer="567" from-port="0" to-layer="568" to-port="0" />
		<edge from-layer="568" from-port="2" to-layer="570" to-port="1" />
		<edge from-layer="569" from-port="0" to-layer="570" to-port="2" />
		<edge from-layer="570" from-port="3" to-layer="571" to-port="1" />
		<edge from-layer="571" from-port="2" to-layer="572" to-port="1" />
		<edge from-layer="572" from-port="2" to-layer="577" to-port="0" />
		<edge from-layer="573" from-port="0" to-layer="577" to-port="1" />
		<edge from-layer="574" from-port="0" to-layer="577" to-port="2" />
		<edge from-layer="575" from-port="0" to-layer="577" to-port="3" />
		<edge from-layer="576" from-port="0" to-layer="577" to-port="4" />
		<edge from-layer="577" from-port="5" to-layer="578" to-port="0" />
		<edge from-layer="578" from-port="1" to-layer="580" to-port="0" />
		<edge from-layer="578" from-port="1" to-layer="597" to-port="0" />
		<edge from-layer="579" from-port="0" to-layer="580" to-port="1" />
		<edge from-layer="580" from-port="2" to-layer="582" to-port="0" />
		<edge from-layer="581" from-port="0" to-layer="582" to-port="1" />
		<edge from-layer="582" from-port="2" to-layer="586" to-port="0" />
		<edge from-layer="583" from-port="0" to-layer="585" to-port="0" />
		<edge from-layer="584" from-port="0" to-layer="585" to-port="1" />
		<edge from-layer="585" from-port="2" to-layer="586" to-port="1" />
		<edge from-layer="586" from-port="2" to-layer="587" to-port="0" />
		<edge from-layer="587" from-port="1" to-layer="589" to-port="0" />
		<edge from-layer="588" from-port="0" to-layer="589" to-port="1" />
		<edge from-layer="589" from-port="2" to-layer="593" to-port="0" />
		<edge from-layer="590" from-port="0" to-layer="592" to-port="0" />
		<edge from-layer="591" from-port="0" to-layer="592" to-port="1" />
		<edge from-layer="592" from-port="2" to-layer="593" to-port="1" />
		<edge from-layer="593" from-port="2" to-layer="596" to-port="0" />
		<edge from-layer="594" from-port="0" to-layer="596" to-port="1" />
		<edge from-layer="595" from-port="0" to-layer="596" to-port="2" />
		<edge from-layer="596" from-port="3" to-layer="597" to-port="1" />
		<edge from-layer="597" from-port="2" to-layer="599" to-port="0" />
		<edge from-layer="598" from-port="0" to-layer="599" to-port="1" />
		<edge from-layer="599" from-port="2" to-layer="604" to-port="0" />
		<edge from-layer="600" from-port="0" to-layer="604" to-port="1" />
		<edge from-layer="601" from-port="0" to-layer="604" to-port="2" />
		<edge from-layer="602" from-port="0" to-layer="604" to-port="3" />
		<edge from-layer="603" from-port="0" to-layer="604" to-port="4" />
		<edge from-layer="604" from-port="5" to-layer="605" to-port="1" />
		<edge from-layer="605" from-port="2" to-layer="607" to-port="0" />
		<edge from-layer="606" from-port="0" to-layer="607" to-port="1" />
		<edge from-layer="607" from-port="2" to-layer="612" to-port="0" />
		<edge from-layer="608" from-port="0" to-layer="612" to-port="1" />
		<edge from-layer="609" from-port="0" to-layer="612" to-port="2" />
		<edge from-layer="610" from-port="0" to-layer="612" to-port="3" />
		<edge from-layer="611" from-port="0" to-layer="612" to-port="4" />
		<edge from-layer="612" from-port="5" to-layer="613" to-port="0" />
		<edge from-layer="613" from-port="1" to-layer="615" to-port="0" />
		<edge from-layer="614" from-port="0" to-layer="615" to-port="1" />
		<edge from-layer="615" from-port="2" to-layer="617" to-port="0" />
		<edge from-layer="616" from-port="0" to-layer="617" to-port="1" />
		<edge from-layer="617" from-port="2" to-layer="618" to-port="0" />
		<edge from-layer="618" from-port="1" to-layer="620" to-port="0" />
		<edge from-layer="619" from-port="0" to-layer="620" to-port="1" />
		<edge from-layer="620" from-port="2" to-layer="621" to-port="0" />
		<edge from-layer="620" from-port="2" to-layer="628" to-port="0" />
		<edge from-layer="621" from-port="1" to-layer="625" to-port="0" />
		<edge from-layer="622" from-port="0" to-layer="625" to-port="1" />
		<edge from-layer="623" from-port="0" to-layer="625" to-port="2" />
		<edge from-layer="624" from-port="0" to-layer="625" to-port="3" />
		<edge from-layer="625" from-port="4" to-layer="627" to-port="0" />
		<edge from-layer="626" from-port="0" to-layer="627" to-port="1" />
		<edge from-layer="627" from-port="2" to-layer="628" to-port="1" />
		<edge from-layer="628" from-port="2" to-layer="630" to-port="0" />
		<edge from-layer="629" from-port="0" to-layer="630" to-port="1" />
		<edge from-layer="630" from-port="2" to-layer="632" to-port="0" />
		<edge from-layer="631" from-port="0" to-layer="632" to-port="1" />
		<edge from-layer="632" from-port="2" to-layer="633" to-port="0" />
		<edge from-layer="633" from-port="1" to-layer="635" to-port="0" />
		<edge from-layer="634" from-port="0" to-layer="635" to-port="1" />
		<edge from-layer="635" from-port="2" to-layer="637" to-port="0" />
		<edge from-layer="636" from-port="0" to-layer="637" to-port="1" />
		<edge from-layer="637" from-port="2" to-layer="638" to-port="0" />
	</edges>
	<rt_info />
</net>
